BurgersEquation/Output/2_Train/Data/PINN_state.pt (torch, 572213 bytes, 42 tensors)

hidden_layers.0.weight f8 [60, 2]
00000000: d434 fbb3 6426 d53f e7b4 cd20 f68b e1bf
00000010: 9dfd a13e 04cd a1bf ba21 dc70 2b23 d0bf
00000020: 1f50 49dd a387 e43f d27c 10cf 25bd e83f
00000030: e2f2 e3ea 5778 ebbf a2ea 8f73 f729 c33f
00000040: ae6a 7a00 e365 e5bf 6362 f11f abda dabf
00000050: f408 c43d ab76 a4bf ddcb c39a ff58 95bf
00000060: 61a8 42ab a10b ec3f 3fc1 1a5c 6a92 e13f
00000070: 15bf 2183 4e12 cd3f 426f 8da1 2fce e03f
00000080: b992 a600 0b60 d2bf b9da 9dcf 6d96 a33f
00000090: 04a0 d2cd abb2 e3bf e1c3 ed56 0d63 e13f
000000a0: e3ef 9662 26a8 e6bf 40b4 828c eacb e23f
000000b0: 4874 1235 02f1 d1bf b954 cafd 5c73 dabf
000000c0: 5682 05b3 6b28 eabf af64 5741 aeb4 eabf
000000d0: 92b8 2086 a163 e0bf eb71 b20f 1e49 d33f
000000e0: 1da2 764e 329a e43f 5a99 4e8b 1195 ba3f
000000f0: ab9a e757 6e97 e0bf ccd3 a4a0 e4b9 c4bf
00000100: 7904 41b5 e901 e23f ba1e c4b0 81e4 d6bf
00000110: 8b27 8a39 e1f1 e9bf ea7b 910f dec3 e1bf
00000120: 7dfd a329 16ad d0bf b29f 6ebc 38c7 e03f
00000130: c478 7190 0160 e0bf 349d e4e5 7dba dd3f
00000140: 4523 1ff6 248f e7bf 90bb f210 bda5 d1bf
00000150: 20c0 c1c9 5540 e5bf c6c7 5e72 efd8 b1bf
00000160: 8927 3e99 5326 dd3f c05c 42b2 a166 b93f
00000170: 8617 2861 b10c dfbf bfcf f990 cc4f ecbf
00000180: 557e 22f6 98db d83f 66fc 4487 4df8 e13f
00000190: 7546 0b85 9de7 d2bf eb18 9181 69a5 623f
000001a0: 0713 b20d e3a7 c6bf edd3 787b 80d0 c93f
000001b0: f3e7 2e3a 5587 e7bf 9645 c2ae 3086 d93f
000001c0: 2a9f e2d1 1058 cd3f c4c9 6ac5 b1ea d4bf
000001d0: 4290 9ebe 8d09 e3bf 87dc 5b97 6cfa d9bf
000001e0: 8a76 2d91 ef4c e53f 80c1 e957 e757 cabf
000001f0: 2afb 6f70 58e8 863f b670 9a22 22ff db3f
00000200: 2450 f19a 9b43 e7bf 2cef ecc9 047e c73f
00000210: cae5 a640 9b16 e43f 2457 8129 bf4b ae3f
00000220: c39c 5c1d 9480 ba3f a942 632d b145 e0bf
00000230: 8668 f4df 4dcc e4bf 65c1 7c90 9d5f e0bf
00000240: fadf 113b 8f0a cc3f 7d60 527c f347 d13f
00000250: c343 714c 6749 cebf 32ed d468 0f65 c9bf
00000260: 82bc 333b de11 e53f 5f05 4dc3 c3fd e83f
00000270: 8d23 4581 183f d33f 3125 3aac e33f e03f
00000280: 6397 aee3 5e3b eb3f b167 8cb8 ddaa e83f
00000290: 8584 c4e1 6e7e ee3f 9e0a 10ea 0794 e83f
000002a0: 3863 7383 1c65 ce3f 596f 93a0 54b6 de3f
000002b0: f5aa 3f6e 3c1b d33f dc62 532d d4bb c93f
000002c0: bab4 1ccd 2677 d6bf 8473 33c0 c34a e13f
000002d0: 9762 9202 e76b c7bf 10ea b56a d6cf c6bf
000002e0: a90d abef ec63 d6bf a15f 410a 1ce9 d9bf
000002f0: e30b f77a f1fb ca3f 83af 519a f677 c8bf
00000300: ee34 af84 0485 e3bf f7c7 332c fcd8 de3f
00000310: 4db6 5be5 50ef e13f ca78 9c99 8005 d43f
00000320: d1de d09f 518f d8bf 3c21 7174 5b73 d93f
00000330: 4e83 9ee2 8b2e e63f cca5 eb56 8244 dd3f
00000340: 5769 ad52 0236 d33f 692e 765f 35a9 e13f
00000350: 1f82 b2f1 dcee d43f 9ee4 370a 5c35 e1bf
00000360: 258f 7f36 cc9a e33f e17a bc2a d953 c93f
00000370: 4905 0366 1120 da3f a080 d6ae b830 9b3f
00000380: 78b8 6b86 3913 e4bf c60f 439e 4bbc d73f
00000390: b0a5 92eb d56e 9c3f a993 98e8 1105 893f
000003a0: 5347 07b7 169b d5bf 5238 70fc befe dfbf
000003b0: c9b3 eae1 bcb4 e5bf e2be dfb1 92bd eabf
0.3304683454160344 -0.5483351364797756 -0.034767277379610585 -0.25214658757661434 0.6415576288222872 0.7730893177248623 -0.8584403598502741 0.14971821921047473
-0.668687344488111 -0.41959646338867723 -0.03996787194229681 -0.020847314663978146 0.87641986321729 0.5491229819217905 0.22712117579384797 0.5251691966363767
-0.28711199821035965 0.03825705680258324 -0.6155604381538073 0.5433413217380086 -0.708026115949448 0.5873921150538379 -0.28033499892064073 -0.4132912138387144
-0.8174341675294936 -0.834555747623332 -0.5121619815524971 0.30133773358264077 0.6438228161324023 0.10383710528421855 -0.5184852330101725 -0.16192300647676772
0.5627335109821977 -0.35769693624795773 -0.8107763408490752 -0.555159597784834 -0.2605643660208086 0.5243190460505416 -0.5117194958836753 0.46450755548945044
-0.7362236792624591 -0.2757408776769177 -0.6641034069598426 -0.06971642057649693 0.45546426739803586 0.09922228433639457 -0.48514971244764415 -0.8847410995062929
0.38840316807361336 0.5615604059202155 -0.2953866767175904 0.0022761402765666314 -0.17699850243311507 0.2016754725351854 -0.7352701317206524 0.3988153177861816
0.2292500519590644 -0.3268246105100412 -0.5949162219080864 -0.4059096792329417 0.6656415782451444 -0.20580760758049266 0.011185351306264819 0.43744710330225745
-0.727002909300158 0.18353328570980787 0.627759577058151 0.059171651665265196 0.10352445332374587 -0.5085073362807481 -0.6499394773593543 -0.5116718122499547
0.21907225021618598 0.2700165475921564 -0.23661509735623384 -0.19839661234605327 0.6584311634341165 0.7809771360845551 0.3007260572817863 0.5077989925204404
0.8509973952211393 0.7708576778852515 0.952933731987415 0.7680701800857894 0.23746067446224983 0.4798785751461217 0.2985373570106014 0.20104458058519625
-0.35102243452531534 0.5403765443730753 -0.18298041940285678 -0.17821769915083552 -0.3498489704618018 -0.4048528766775182 0.21081369880820863 -0.19116098914252797
-0.6099875060550894 0.48199371639850547 0.5604633788731889 0.3128358364209701 -0.3837474880888126 0.3976658475044308 0.6931819368511272 0.45730646599130576
0.3001714522739766 0.551905332993056 0.3270790443730522 -0.5377636146141815 0.6126462044162265 0.1978713473008247 0.4082072731217364 0.026553044959314875
-0.627346766033738 0.37086763816136814 0.02776655435869707 0.01221670142246885 -0.3375908648860008 -0.4999234643190721 -0.6783127224385846 -0.8356412386037528

hidden_layers.0.bias f8 [60]
00000000: 78e3 1815 9fd9 e3bf ddf1 4438 6b8a e8bf
00000010: cc92 882c 2fc0 e63f 3949 8013 58e6 e3bf
00000020: 59ae 001f d451 e93f af93 6c86 5d9b bb3f
00000030: e0eb 2525 bf85 e43f 622e 0171 e699 c7bf
00000040: bc8e 8947 cc2b d43f 0f47 53a8 f731 c63f
00000050: e6cb 7923 cd03 d4bf 04e4 d991 8279 ae3f
00000060: b953 b7d0 1a6e dbbf 56a0 bdb6 2f3f d43f
00000070: f245 703d 541b e13f fbcd 3392 fac2 cabf
00000080: a680 7917 337c c13f 6a3d 942c 4ef9 dbbf
00000090: 8ad0 7825 409c b83f 5e6e 1e34 e28c d3bf
000000a0: 90a2 6766 c62f e2bf 49fe 7707 e3f0 d9bf
000000b0: 2908 9b75 864d ddbf 7fab 6eab 74ee ccbf
000000c0: aeaf d65e 56c6 e7bf 7408 636d ae13 e23f
000000d0: fe66 58cb f938 e2bf 8b11 a29f fd27 b73f
000000e0: 73fa 428a 1e12 e13f 5e2b 823c 4136 e03f
000000f0: 831e d810 4010 da3f cdec 9be2 a34f e93f
00000100: 9412 198f e43e bfbf 83f8 d740 0161 e63f
00000110: 2012 9264 f9df e5bf 7d16 2b2b 99a8 d43f
00000120: e2fa 3265 63da b3bf 3f68 009d 0939 b53f
00000130: f66c ae94 764b d03f 721c 1456 15bc d0bf
00000140: 02e8 f23a 97a2 e23f 57c8 102b 8e98 e23f
00000150: 921d 2b39 ce2f e4bf 25e3 69be e8bb ce3f
00000160: 0861 3fcf 1dfd e4bf 9c91 74f7 bf16 d7bf
00000170: a55f f45f 216a d73f 504d 41ba eaab e6bf
00000180: 99e2 c3e6 64a9 953f 41e4 8960 f8bb df3f
00000190: 9dba e0fe 88d2 e43f 0d62 99af a157 e63f
000001a0: 371a 6a15 7b11 e6bf 3461 7908 2601 e0bf
000001b0: 9d1e f161 0be8 dbbf 2206 550e 6386 d93f
000001c0: 0c2b 706f 7843 df3f 8662 e41d 0ab9 dbbf
000001d0: cd41 566d dbf9 d63f 91cb c1fc 4d62 e4bf
-0.6203151142172905 -0.7668968295106954 0.7109599942965246 -0.6218681698685834 0.791238842536994 0.10783943683470797 0.6413264966535017 -0.1843841602115957
0.315173215733221 0.17339988440522133 -0.31273201431684894 0.05952079801949853 -0.42859526045259205 0.31635659070753286 0.5345860671970384 -0.20907528055941768
0.13660277029248852 -0.4370913920729068 0.09613419451562968 -0.3054738530133586 -0.5683319091886734 -0.40532756547324716 -0.4578567646495935 -0.2260270917007254
-0.7429611065212975 0.5649025093519087 -0.5694550487125694 0.09045395991603848 0.5334618282721081 0.5066229039960992 0.4072418369764607 0.7909717012365945
-0.1220534180984692 0.6993414179303418 -0.6835905994672125 0.3227904244962259 -0.07755109043771882 0.08290157397314689 0.25460590858138177 -0.26147969633206636
0.5823475028366831 0.5811224785923156 -0.63083563962657 0.24010953233280322 -0.6558980033687769 -0.3607635418468591 0.36585268374028096 -0.7084859502596519
0.021153999886311146 0.49584779193498113 0.6507000902255019 0.6981972150488801 -0.6896338861705037 -0.5001402059088265 -0.4360378700698478 0.39882732772466245
0.48849306948311333 -0.43316891593125495 0.35900006940303514 -0.6370000778828048

hidden_layers.1.weight f8 [60, 60]
00000000: 070e aa77 3465 d03f 03b7 3cbf 8172 be3f
00000010: 2ea7 fdc0 5f2d a8bf 583a ea18 9b41 b83f
00000020: 90b9 31fb e058 b8bf fbee c020 46e0 9bbf
00000030: 2dfb 4ff1 64e5 c3bf efb1 1687 0765 823f
00000040: 6fe8 47a2 78b9 8d3f a525 cb5c 8674 853f
00000050: f948 230a d7d0 aa3f bcc0 ae14 e97c c6bf
00000060: 3c6c d0b3 5adf ba3f 86cb 7cbf e226 bb3f
00000070: 9e1f 8f9a a533 b6bf 40f9 686c 6941 b4bf
00000080: 7531 2d83 45f6 bdbf 6116 8d9d d280 bfbf
00000090: 2561 ccab 2740 90bf afa4 1261 3675 6dbf
000000a0: 3650 1c6c 13aa 8f3f 7370 f253 04d3 c0bf
000000b0: 5f93 3156 5500 afbf 4c6b 1955 ea59 b7bf
000000c0: ab88 fafa debd 403f ce8b 0039 b140 af3f
000000d0: 0818 8d1c a04d be3f a74b 8e29 1843 abbf
000000e0: b3c3 7cd8 54b7 b7bf a1b5 76de 6626 c9bf
000000f0: fb72 6180 b6b1 bbbf 02fd b2ad d2f4 98bf
00000100: 470b 93ee 8979 c1bf 76d2 0d84 e609 98bf
00000110: 9573 5663 c9c9 b43f 3bfa 117a 6d88 d3bf
00000120: bc4b 39b6 7dbd 923f e245 f9fa 70f6 acbf
00000130: a88b 06bc 63f3 aebf 6fcd 9a43 fea6 ce3f
00000140: 2742 0c58 4c4f c2bf 0d48 df17 80da 8dbf
00000150: c4a9 8c96 7f2d 9e3f 8234 bec8 71e9 acbf
00000160: 6208 6d35 259a b73f 1836 7a8e 5b2e b33f
00000170: e3b3 d360 5156 d3bf 3966 62b5 2e38 ba3f
00000180: bb86 0363 2679 b63f aa04 3a87 5715 b3bf
00000190: d820 6095 9f18 c7bf 53af f974 13f2 bfbf
000001a0: d74e 2eb0 9b3c ca3f 756a 08b6 8296 bb3f
000001b0: 5451 f389 2762 943f 7772 ed43 3c08 bebf
000001c0: e0fd 6602 a3b0 b0bf c448 ad4b 7645 953f
000001d0: b1e7 1c0d 2c9e c8bf 8bc9 eb48 8c9b 80bf
000001e0: d352 9ddc 730d aa3f cc2d 34f9 04d3 b8bf
000001f0: d4a4 f9a6 79c7 b93f 8bed f0de a8da b13f
00000200: dbad 7eda 24ef 8ebf 9eb0 7c6f 19c1 c8bf
00000210: 31af 2b27 a842 c2bf 24f6 fcb4 5ffe c7bf
00000220: cfa4 81ea 88c3 a9bf 5f06 fdb4 c017 c0bf
00000230: ea2c 84e2 0c12 bbbf d5ea cbe1 5ffe c03f
00000240: 6d9b 4954 2afe a23f efb9 4f66 ca35 c1bf
00000250: 00ab 1165 395e b2bf 1744 39c0 c4d0 ac3f
00000260: f95a 7363 fab1 be3f 67c3 839d 3c52 a33f
00000270: 20b2 9528 afdc 8b3f 54fe ad10 80f7 ccbf
00000280: 870d 7d0c 65a6 c03f ae72 200c 6120 66bf
00000290: d50b 58c4 707a b03f 9090 d3ee 0465 ba3f
000002a0: 76bd 877c 0eda b23f b61b 6849 9f66 47bf
000002b0: ac6e 5639 e14e babf ed77 cf53 b7fb c0bf
000002c0: eece d72c a289 a73f 5058 48f6 8f38 ad3f
000002d0: 81a7 5b24 2bcc be3f 47c6 fb96 5e1b a33f
000002e0: 7631 9a2d cf83 a23f 9911 5919 4c0a 7f3f
000002f0: 6685 e8d1 1678 9ebf ae4a bab4 24ea ce3f
00000300: c7ce cece c86d 84bf 31f7 bed2 696b c53f
00000310: 0fd8 51b8 123d 863f f957 4e44 dbba c9bf
00000320: 5c27 0678 203c a93f 1329 0ce1 d4f6 c1bf
00000330: 0959 ead7 b720 8ebf 9d5d 085d 7585 87bf
00000340: 77cc 164e 27e5 c5bf 6884 b146 9f2a b8bf
00000350: 6fe5 7ae7 5bd2 d03f 4a20 d488 723b ac3f
00000360: b629 8139 3cdc c3bf 9416 0f90 5897 a3bf
00000370: ac5d ffb9 38a8 ad3f fa94 780b daa0 b7bf
00000380: 6ebb 31a2 d056 ad3f d1de c86b 9592 9fbf
00000390: 662d b296 af0d ba3f 45e3 922b 12f0 a13f
000003a0: 7f6f 7091 62f3 a1bf 3dbe a06e 3b8f a43f
000003b0: 5bda 447c 19df c23f 2b09 61e6 85b6 b0bf
000003c0: afc5 5256 ff74 c0bf f700 ef20 20a7 9dbf
000003d0: 2a7d c20d 3eba bdbf 8fe1 7f92 c8f3 b23f
000003e0: 6c37 345a 8169 c1bf 563b b79a 19bb adbf
000003f0: 68ad 7dfa 286e b53f dd0e 8cf7 3fa5 a7bf
00000400: b409 2d8e 8e01 a6bf 0dcc 3c1d cd71 87bf
00000410: 2d8a 8646 477c b1bf 03b3 572a 8ea8 b83f
00000420: 9c69 bfc6 43ef bf3f 1e69 a017 f2dc 8cbf
00000430: 4735 0c67 8c50 afbf b14e 8359 322d b93f
00000440: bd04 2969 530c a23f 1a54 b162 564c ba3f
00000450: 5b52 bbf9 99f7 b33f 58c9 7cf1 23ae abbf
00000460: eb4d c7bf 1525 ad3f d3e6 4ea4 5b4b 803f
00000470: de6d 6bdb 0f0e ab3f 0c3f 78dd 08a7 a7bf
00000480: 807d f72a 8724 b4bf 118b 3d05 9938 bbbf
00000490: 318a ccb1 d4ca ae3f 202b 27e5 4166 b23f
000004a0: 8970 dc68 1998 be3f 7b77 ef89 fc5e c53f
000004b0: b483 5ac5 b8ac 953f 5d40 4783 dd32 9cbf
000004c0: 8927 7e64 7031 bd3f 6b56 8498 71ea b43f
000004d0: e8fa 28ae 2673 a13f 0464 8bbb c4c4 c13f
000004e0: 067c 374b 5843 a8bf fdfc 6bed a406 9e3f
000004f0: 0b3c a798 c516 a4bf 6098 a0cc f520 cfbf
00000500: 6c7e 72b9 8800 bdbf d0ec fa5f 6c7b 9a3f
00000510: d026 8f19 fcb5 bdbf 2b66 4e44 17b9 b13f
00000520: dc23 072d f283 d1bf 95f7 2017 bb2b a73f
00000530: 9417 8cce ccb6 ce3f 77a0 449c 7b0e 64bf
00000540: 0ca3 5e5a 73c1 873f 7e9f 1ec7 67a2 b7bf
00000550: 5e03 7cfd c568 5b3f 9a86 222d 4c84 b1bf
00000560: c59c fb31 7a5a a7bf 9196 aabf aeec c0bf
00000570: 290d 7875 184c 9cbf 7139 df18 d0f1 c03f
00000580: 42d5 616f 6bf3 b5bf e479 d710 a688 98bf
00000590: 2e1d 3177 a111 c53f 141b 977e 7b38 b83f
000005a0: 12af 3188 21fd c4bf 8d02 4ad9 ed2d a2bf
000005b0: b8e3 5e2c 924b c13f 4f08 d022 9766 bfbf
000005c0: c83d 5b16 716e bbbf ffd8 655f b55f b2bf
000005d0: f604 0a68 576b a33f 5678 626a 73d9 d03f
000005e0: 1900 cbb8 6e59 463f 790b 18ad f9a3 9a3f
000005f0: 61f8 f881 292f b13f af4a 4bc9 c1d9 bebf
00000600: 9cd0 267a 1a20 c6bf ebad 15f1 b9ca 873f
00000610: 31ee a525 bbe0 bc3f 217a da30 6de3 b7bf
00000620: 0452 42d1 d2f3 bb3f 17ec ac30 6338 c1bf
00000630: 4917 333a 3177 d03f 03c1 ff2f bea0 a1bf
00000640: e59f 1821 a860 cabf f45e 41e5 89d0 95bf
00000650: 4113 f464 6d24 c23f 4621 793f 424f cabf
00000660: 6867 c5ed 0437 d13f 06a2 cc56 0f5c c4bf
00000670: 2e6a 3139 6502 c4bf 6014 c1f5 0333 c2bf
00000680: 244b dd49 ae76 c43f 1265 e65a 3e45 d4bf
00000690: 3da3 2ba9 ab7e c33f 9038 0fde 027d c93f
000006a0: d803 0adb e9a2 cfbf e994 9192 6b57 c83f
000006b0: 5171 622d 909e b2bf 37f7 e24d d4a2 cebf
000006c0: 1c9d 199e 0ee5 cf3f f12b 5474 4b07 bcbf
000006d0: 7017 6ea8 bb94 cc3f f5a7 ce6b 7fbc d73f
000006e0: aef1 d23a 5d64 b73f ca84 3b01 79e0 bd3f
000006f0: 39f1 9f4a ba55 ce3f a25b e384 23d7 aa3f
00000700: 9b87 aff2 9b0e a03f 3f72 56fa 62d3 a7bf
00000710: 4564 7e41 c398 d7bf 72b6 63aa f240 cdbf
00000720: 44e7 92f7 8a83 9abf 15ef 2020 51f3 c93f
00000730: e91b 43c3 d774 ce3f eac6 26f6 bff6 c83f
00000740: 734a 96f3 5234 d73f 343f 13c4 4f2a b3bf
00000750: a7a4 9184 a35c bf3f a275 8201 9e0f 993f
00000760: b9e0 36ae 7086 bfbf 2633 ef80 c49c 6ebf
00000770: 6371 950b bf19 c5bf d969 6585 2d34 abbf
00000780: 3441 ee56 fd05 70bf 42a0 b9f2 de57 b63f
00000790: ea73 fc0e 5ce6 b13f e4a8 cf61 1e33 a7bf
000007a0: e24d 0723 d62f c3bf 366c d938 b876 52bf
000007b0: 938c a317 5de3 c1bf eefd df4c 4799 c5bf
000007c0: 9a5d d963 fc5c 99bf 1903 4a61 4b8e c2bf
000007d0: 2976 0afc 394e b8bf 80ea 7072 4d26 98bf
000007e0: 26cf 1df8 244b 8f3f 8b56 635d 299a 92bf
000007f0: 8c43 77cf 5a60 b13f b2e1 8010 d380 ad3f
0.2561770599934054 0.11893473547817383 -0.04722117644162292 0.09475106580996717 -0.09510618336364574 -0.02722272467529672 -0.1554380586894352 0.008981760797575481
0.014513914539737464 0.010476159769853785 0.052374572742012356 -0.1756869650830647 0.10497061624521192 0.10606209921824758 -0.08672556899466463 -0.0791231050179464
-0.11703905537178179 -0.12305942865813214 -0.015869731770267088 -0.003595930299145587 0.015461112725042008 -0.13143972491241449 -0.060549418231665035 -0.09121574952716321
0.000510915639058381 0.06104043789698431 0.11837197014855871 -0.05324626452706776 -0.09264116559349027 -0.19648443090902126 -0.10818043360036349 -0.024371425487285776
-0.1365215697206514 -0.023475267229019235 0.08120402026402325 -0.3052018825618778 0.018300976035174207 -0.056567698131981606 -0.0604506651900672 0.2394712286091862
-0.14304498957837206 -0.014576912621041794 0.029470437587556977 -0.056468539957770694 0.09219582132667051 0.07492611149265149 -0.30214342551954426 0.10241977623299982
0.08778610150650483 -0.07454440165931212 -0.18043894571042673 -0.12478753667681745 0.20497461416800064 0.10776535934602711 0.019905679507091392 -0.11731316240679655
-0.06519526299143008 0.020772789353323842 -0.19232702865866494 -0.00810918424165121 0.050883885078894096 -0.0969699009330533 0.10070000006239194 0.06974273150347281
-0.015104568403180465 -0.1933929247255763 -0.1426592055571461 -0.1874503740054233 -0.05031993734957895 -0.12572487675975005 -0.10574417619880064 0.1327628948709704
0.037095377720837465 -0.13445405955958686 -0.07175024716859113 0.05628027769547133 0.11990322998040516 0.037736791828030296 0.013604515481994872 -0.22630310835301037
0.13007796392239987 -0.0027009864288756935 0.06436829370072357 0.10310393172000176 0.07363977947510655 -0.0007141378180798217 -0.10276610994190588 -0.13268176643663257
0.04597193524742048 0.057072161496919294 0.12030286443373762 0.037318187647440264 0.03616187507313644 0.007578179609087598 -0.02975497871569157 0.2415204889735682
-0.009975022135996338 0.16734049597101255 0.010858675241461694 -0.20101490817313541 0.049286856318828426 -0.14034520138404413 -0.014710842396465045 -0.011485020543701202
-0.17105571091596847 -0.0944003627387403 0.26283929448580684 0.05514104767104351 -0.15515854652251243 -0.03826405294925653 0.05792405386426522 -0.09229815273336675
0.05730297069464184 -0.030832609847691487 0.10177133015729609 0.03503472120195864 -0.03506000543003917 0.04015527463377253 0.14743345802135618 -0.06528508066643172
-0.12857047762876792 -0.028957845697505893 -0.11612308345728609 0.07403234078072372 -0.13603226570597415 -0.05806808484668717 0.08371215930462983 -0.0461826314622422
-0.04298062787576687 -0.011447527365453092 -0.0683025881940373 0.09632195028070716 0.12474464037169358 -0.014093295427347882 -0.06116141088396403 0.09834589658140193
0.03525028856939503 0.10272731694688311 0.0779968485542865 -0.05406296084255996 0.056923560772385993 0.007956233932293532 0.052841659102081925 -0.04619624808776565
-0.07868237303727277 -0.10633236291827709 0.06014122648618459 0.0718728241401263 0.11950835046849496 0.16696125731590059 0.021166693730836975 -0.027537785661309367
0.1140356297820785 0.08170232747610277 0.03408165813424607 0.13881739766546286 -0.04738880079434442 0.02932222079379886 -0.03923623550837626 -0.24319336406296355
-0.11328939940949007 0.025861447675862348 -0.11605811714175762 0.06923051278717966 -0.2736783447003839 0.04525551469167436 0.2399536140948696 -0.0024483122125680784
0.01159944648300517 -0.09232185946768642 0.0016729291436947328 -0.06842495061803291 -0.04561216220991463 -0.13222298010548575 -0.02763403145764901 0.13237954344226524
-0.08574553937235854 -0.023958773401199354 0.16460054702677368 0.09461185303289837 -0.16397494459248968 -0.035506661200092805 0.1351187435773491 -0.12265915489118238
-0.10715395732699229 -0.07177289561318288 0.037928325128641235 0.2632721461212716 0.0006820479043980781 0.02601614111882664 0.06712588713796343 -0.12051020779044096
-0.17285471882280923 0.011617138547726355 0.11280412358421966 -0.09331400339804265 0.10918920143951288 -0.13453330876095101 0.2572749203067031 -0.03442949615407722
-0.20607473007225888 -0.02130332433475153 0.14173667363516 -0.2055437860419806 0.2689831087096679 -0.15905944574593905 -0.15632310192707294 -0.14218186855046877
0.15987185103093637 -0.31672629239035743 0.15230317840839716 0.19912753908869663 -0.24715922541875446 0.19016785294221641 -0.07273198230763468 -0.23934415629440206
0.24917776794175317 -0.10948630895670398 0.22328897213099763 0.37087998893787183 0.09137518583424395 0.11670643119898041 0.23699120181835 0.05242262837571522
0.031361459135737145 -0.046534627016829415 -0.3686988963687024 -0.22854455299186643 -0.025892421112735833 0.20273794239789625 0.23794075998577505 0.19503020781626584
0.36256860530662677 -0.07486437355987335 0.12250730501695505 0.02447363743032372 -0.12314514401703293 -0.0037368619882499786 -0.16484821382153844 -0.053132460149487755
-0.0039119621350354634 0.08727830339341927 0.06992125860092782 -0.04531187957748431 -0.14989735327127024 -0.0011269377750042892 -0.13975108770600694 -0.16874018911037986
-0.024768775553040003 -0.1449674820942384 -0.09494364169446413 -0.02358361254685315 0.01528004533950129 -0.018166204762414522 0.06787650647244287 0.05762347771127753

hidden_layers.1.bias f8 [60]
00000000: 1d33 b115 c9b2 a7bf d509 29e2 a62e 6cbf
00000010: db2c 96e4 9138 853f b857 d178 e8c0 b63f
00000020: 90d5 9636 5971 8bbf 378b ef30 24ee d83f
00000030: dfa3 b9b7 84a9 853f 3d1e 47a6 dbfe c0bf
00000040: 9de9 55dd 1500 d1bf e285 31e1 e4be 6a3f
00000050: a706 c4ee a6d2 a1bf b4ef 4e12 bb5b cc3f
00000060: cfb2 ff85 2a6d d0bf ea3e c7a3 efd0 acbf
00000070: cfd9 a29c 311c 94bf 8fb9 1360 bff7 d23f
00000080: 877b 07b6 1f50 b63f ff17 6c24 3f97 d43f
00000090: 57be ed81 f212 c63f 684e 8002 a8c8 d4bf
000000a0: e0df 4403 90a9 c73f 7ee4 3109 d08a c83f
000000b0: 89a7 e790 6235 cabf cf12 e962 74e1 b6bf
000000c0: 8bcf 47d7 54a1 d8bf 1152 31a2 d9de cebf
000000d0: 0b63 55c5 794f d3bf d856 f3ea 82a2 78bf
000000e0: 1aa3 5cbd 9e62 d1bf 31d9 5835 b6ff a83f
000000f0: e1b8 6bd3 2c05 b3bf 674d d2a3 90a2 cc3f
00000100: 3163 a21f 4c56 d7bf 6fa1 5634 c526 c73f
00000110: c07d f366 0c13 bbbf 405c 8e6d 2932 c7bf
00000120: 4bbc 841c 177b a63f 924a 0a40 b6f3 a2bf
00000130: f114 f22b cee0 aebf 90aa 7e17 4254 c53f
00000140: 2743 bdfd 8806 d53f b2ce 068c 7cd1 bebf
00000150: aa65 f576 5b29 d9bf 7f51 22a4 3398 cabf
00000160: b7a9 4f57 bba9 72bf 6725 e32f 96e2 923f
00000170: 1a29 8b83 30ec b23f fe63 0f25 7dbc d9bf
00000180: 2ba1 d880 86f4 bcbf 9e4a ebdf e4c0 c2bf
00000190: f6da d44f 15d1 c93f fcad cb40 da5e da3f
000001a0: 54d9 a1de 2e23 cebf 79e5 04c4 261e d33f
000001b0: 1a03 4657 33c6 b3bf 804a fab5 e76d c9bf
000001c0: b808 1d20 58f3 d1bf 6838 8948 4265 d63f
000001d0: b1b5 1c6d aab8 c4bf ee77 e2c7 b838 a43f
-0.04628590001866526 -0.0034402141039049186 0.010361804760370344 0.08888104390766116 -0.01339978883593565 0.38953499583128653 0.010577236992689918 -0.13277764910729842
-0.26563021292499817 0.0032648535066506093 -0.03481027283306775 0.22154940027200853 -0.2566629704077003 -0.0562815558838546 -0.01963880079775909 0.2963713110210841
0.0871600932509705 0.3217313628850888 0.1724532255570803 -0.3247470879007097 0.18486213836308618 0.19173622559518216 -0.2047541816276033 -0.08937766470723861
-0.38484688781249393 -0.24117584628642466 -0.30172580977300417 -0.00601435794597701 -0.2716442918049765 0.048825925838558944 -0.07429771577492118 0.2237110900792729
-0.3646421727112737 0.1808706765707586 -0.10575940621810442 -0.18121831750315387 0.043907854300748804 -0.037015624349028844 -0.06030887876935676 0.16663385531622454
0.3285238721774015 -0.12038401049249606 -0.3931492482857616 -0.2077698279796429 -0.004556400109303408 0.018442484543617434 0.07391646586907932 -0.4021294462123136
-0.11310616155299573 -0.14651165898847734 0.20169321439762883 0.4120393402833711 -0.23544870253290162 0.2987152971505434 -0.07724305039120019 -0.19866653810148094
-0.2804775537116586 0.34993035396190075 -0.16188555076352665 0.03949525299070432

hidden_layers.2.weight f8 [60, 60]
00000000: 6d3e db9e 463b 98bf 2e6f 4e0a 1f03 913f
00000010: 24bf b724 21b0 b63f 1656 b665 4e30 9bbf
00000020: 854b 98d4 3731 73bf 01ad 8bae 2192 853f
00000030: 090b 891e e97a c33f 9ee3 14bf e4cb b9bf
00000040: ecf5 2e65 56cc adbf 4a70 7594 b1b2 70bf
00000050: dc9f 95c1 7e7c b93f 9eda e9f6 9731 cbbf
00000060: e6ff d994 59de ad3f 53d4 d506 cc7d 843f
00000070: 6ffd 943a a16e c13f e006 89ef 12b1 b2bf
00000080: 37ee f075 646b 903f 38fd 4604 0663 a13f
00000090: 8b24 4108 23fa bb3f c806 1163 caed bdbf
000000a0: e8be 8b81 9520 b8bf a638 e21a d7c2 c2bf
000000b0: ff84 d2ee 2482 b2bf c64a 0628 0ab4 b0bf
000000c0: ed4a fa24 e754 c1bf f54d def6 e556 cd3f
000000d0: ef1e 6e29 f9ea b93f b1c3 5e18 f71f 8cbf
000000e0: 7634 49f5 82a2 b53f 096a 1659 f59b afbf
000000f0: c99b 68a8 a621 b93f ab15 bed9 8373 b6bf
00000100: 61ce 24e5 5de2 91bf 835c f53e 534b aa3f
00000110: 9723 bd1b 1048 8bbf 698d 4ffb fd68 b1bf
00000120: 2ee4 f837 cd66 b4bf c90a 584a a9d5 a13f
00000130: 7fcd 2ea2 e2d9 b43f 9bd4 87f9 42b7 c13f
00000140: 1a88 b8f0 f06c be3f 5b69 f2bb ce07 93bf
00000150: 73de 12bc 1fcd bd3f bd01 cb6e f0f3 a1bf
00000160: f782 39ee edd6 a5bf 1220 79d7 edcf 993f
00000170: bc6a 5f6f 8f95 a0bf b679 dbb9 1697 b6bf
00000180: a7bc 072d 5382 adbf f920 c056 5072 91bf
00000190: 1101 5574 c692 c63f 92cc e20b 7814 a1bf
000001a0: d253 a804 d443 c43f ee24 6778 7cb9 b7bf
000001b0: fc6a 5f9b 5530 b63f 92dc b7fa 1d97 c7bf
000001c0: 19f3 7cfc 08b1 9c3f 20b9 5438 9861 b5bf
000001d0: 9c6b fe70 3d29 993f 2258 2452 0bfa b5bf
000001e0: 2cd8 622a 3102 bb3f fa62 a3a2 4296 b73f
000001f0: 2521 e93d 19d8 b6bf 19a0 adcf f4dd b4bf
00000200: 7d7d 24c7 1644 a43f 0749 8f17 2560 aa3f
00000210: 2f3d 360f c30e 453f e855 6284 6106 c1bf
00000220: e70d 1c0d 9f64 8e3f 398a 2bdf 4590 bdbf
00000230: a062 af39 3b47 bf3f 97e8 03cd 7d84 a7bf
00000240: db72 8d2b 13fe b6bf 3ef0 e9c8 4f0a 9a3f
00000250: 4daa 08f8 15c5 b63f 7f19 f588 62ff 93bf
00000260: 5a69 df03 fa37 b0bf 0f05 b1d7 e113 83bf
00000270: 0f1a 4770 2396 c7bf 6938 27f7 36c3 c2bf
00000280: 4956 dd8f 1537 b1bf c544 7f9c 81fa abbf
00000290: 5cee d763 9deb b5bf 3db8 09f9 4f1a 843f
000002a0: 62aa 0926 1d3a c43f 6b0e 3c70 3a0d c13f
000002b0: 3a65 2d82 d11d b13f 4736 6d85 5385 aa3f
000002c0: 18a9 2973 1a4c b3bf dffe b28e bbe6 94bf
000002d0: 8000 32fd 87df bd3f 4e78 8d51 2b8c a2bf
000002e0: afe8 9eaa 9e9a b13f d884 fa7c 4380 c3bf
000002f0: 098f 7177 1217 c43f 5944 8492 67cb a33f
00000300: c8b6 1101 4864 83bf 865e 4b80 76b4 bbbf
00000310: a8ef ed75 9e94 783f a9e0 82b6 069c c13f
00000320: e73f a8b9 4675 a13f 86cc bc78 e8cd 773f
00000330: 1a8e 763e ca69 bfbf a063 15a0 11fc 7b3f
00000340: 7e6f 6ed5 8982 a0bf 6bf2 3a5a d593 a5bf
00000350: 7ac2 095a 76be be3f 53e0 0315 5fdb b73f
00000360: 4419 6f55 b12c d1bf 48e0 54ac 4d42 3d3f
00000370: 1e80 1ee1 edea abbf 2ad1 4188 ea05 b93f
00000380: 0e72 0eab 8c25 af3f 534c 1119 2563 b6bf
00000390: 7fe6 b0a5 51ef 9ebf a441 1d6d 57b1 853f
000003a0: 2d8c c04a da31 bd3f d05a 0e18 08dc b1bf
000003b0: 6c34 adb0 4cbb b43f 42c0 f8df f90d be3f
000003c0: c2cf 9c73 f299 b2bf 22e8 203a a5b5 b2bf
000003d0: 9ed0 b5c2 4107 c13f a8a9 6a5f eea0 bc3f
000003e0: 05ac 64c4 85c2 ab3f 5f4a 5430 bb9b d33f
000003f0: 28e1 5386 891c a73f 7112 a315 152e c7bf
00000400: 0f7d d811 9c24 a3bf f245 b64d 139c b93f
00000410: 0ecc 0f9d 0560 a3bf 8041 9c6d 80a2 da3f
00000420: 754b d83a 66d2 c7bf 865c 6fe6 318b a43f
00000430: 4f9e 47b5 18b6 c0bf d74d 164d f1b7 d33f
00000440: 5b80 daf8 37dc a33f 0d3f 1234 369c d33f
00000450: f3c5 2cd3 8470 b23f b8dd 2bbd dc5a c1bf
00000460: d2ca 5699 3bba d83f 8632 8802 e8f5 c43f
00000470: ef66 a9c2 42b8 c1bf bffc 9afe 62e3 993f
00000480: cc96 52d6 5c54 d2bf 8330 bff2 a6d6 d3bf
00000490: 3b4c 6c1b 9ce2 d1bf 94b4 ff1a 3280 8dbf
000004a0: df6b 2018 956b 9ebf 0094 dc16 4b70 c13f
000004b0: bb6a 46b9 015c adbf 243d e394 4636 c73f
000004c0: b897 ce0d c318 b9bf 1217 2342 9f22 b43f
000004d0: 0e2e 2634 930b c03f 37d5 17af 5fa7 c8bf
000004e0: fff6 b698 0816 c03f da6c 75d4 6417 923f
000004f0: 1bec ee50 eea8 95bf 1101 891f ffe0 c4bf
00000500: 0d91 6f71 2ac6 bdbf ba9a 447c f226 b8bf
00000510: 6f46 b822 87e6 b8bf 4ae0 f5a8 cb65 bfbf
00000520: a49f 9485 c317 b03f b71b 9d9b a470 c8bf
00000530: a053 1848 1c37 c4bf 4294 f0f5 a2ac c1bf
00000540: e790 55fa 72eb c73f 59bd 124e 161c 63bf
00000550: 514c 7b15 5707 b33f 747f 396f 7d0b d03f
00000560: 0ef9 dc8e d545 d9bf f87f d025 e083 d13f
00000570: 98bd d0f7 b709 89bf 89e0 d142 2620 b2bf
00000580: bc0a 23b5 6130 c1bf c74d 7dca 25b1 d93f
00000590: e692 cc87 338f c4bf 552e 7d47 1456 c0bf
000005a0: 1413 c651 5f30 a5bf 000e 5ca4 6158 b9bf
000005b0: fef5 fbfa b97a b6bf eae8 bd86 704a 95bf
000005c0: 7258 15df 7289 acbf fe43 9470 cb69 d73f
000005d0: e404 7c27 b05f 863f c3b2 fae7 a360 c9bf
000005e0: 220e cf0d cf4c 8ebf 1582 e2ff 77d7 b83f
000005f0: 917b 98f9 a448 c7bf 20a6 ae87 e0ff ca3f
00000600: 83e3 7139 6769 cebf a9b8 97f5 92f2 ad3f
00000610: 07e2 cbc7 2184 a1bf 3be2 0786 ac2f b43f
00000620: da63 7bbc 9ee8 94bf 0352 7985 188a d53f
00000630: 2033 f205 ea5d bc3f 5af8 d312 220f a9bf
00000640: a5a6 d9db 2276 ce3f 853d 1ee1 003d b33f
00000650: 39af f7cb de57 c5bf 737c 06a9 34a6 bdbf
00000660: 1b74 70a9 a3e2 d8bf 1ae4 ddbc a118 c2bf
00000670: e9cb d7cb 2eaf d8bf 6290 9a0a cbec ba3f
00000680: e410 9696 63b5 bdbf 7fcd c0e1 0c6e cd3f
00000690: c9cb 67b1 280b b83f 51ac c53f 325c c53f
000006a0: 2000 3676 d4d5 d2bf d39f 4547 6bcc 7e3f
000006b0: afa9 3912 e6fc b83f 94df a42a 2b1a d0bf
000006c0: 67fc b762 1d04 8fbf 8417 b28c 7a62 b0bf
000006d0: f1f2 e9d3 22a2 a03f 1ca0 9974 7fad b7bf
000006e0: ad0a 2d8b 05a3 c33f addd 267b 671f aebf
000006f0: 1b2c 3f5f 39d0 d3bf 002c 1744 6ff1 b6bf
00000700: 6bc2 517e c6d3 a23f f5ed de4b d09b b9bf
00000710: b794 14cd 97c6 acbf 4bac 3578 0aa5 d9bf
00000720: c450 5ca7 761c c6bf 05cc 634f fea8 c9bf
00000730: 4774 bb91 2c56 a93f 7faf 35d9 7666 d03f
00000740: 3d58 eff0 1560 c1bf 1e63 124f cf5e cb3f
00000750: 0d6e 0ad0 0286 a4bf b88a 4c97 5cbc bbbf
00000760: 0bf1 785d 3411 a7bf 320f b797 0e48 d63f
00000770: ecb6 edaf f567 c0bf d88e b4df 79dc aabf
00000780: 0a19 d809 4543 9bbf 83d5 f33f 6b59 76bf
00000790: 6057 49bb 4a5e b73f f188 465f a5b4 9cbf
000007a0: 58bd 5390 1431 92bf 4aa0 1a04 b51b cabf
000007b0: 0cb6 8bd1 a2d3 b13f 8829 0073 6b3f c73f
000007c0: 6a91 fc16 c556 a0bf cea1 0bd8 16f2 c03f
000007d0: 284c 5722 9121 b6bf 4218 d2fa 6ee3 cbbf
000007e0: afed 822c 2355 c43f a53f f5f2 5ceb 5d3f
000007f0: 9808 32bc 7355 b9bf 1d49 37ee 3d27 d3bf
-0.02366361946661615 0.016613469127704387 0.08862502237729736 -0.02655146117975534 -0.0046856099011333184 0.010532630099496123 0.1521884345148339 -0.10076741852834778
-0.05819959626340307 -0.004076665565062207 0.09955589510138857 -0.21245097690890175 0.05833702032123238 0.010005563696475905 0.13618865356873353 -0.07301443431881749
0.016034669588618846 0.033958614370471485 0.10928553535008427 -0.11690964621177635 -0.09424719250432256 -0.146571052672191 -0.07229834395049649 -0.06524718739664612
-0.1354035311274723 0.22921442560310337 0.10124165784338478 -0.013732843810290026 0.08451097954203299 -0.061736743092485176 0.09816972362078426 -0.08770011964778372
-0.01746508322794538 0.05135593551192932 -0.01332104286815809 -0.0680083025504722 -0.0796936284686047 0.03483323128241051 0.08144966563741284 0.1384052008067201
0.11884981038068113 -0.018584470960015902 0.11641119329112275 -0.035064233326469 -0.04265540631309322 0.025207248951375112 -0.03239105448274901 -0.08824293172390338
-0.057634925124028506 -0.017037635130720628 0.17635422401691206 -0.033359290553016355 0.1583199522725907 -0.09267404498600104 0.08667502444533776 -0.1842992281160361
0.028019085322045976 -0.08352042556063966 0.024571380635829962 -0.08584662204188523 0.1055021980745045 0.09213654013309372 -0.08923490296831867 -0.0815117842699923
0.03958197766246039 0.05151477730363934 0.0006426289022999683 -0.1330072304159977 0.014840357387135362 -0.11548268030632237 0.1221806541283379 -0.04593270423534184
-0.08981437505049021 0.02542996085911419 0.0889447908927334 -0.019528903588502452 -0.06335413546131488 -0.00931526603210611 -0.18426936132728186 -0.1465824801256901
-0.0672467685920647 -0.05464558635106579 -0.08562644660553914 0.009815811908279065 0.15802349431335744 0.13321619491772493 0.06686124256284112 0.05179844859831611
-0.0753799945029282 -0.020411425194423734 0.11669206553961153 -0.03622565622821182 0.06876556077523575 -0.1523517952200908 0.15695410568434223 0.03866122878583473
-0.009468615086201906 -0.1082223952502038 0.006001109110794468 0.13757404243165652 0.034097871936068995 0.005811603634174328 -0.12270797753313226 0.006832188462191718
-0.03224592905391342 -0.04214350439494726 0.1200937242335928 0.09319109213891012 -0.2683528265300945 0.0004464568740618663 -0.0545267426780358 0.09774652315701773
0.060833354836379624 -0.08745033132554285 -0.030209804285027616 0.010592158334163333 0.11404194188121215 -0.06976366603189921 0.08098296464341254 0.11740075796183283
-0.07266154596874144 -0.0730841891208063 0.13303396231970493 0.11183061437137687 0.054218464111123445 0.30638007850317267 0.04513959660283923 -0.1810938220643439
-0.03738868444292553 0.10003777167573683 -0.03784196417100115 0.41616831497324114 -0.1861083781555767 0.04012447297980608 -0.13055714465666532 0.3081019642642934
0.038789509894969064 0.306409407473425 0.07202940135609719 -0.13558539616472642 0.38636674856676934 0.1637544643748649 -0.13843569283454069 0.025281473913079774
-0.2863990872377655 -0.30997632699723726 -0.27945616415053437 -0.014404670189799774 -0.029707269284795387 0.1362394200924939 -0.05734258066805383 0.1813438632002341
-0.09803408705792449 0.07865329136538105 0.12535324140877474 -0.19260784196345934 0.12567241150639316 0.017667365519952273 -0.021152232827926647 -0.16311635055354448
-0.11630502004078754 -0.0943442872418058 -0.09726757619525882 -0.12264702677737307 0.06286260615581668 -0.19093759153676412 -0.15793183822884505 -0.1380809498670335
0.1868728372893493 -0.002332728924180277 0.07433075212911545 0.2507012926271195 -0.39488734199029885 0.27367404644792215 -0.012225568056321731 -0.07080306178420605
-0.13428899139952033 0.40143723272668946 -0.1606201565820335 -0.1276269291941953 -0.041384676677841764 -0.09900484335599202 -0.08781015756172647 -0.020791776870717017
-0.05573615048585702 0.36583219522532306 0.010924698071450974 -0.19826172663797167 -0.01479493866816656 0.09703779217898785 -0.18190443217551125 0.2109337484846927
-0.23759165100980448 0.05849131820637982 -0.034211211814128055 0.07885244629131531 -0.020418625120189528 0.33655369791566175 0.11080801625412251 -0.04894358138879858
0.23798022971032143 0.07514958854721072 -0.166744088738932 -0.1158173477801812 -0.38883296534351225 -0.1413767025185571 -0.3856923094419345 0.10517567643052098
-0.11604902674122602 0.22992096922972036 0.09392027217090439 0.16687610734820393 -0.29430114311253597 0.007519167953752476 0.09760892815544396 -0.25159720577675526
-0.015144567084460726 -0.06400266585305131 0.03248699986304427 -0.09249111744577515 0.15341252608967207 -0.05883334520643344 -0.3095839910644728 -0.08962150013319103
0.036771967811436955 -0.10003377773585227 -0.056202644142368134 -0.4006982969210113 -0.17274363681702287 -0.2004697692533172 0.04948558119733853 0.2562539216221395
-0.13574480308915496 0.2138308654873748 -0.04008492269096218 -0.10834292119811095 -0.0450531353094182 0.34814801040578225 -0.12817259874594045 -0.05246334892060894
-0.026623800969923152 -0.005456370300853111 0.09128253052162227 -0.028032859745175057 -0.01776535159018286 -0.2039705534018615 0.06963555923331216 0.18162291636720007
-0.031912001663189596 0.13238797711461675 -0.08644969070819342 -0.21787822005370755 0.15884818719301338 0.0018261344628917955 -0.09896014542212794 -0.2992701364829758

hidden_layers.2.bias f8 [60]
00000000: afd6 5f72 4b59 aa3f 11ec 0142 a872 a73f
00000010: 0ccf ea20 6440 c33f 802e d17f f095 d13f
00000020: 0c77 681f aceb cfbf 630a 1e38 93d9 d53f
00000030: 2e7a c5f4 cb2d d9bf 821d 4b83 549a d6bf
00000040: 70b3 6eff a5ba aa3f 733f f75b f437 c03f
00000050: c8d1 ff36 fd0f c23f d184 702c dbfe d1bf
00000060: 5f56 f27a 3735 71bf df42 e520 e05b c9bf
00000070: 1f89 10b4 427e c03f fda7 7d99 2e79 c1bf
00000080: 3007 a365 f9e2 9e3f b96f 3fc8 5e40 b63f
00000090: 3b6d 23ea 340e bc3f ca63 b8e6 1d4b 963f
000000a0: 38c3 320d d5d5 af3f f907 74e7 522c d63f
000000b0: 1572 682a cb06 b3bf da74 292c 552a b03f
000000c0: 0bcf 4f63 26a3 c33f 6d9b 7eb7 08bf b8bf
000000d0: 38b7 e670 157f bb3f 13b8 c5d7 e72d bcbf
000000e0: f453 69d9 441d d2bf d963 2106 19bd d5bf
000000f0: 74d9 af1e 63ec cbbf d6de a41c 3433 b43f
00000100: eaca e7e8 769f d8bf 27bd e080 13e8 c6bf
00000110: 8d29 f7e8 5fc3 b6bf 0372 8f53 e462 d7bf
00000120: 58df 9548 142b c2bf 90e7 0eb9 1605 bd3f
00000130: c1ba fa1d 8bc5 d13f d7dd 8d8a 2651 d73f
00000140: c880 37c6 9a97 b7bf cc7a ba06 6992 c73f
00000150: a444 984f 092e b33f f1b3 e549 436d d3bf
00000160: b9f2 84d3 e880 c93f 0edc 2cde 9d6a 973f
00000170: f2c9 29a6 e42a cdbf a26a 6679 cd64 d4bf
00000180: 7c86 764b 9784 b4bf 38ea 771e 1f41 b03f
00000190: 31ff 6064 ef8b cabf 18a4 ec24 031d d53f
000001a0: 1e95 011e bdbd c43f ebc0 bc43 6219 d4bf
000001b0: 0929 178f 52a3 b3bf 4168 8069 3d4c c03f
000001c0: 8597 fc79 04a4 9cbf 3009 0ec8 cac4 d2bf
000001d0: 058b 7697 8d41 8bbf 1621 63a0 fc81 a4bf
0.05146251460238937 0.04579664045100896 0.15040256125723095 0.2747765777791997 -0.24937964948269842 0.3414047287007291 -0.3934202089639339 -0.35316956349966955
0.05220526450225449 0.12670759668844375 0.14111294923317375 -0.2811801847438576 -0.00420114204384489 -0.1981163178084193 0.1288531665059702 -0.1365106820551886
0.030162712887210563 0.0869197119604327 0.10959177700299431 0.021770922858283893 0.06217828546630816 0.3464553127561199 -0.07432241235114419 0.06314594581768365
0.15341644143301666 -0.09666494827125201 0.10740789419534458 -0.11007546441916842 -0.2830364344748084 -0.3396666107051352 -0.2181514644468724 0.07890630435292265
-0.384732940146178 -0.17895740311494387 -0.0889186805499433 -0.36541088257016 -0.14193967384539508 0.11335889833472224 0.2776820938842484 0.3643280366008787
-0.09215705241468009 0.1841555865148251 0.07492120927078588 -0.303543874898252 0.19924650505153865 0.022867647824764296 -0.22787149537505474 -0.31865250449633653
-0.08014817802770752 0.06349367612703183 -0.2073954811221426 0.3298957691754949 0.16204036679406725 -0.314049307012296 -0.07671085351390529 0.12732665683216918
-0.02796942705676699 -0.2932612374935557 -0.013308626351152162 -0.0400542207513032

hidden_layers.3.weight f8 [60, 60]
00000000: f27d 398b 2857 a53f 0a80 71d3 7f76 b43f
00000010: 7241 bce6 ae58 d13f 2c13 b40c 7e00 a2bf
00000020: e2b8 bd60 ecb5 adbf 6fd1 4a30 505a ce3f
00000030: 8700 d527 1729 b9bf 43ae baeb 7f72 b2bf
00000040: 3875 6d01 fd10 a33f 02b9 9e40 8d0c 953f
00000050: e00e e907 0c3d c63f 84b3 61c8 6ed6 ccbf
00000060: acd4 53be f397 aabf beab ab31 6d9b b2bf
00000070: 9494 cf9f 2023 a8bf cd23 eaa2 ce4e bfbf
00000080: 3ded cf30 c0d2 ba3f b322 cc81 2723 abbf
00000090: ffd1 45fa 2f40 d23f 7f81 f463 713d b8bf
000000a0: 29e0 a153 65d8 aa3f fdf7 b22f 0290 87bf
000000b0: 3f33 c449 12e1 77bf 0a04 f86f adf5 933f
000000c0: c36c cff9 94cf 9ebf bfde 386a d7e5 bf3f
000000d0: 1dab 92e8 8bba c03f 7507 cb05 b258 c43f
000000e0: e78b f411 4aa8 61bf 0c70 768f 0a61 b0bf
000000f0: c240 2389 1387 cfbf cc66 e7b4 f70d 833f
00000100: 7763 cd60 1952 d2bf dbc5 d6c7 fdf3 a33f
00000110: 1d12 69bf ec11 bc3f 4888 16d0 96de cabf
00000120: af8b 69ed 2136 5ebf 3d2b f9a7 810d 953f
00000130: 0da6 bb41 7018 ce3f e3be 5238 61fe 66bf
00000140: 060d 3f4d 9e20 ca3f bf0f 519b e48f c03f
00000150: 65cd ec51 b067 b73f eeef 2649 5054 b73f
00000160: 20fd 1b1d f9df 913f f6d9 02de 9a31 c23f
00000170: 895e 2e8a 71dc a8bf 4c15 d6e2 6eb3 a33f
00000180: 754d 149f 2ab7 bf3f 1599 a96e b676 a2bf
00000190: ceb8 ab4c d2fb c9bf f82d 52e3 fb33 c53f
000001a0: 90f3 2b84 71c9 9f3f 8b2d 3be4 83b3 a4bf
000001b0: 3073 9775 8304 bd3f f4af 29ab d38e d33f
000001c0: 89dc e67b c332 a13f 4ac1 3061 53fb bc3f
000001d0: 6d58 4890 a995 a43f 538c 629b f22b b0bf
000001e0: 4fdc 5151 d5b3 a03f 44d2 a6cd b3c5 c73f
000001f0: 9a6b 38f8 5483 c2bf cc39 e3c1 6071 bfbf
00000200: 3f51 ecbc 8ec2 a4bf c6b6 cc74 3295 b0bf
00000210: c4af dc22 064b bc3f 309e eea7 6c68 bb3f
00000220: ae3a fa53 51d7 c73f 3c21 3099 70c1 b3bf
00000230: 9e4b 43b2 5892 a6bf a287 a8b6 cbff a53f
00000240: 84c1 c2c4 d22a c03f efc0 8b74 11b0 b7bf
00000250: 132e 56f5 c0f2 d3bf 9249 a893 ab39 94bf
00000260: 26c3 e887 eff8 c9bf 14a5 4b8d 8d5e c6bf
00000270: 679c 970d fc50 c03f 37bd a388 246f c23f
00000280: 4242 4166 8512 b7bf 4e4d 6166 a7fc c0bf
00000290: fa7a b9b2 21e4 c13f 0210 4278 0f69 c2bf
000002a0: 45d4 5906 24cc bebf c1c2 50f6 92a4 b43f
000002b0: 7dfc 0a53 d8d9 b03f 5f5e 0905 798f c83f
000002c0: 3403 7ccd 2083 a2bf 65f6 a232 7c1e c53f
000002d0: 9cfc 83fb f568 94bf c504 9852 315b c83f
000002e0: 4407 1cbb 923f b6bf 0035 e81b bee0 b53f
000002f0: 1d55 d38a cb23 64bf df31 e947 f4d4 a83f
00000300: 8c66 a666 0126 7b3f 6a19 331c a4c1 c53f
00000310: 9dbe 3808 a34d bb3f 5591 0f19 4897 c5bf
00000320: 0d5f 7602 356b be3f a584 aba2 ddc2 d1bf
00000330: c64e 3f52 63bc c8bf c08a fdf3 5e8f c33f
00000340: 80ba 714e c7ca a83f 0964 73ea 9328 ad3f
00000350: 8222 7774 de54 8bbf b6f4 1b8d 5514 c43f
00000360: feb6 02d6 83c8 c73f 692f 13c1 9679 c0bf
00000370: 0a3a 9ee3 2c5e ac3f 07c2 5ff3 8b4d a93f
00000380: 20b2 e7bc cb7e c0bf cac2 0a3a 3e54 b5bf
00000390: c3e4 8ed8 1351 9bbf 7b00 dd7b cd6a c33f
000003a0: afaa 8b3f c42e babf a5ca 3e1e 3225 d43f
000003b0: 9703 77ee 6343 aebf e336 334a ee3f be3f
000003c0: 579a 385d 9db9 ac3f 22e9 59c5 de6f c03f
000003d0: 4c09 d941 2dc4 cfbf c3cc ca81 1304 cfbf
000003e0: 7c35 fe05 1621 d33f 895b bb66 4c04 d3bf
000003f0: 4002 a0c2 9a00 cb3f 05a5 0c2e 7663 873f
00000400: 69fd 74bd 4854 983f e2c3 6963 934f b73f
00000410: c19d f0c5 a0ee a53f b80a a00c 3e66 d43f
00000420: 7046 6457 2d16 b3bf 0957 cdaf 49d1 b33f
00000430: e155 502d 5baf 603f 2bb2 dd7a ca36 d23f
00000440: 1e18 a6bb 4a8f bebf f644 f5d2 353b af3f
00000450: 0b86 8b36 8ca0 d3bf 5e2b 283f 8145 99bf
00000460: c304 b453 ba4c bebf 6f51 046e eedb c3bf
00000470: 1d2d 89d7 11aa 8dbf ba93 a040 69d5 8dbf
00000480: e032 ce68 44be 91bf 781d a0ad d6e7 b4bf
00000490: 8cee 5402 7264 c43f a3a0 bc75 5191 c33f
000004a0: 9a2f 8b7e 2442 c83f ff1b deae ba1d a53f
000004b0: f26f 2a61 e2e0 cc3f 1efe 64b2 0767 c3bf
000004c0: 4d8a c008 7517 ca3f 5945 d191 5c10 b1bf
000004d0: 45ce b704 e040 b9bf 65ca c5a3 b011 d13f
000004e0: 8748 85d7 255b 993f 234a 560d d817 843f
000004f0: c2ab 1cbe 9f7c ccbf 6327 435d 6d2e c6bf
00000500: 97c7 6b64 c89c afbf 0e4e 961e 7227 b4bf
00000510: 2c6f 9a63 0cc8 b5bf a0b3 4e70 d48e 6a3f
00000520: 7b59 2608 16db cabf f627 9684 f1bb b6bf
00000530: 1e22 a241 ab14 a2bf 466f d8b4 3ed1 b13f
00000540: cfb1 e474 f4c8 8ebf 2ede c7ed 98af 7e3f
00000550: 112a c4d3 8b31 d13f 8f79 0f7c 4614 cfbf
00000560: 4c3e 2b63 2b48 a33f 3687 9391 a4bb bf3f
00000570: fe18 2822 1600 afbf 95a9 196e 5680 cdbf
00000580: da9c 8c9d aa00 bc3f 064b c8a8 f415 b6bf
00000590: 0276 d020 44e8 b6bf bb53 ff68 fa84 87bf
000005a0: adc0 2663 12ac c33f f6a4 bb4c 3216 acbf
000005b0: 3808 ef40 5389 d63f 42e1 941d 6ab5 b73f
000005c0: a103 5dde a526 c0bf d4cd abe0 c101 d53f
000005d0: 6db7 6dcc 6280 b4bf 6d39 5537 c979 c9bf
000005e0: a660 46fa 3df0 b23f 82c0 762f fd30 c03f
000005f0: cbca 61fd 8dd5 c33f 1996 9fcd 5116 cfbf
00000600: 92e7 a0ed 2953 be3f f9bb 4eb9 615a 6cbf
00000610: 6286 7d3c 9052 a4bf 6dac 6a0e 510a d1bf
00000620: ed6d 4e61 dc70 b4bf d76f 0682 6a02 aa3f
00000630: 83af 7c8f 2d8a d23f ef13 0869 2770 b73f
00000640: 4694 2daf ecd2 7b3f 7a8f d06c 2f6e a53f
00000650: 5e7b cdeb 1874 a4bf 9817 91bc e8d2 6bbf
00000660: 64a6 4a8f d537 9ebf 7701 3d79 121e b93f
00000670: 2741 2c5f 4d0f b03f 0318 43e1 00c5 a83f
00000680: 3d06 2ff3 a594 dbbf 4ad2 136a ec26 cdbf
00000690: 102f e7fa 1a64 d5bf 84a2 5742 496f b93f
000006a0: 0078 aa46 5d65 d3bf 21d0 dd5a a99f cc3f
000006b0: dd14 c63c 36a3 b33f 5216 e784 434a cfbf
000006c0: e638 dc1f f781 b3bf c96c 7f80 9ee1 b73f
000006d0: 5524 c07e 6683 ce3f e69b 2f29 6579 d33f
000006e0: 8ebe e8c2 44cc b73f fdcf be4b d7c5 9f3f
000006f0: d08b d6a7 1b6f 77bf 9c94 d979 e01a a1bf
00000700: bfd5 12ba 8cbc ba3f 4f81 4929 9bf2 c43f
00000710: e9be 3982 4583 c9bf e9ed fa8f 7fea d0bf
00000720: fe5d 055a c5d4 85bf 2179 d420 203d a9bf
00000730: 97d9 b770 e091 cdbf a8a2 90e0 cd1e c13f
00000740: dbbd 51e0 e008 bbbf 69e2 ced2 7392 75bf
00000750: 60fd a5bc c7b8 bebf 34ae 290d 885d d43f
00000760: 02dc 6fa5 d24b c1bf 996c 10d3 a0d9 b2bf
00000770: 01b0 cca6 7eb9 533f 97ff 256d 2838 55bf
00000780: 5e6d e0a3 bb81 c73f b769 22ea c253 b03f
00000790: aa94 8f26 a2fa a53f 86ee 9955 6992 b2bf
000007a0: 7b12 64d7 ceaa 9a3f 83e9 2a22 aac7 9dbf
000007b0: 17c2 007b 0a4d af3f 9cf8 8c74 9a31 893f
000007c0: 75f2 6fdd 3c4e bf3f d8d3 1f77 1af6 c5bf
000007d0: 9a66 8f31 06f9 9b3f 7db6 30da 9931 c7bf
000007e0: fd03 0c1d 8094 b73f 0dec a45f 1e46 7cbf
000007f0: d7b1 e6fa b546 b6bf d174 7886 4385 bdbf
0.041680590624988315 0.07993315612975507 0.2710377934718259 -0.03516000657149329 -0.05802859002038631 0.23713114126224918 -0.09828324053251168 -0.07205962662799785
0.03723898546625509 0.02055569369229549 0.17373800646065884 -0.22529396805057555 -0.05194055269559192 -0.0726841207758033 -0.047143001087342956 -0.12229625203521195
0.10477830115990101 -0.053002581209573484 0.2851676887578662 -0.09468754473028261 0.05243221898939538 -0.011505143242512611 -0.005829879224859279 0.01949187274840728
-0.030088737246711583 0.12460085242571049 0.1306929479227045 0.1589567688261543 -0.002155441921460877 -0.06398073198801074 -0.2463097018830976 0.009303984840630795
-0.28626093343114384 0.038970881122974275 0.10964851067644373 -0.20991788063571648 -0.0018439608881173177 0.020559335591580952 0.23512080392474424 -0.0028068445995684684
0.20412043353835702 0.12939126571484214 0.09142591476557056 0.09113027368488222 0.01745595207375772 0.1421388229407083 -0.04855685054570553 0.03847834128377289
0.12388864883205548 -0.03606195546017169 -0.2029974817627988 0.16564892387064822 0.031041883175010165 -0.04043209229493091 0.11335012074364381 0.30559245791550826
0.033590420603496325 0.11320992586911874 0.040204333174345 -0.06317058843210192 0.03262201898262928 0.18572089711746476 -0.14463293190132448 -0.1228237603529358
-0.04054685646238675 -0.0647765669970922 0.11051977492451132 0.10706214046387497 0.18625847435437975 -0.07717040767613964 -0.0440852849584623 0.04296719174114051
0.12630686385592693 -0.09253033728942105 -0.3116915126672392 -0.01975124443749505 -0.20290941368286858 -0.17476052664941533 0.12747145332034224 0.14401680633407363
-0.09012635942895833 -0.13271038531329754 0.13977452494415116 -0.14383118984198978 -0.12030244021464494 0.08063620103417703 0.06582405116476937 0.19187844034125853
-0.03615667827944549 0.16499283287514568 -0.019931643940250696 0.19028297932530883 -0.08690754955389673 0.08546055013012577 -0.002458474677590984 0.04849971177882017
0.006628041718067867 0.1699719560330764 0.10665339422916494 -0.16867924903557233 0.11882335004917995 -0.2775186623167179 -0.19324914470654714 0.1528128329619758
0.048422077489580495 0.05695020901629994 -0.013345468453637158 0.15687055006120482 0.18580673169838485 -0.12871059825408374 0.05540600088635379 0.049419759234187004
-0.12886950229530303 -0.08331669728319038 -0.02667647370592331 0.15169685886394632 -0.10227610160260768 0.31477024987831675 -0.05910789762447804 0.1181630068924409
0.05610362780526106 0.12841400753297544 -0.24817434039330022 -0.2423118957281983 0.2988944109464098 -0.29713735611351716 0.21095594885993485 0.011420176773372601
0.02375901848176679 0.09105797936514606 0.04283621231325752 0.3187403796475041 -0.0745571459158556 0.07741222898524937 0.0020367413330954908 0.28459417341835785
-0.11937396127004304 0.06099861335918348 -0.30667405440007717 -0.024679202537338234 -0.11835827392134761 -0.15514927265088427 -0.014484538450366952 -0.014567205700652387
-0.01732737435991083 -0.08166257609274463 0.15931534875732145 0.15287225960606063 0.18951851061717379 0.04124244103064 0.22561292404577632 -0.15158172808331555
0.2038408558592714 -0.06665590820309343 -0.09864616503892261 0.26670471185130956 0.02476176383908826 0.00981110373212341 -0.22255322249233528 -0.1732918458349629
-0.06174303270189723 -0.07872689482456272 -0.08508374625892817 0.0032419346993805692 -0.2098109760087928 -0.0888052891442895 -0.03531394172847889 0.06959907450840061
-0.015031728570272044 0.007491681459661543 0.26864906006145 -0.24280625398291675 0.03765998445089433 0.12395695261105008 -0.06054753462744776 -0.23047905326832266
0.10938516947190938 -0.0862725174013513 -0.08948159981851947 -0.011484104470506176 0.15368871537567 -0.05485684572870213 0.35213166562255394 0.09261191580015285
-0.12617944104752346 0.3282322591832927 -0.08008401385242588 -0.19902911378671764 0.0739783035300002 0.12649502580234545 0.15495467064064025 -0.24286863842205333
0.11845647860982769 -0.0034610661191076778 -0.03969240892798777 -0.26625467689399934 -0.07984712005275414 0.050799682972154585 0.2896837140312913 0.0915550834107106
0.006792950199131792 0.041856271775286794 -0.039948252472405285 -0.0033964677464010766 -0.02950986563761261 0.09811511478347322 0.06273349355274559 0.04837801694661439
-0.43094776867301104 -0.22775035075723543 -0.3342349481797422 0.099354342171532 -0.30306178952184837 0.22362248360480044 0.07670916541799806 -0.24445384969128497
-0.07620186355436295 0.09328642499115171 0.2383850211047355 0.30428437254016527 0.09296064146541935 0.0310281410199451 -0.005721195249324532 -0.03340817916322544
0.10443954031764856 0.16365375057194817 -0.19931858881636025 -0.2643126398140497 -0.01065973454448876 -0.04929447556263456 -0.23101430419746968 0.13375256981932648
-0.10560422398133744 -0.005266621051241851 -0.1200070224349381 0.318208706716834 -0.13512642934776414 -0.0736332431119301 0.0012038933593414571 -0.0012951273716623518
0.18364663602629155 0.06377809730694294 0.04292780609811449 -0.07254656162143122 0.02604220571176306 -0.029081972442079895 0.061134650721559484 0.012301642114490634
0.12228756338294906 -0.17157297913186542 0.027317139410888737 -0.18120120195219505 0.09210968693879802 -0.0069028078526640725 -0.08701646209255585 -0.11531469376537308
