BurgersEquation/Output/2_Train/Data/PINN_state.pt (torch, 106293 bytes, 10 tensors)

hidden_layers.0.weight f8 [64, 2]
0	0xc000cc1f028b4743	-2.0996685217623123
1	0x3fe996f6e47a573d	0.7996782743891583
2	0x3fe8da2c0ca48b58	0.7766323325089202
3	0x3fe20cf6f55989b3	0.5640826026904534
4	0xbfe22a321d48f703	-0.5676508495305089
5	0xbfb28bb0842c094b	-0.07244399287086371
6	0xbfeb2424a8bdcb60	-0.8481620116930166
7	0xc0018fdef989c41c	-2.195249509350573
8	0xbffbe698f52cac74	-1.743798215592304
9	0x3fe5974d731f675c	0.6747195480813661
10	0x3fd67dfcf38b47f1	0.35143970283127063
11	0x3fdd7d43052a4f0c	0.4607703733865811
12	0x3fd9bdb78e6c8c72	0.40220440777392874
13	0x3fe03ffcec4845c2	0.507811032761474
14	0x3ff834205085eed3	1.5127261300503292
15	0x3ff61f66ca8e0c56	1.382666388730987
16	0x3ff5ec2ca8dd364e	1.3701597782377521
17	0x3fe5052e09d3bb6c	0.6568823043761376
18	0x3fbe8a3c64394d6c	0.11929681250449214
19	0x3fea09522e1ad4b1	0.8136378193363695
20	0xbffd6360da8ea77a	-1.836762288798552
21	0xbff35cd65c512479	-1.2101653677111968
22	0xbff10d2369327535	-1.0657075986158138
23	0xbfe1c87b79c20d42	-0.5557229402624346
24	0x3ffd01a02b7ea145	1.8128968905458163
25	0x3f9dcecf526f0ce1	0.029109229475363988
26	0x3feae85b59fdb19d	0.8408638723026801
27	0x3fe196e0343dc711	0.5496674557054765
28	0x3fdce1a274240cb9	0.45127164213063115
29	0xbfe4b733dde31898	-0.6473635991794877
30	0x3fe0471979eb757f	0.5086791402097076
31	0xbfe78f81c1196615	-0.7362679263562223
32	0x3fbc0905858079a9	0.10951265820810953
33	0xbfda981cd46152a3	-0.41553421726465894
34	0x3ff3672cd7f25be4	1.212689250509123
35	0xbff0abf84c4b3094	-1.0419848423216864
36	0xbfe0b48316683792	-0.5220351636541969
37	0xbff6af1aa71cf9c0	-1.4177500274523567
38	0xbfe27eada4726096	-0.5779636585093779
39	0xbfbb08eed7ff9a3d	-0.10560505650901404
40	0xbfedb48c8fd4f49a	-0.9282896813598598
41	0x3fe26380b52a011f	0.5746463335381441
42	0xbfe169cd017f77e3	-0.5441651372200308
43	0x3fe6ab3dfa41a2b5	0.7084035766429994
44	0x40030b517ca12183	2.3805265175507784
45	0xbfd1cb4ee851ecab	-0.27803394973279677
46	0x3ffda7929692bf40	1.853411281754191
47	0xbff03d1ebc09181d	-1.0149218888414062
48	0xbff3d6f9ad363e4e	-1.2399842039193518
49	0x3fe6dd9cf3a67ccf	0.7145523794933072
50	0x3fd1bc76a4ab9a73	0.27712789612852545
51	0xbfe6a3bdecbef3d1	-0.7074880241340172
52	0x4002534dc6e59e60	2.290675691492467
53	0xc0008ae5a6c9606b	-2.0678208379941245
54	0xbfd2b8dcfc6fb7d7	-0.2925331559371193
55	0x3fff5d4c5561d572	1.960277875446391
56	0xbfcf5a8da0c08dbb	-0.24495096539713565
57	0xbfe58e35df2aef8a	-0.6736096724266514
58	0x3fcf60b3934c7e4a	0.24513859455417936
59	0x3ff0e410207cd6c1	1.0556794423149969
60	0x3fdd06bfc98d6244	0.45353693659629735
61	0xbfe00c3352f23c4d	-0.5014893169444662
62	0x3faad005f35476ee	0.05236834140144518
63	0xbff2c978bcf8a098	-1.1741874105155485
64	0xbff993bfb22f5875	-1.598571487460075
65	0x3fec4d3468446c2b	0.8844244038076615
66	0x3ff83c4b9d7de2ba	1.5147205497761846
67	0x3fe8bb72c5316615	0.7728818751740528
68	0xbfe6ac94c02cce67	-0.7085670236032912
69	0x3fe573b52b77cfac	0.6703744744286175
70	0x400514df69215a48	2.63519174702677
71	0xbff184873705a256	-1.0948555135056686
72	0xbfe8cb42382f9223	-0.7748118493441932
73	0xbfebdde63375b642	-0.8708373074602564
74	0xbff83e7a279fd276	-1.515253214628641
75	0x3fe601f083000961	0.6877367552372499
76	0xbfd85d8ada774fd9	-0.38070937475754146
77	0x3fe9f04926e204f0	0.8105817565375713
78	0xc0073c768e8f5147	-2.9045230042922046
79	0x3fbca7d1e168bed3	0.11193572762635577
80	0x3ff261c0f0f3883b	1.1488656437072808
81	0xbfecf1713224838c	-0.9044729213093077
82	0xbff37c1da35a1d15	-1.21780170258882
83	0xbfe71a5465ffc5bb	-0.7219640724344382
84	0xbfd610a48f2c0e70	-0.34476579648637706
85	0x400c6ad1955a49a5	3.552157561128484
86	0xbfbaabb3133f5e18	-0.10418242664251698
87	0x3fe3b9ca9143b4ea	0.6164295994946347
88	0x3fe9d1a2a2c38572	0.8068402461032476
89	0xbffd72437b134295	-1.840396385920177
90	0x3fe80c0a6711c7bf	0.7514698041034008
91	0xbfedbe32dfffa824	-0.9294676184629265
92	0x3ff7d10af3002dc8	1.488535832616309
93	0x3fe55c3612f1b282	0.6675062532427349
94	0xc006d100803d51f8	-2.852051736708969
95	0xbfd8b96c3dd25674	-0.38631731068867414
96	0xbf9e6207cad8bbcf	-0.029670831447386633
97	0xbfe3188533e1b256	-0.5967432034791027
98	0xc01052f765fe44fd	-4.081021875042322
99	0xbfe82434f2987a34	-0.7544197786517715
100	0xbfe25d23e42e9ec3	-0.5738696533853375
101	0x3fff28e582ac32eb	1.9474845032120196
102	0xc0017d94689ae6d2	-2.1863182232162695
103	0x3fd4d6795742d597	0.3255904533537772
104	0xbff8f60d54fad125	-1.5600713080903656
105	0x40031c5f96eca461	2.3888541975943984
106	0x3fce5fc4476b235c	0.23729756819946146
107	0x3fff3ee35d42277c	1.9528535502344928
108	0x3fc504d95747c4f0	0.1642104793714121
109	0x4007a33e3a2078ac	2.9547085324439504
110	0xbfc59d9e7e459517	-0.16887265363326584
111	0x3ffeaa14c4e2d95a	1.9165237131943145
112	0xbfece4d3e43b0944	-0.9029330690030197
113	0xbff52553bee2aa17	-1.3216130691968198
114	0xc002b23e283f2908	-2.3370326179766643
115	0x3ff5e6b2c1a79f53	1.3688228191985743
116	0x3fec7f0b27b8608e	0.8905082488809215
117	0xbff3683284643f30	-1.212938801912923
118	0xbff004a05817f445	-1.0011294785647504
119	0x3fd5a1ecbfcbacb4	0.3380081055644937
120	0xbfff660002c3a0be	-1.9624023540473412
121	0xbff94e5af95e0a8d	-1.5816297284042407
122	0xbfdaa0ae69da40cc	-0.4160572084156342
123	0x40025c435ccf73ae	2.2950503588494575
124	0x3ff1e145c02ede07	1.1174981600905782
125	0x3fd3f38f6e4a8c81	0.31174073954225184
126	0x3ff9072ca4e9268e	1.5642515603853187
127	0x3ff576fab707632f	1.3415476941647275

hidden_layers.0.bias f8 [64]
0	0xbfe237f7783dc282	-0.5693318699323557
1	0x3fa2ce8c5cde6c35	0.03673208840992751
2	0x3fbc08e8995f8780	0.10951093430005976
3	0x3f888ca579235147	0.011987011679970861
4	0xbfc38d0a234afd3c	-0.15274168704307012
5	0xbf8123cb03571533	-0.008369051017221274
6	0xbfd1d9215069c829	-0.27887757160999854
7	0x3fd76a521aa4e199	0.36586430170020773
8	0xbfdce0d8d28fb422	-0.4512235695136174
9	0x3fd143517080a791	0.26973377214982813
10	0xbfd32b2428d273ab	-0.29950813280611993
11	0x3fc3342175b520b6	0.1500284027808953
12	0x3fb7c71c4adf7320	0.09288193538618517
13	0xbfd6226d4375a220	-0.345851245764182
14	0x3fab59945f1b1d70	0.05341781292878067
15	0x3fe30ed3f183600f	0.5955600468687424
16	0xbfd6927943447ad0	-0.3526900441083116
17	0x3fd3a1c248656628	0.30674798078470866
18	0xbfaef46f2580eb0e	-0.060458634689402144
19	0xbfa391a8e91bdb7e	-0.03822067113463044
20	0xbfb2ace155d06506	-0.07295044274396298
21	0xbfc170bf14ded2d3	-0.1362532474428436
22	0x3fd1170707971e36	0.26703048459282586
23	0x3fd2a0e3ee8f93ae	0.29106996819455844
24	0xbfdcf68b666dd590	-0.4525478840144723
25	0x3fc0244c92991368	0.12610776098349707
26	0x3fb611ec5809a6ee	0.08621098660810464
27	0x3fcbf0af2d7658e7	0.21828260154570175
28	0x3fd45dadc0c60497	0.3182176954797539
29	0xbfabbc1bbc591fec	-0.05416952776118919
30	0x3fbdf235c4d44c32	0.11697708182718783
31	0xbfc8851855ce51ae	-0.19156173887007583
32	0xbfcb9fad8f63213f	-0.21581048489884755
33	0xbfe58593a218b11b	-0.6725557485529267
34	0xbfc2438ddcfe15c1	-0.14268658915186275
35	0x3fe013b248bab5d8	0.5024043484206073
36	0x3fe0991764531450	0.5186879119361354
37	0xbfd8529c9e689790	-0.38004222364031026
38	0x3fc46a9a5539ec99	0.15950326119841376
39	0xbfdfe63735f6dec0	-0.4984262492175553
40	0x3fdc49d867060cc8	0.44200716076757063
41	0x3fb969fd63d650e2	0.09927352607184362
42	0x3f9f361e8c09c616	0.030479886338474392
43	0xbfc0b47924d943de	-0.1305076055455449
44	0x3fcd7bfcd145bf4f	0.23034630030042044
45	0x3fc0bcd1a102996e	0.13076229440521153
46	0xbfded3af3523e6a2	-0.481670190710796
47	0x3fdb1dbdc4008aab	0.4236902631838954
48	0x3fc27383d955635a	0.14415023910512553
49	0x3fe89a269717723e	0.7688172293670232
50	0xbf91a1a09b552d58	-0.017218121987111118
51	0xbfd2b6d93c68db0e	-0.29241019152998227
52	0xbfbb07f96c763d05	-0.10559042833323325
53	0x3fdce1547e4baf3e	0.4512530549388777
54	0x3f807ec13406d771	0.008054265403966561
55	0x3fd0db4715294892	0.2633836466458287
56	0xbfc4ee83b1bb34ad	-0.1635288827732543
57	0xbfc2aa51f453f86d	-0.145822758007799
58	0xbfb8776a95fbe5dd	-0.0955721489116494
59	0xbfc4c7e54a51385a	-0.16235033158085593
60	0xbfc659bfa9970465	-0.17461391239888538
61	0x3fc0d48174663ce8	0.13148515876353106
62	0xbfb432d45f6895c7	-0.0789005978518481
63	0x3fd2f13c6f6ec362	0.2959738815507561

hidden_layers.1.weight f8 [64, 64]
0	0x3fc8ea7f41d611f3	0.1946562835183979
1	0xbfb6761e87b99468	-0.08773985684963892
2	0xbfc0ec4d29593b68	-0.13221134680722035
3	0xbfd71f93a451ca37	-0.3613022904093301
4	0x3fd8606fded77805	0.38088604699976286
5	0x3fcb49687ee097c9	0.2131777400510926
6	0x3f65c71d8033df90	0.002658422106488652
7	0x3fb5eb0eb118e2f7	0.0856179411283725
8	0x3fd0290b990e6d65	0.2525052065554603
9	0xbfb705a72208ab4c	-0.0899300058451164
10	0x3fd3b51728b70cc9	0.30792788482740413
11	0xbf95ac520ec7c608	-0.021165163185235897
12	0xbfbacd8c5a7b2f7b	-0.10469891747487552
13	0x3fd38aa96b960291	0.30533824449961694
14	0xbfd8ad45a3e9c9ac	-0.38557568556930266
15	0xbfc4698077325033	-0.1594696599974
16	0x3fa3dedddaff51a8	0.038809712393830964
17	0x3fd68675660b4be4	0.35195670094725373
18	0x3fa68bbc2fa17fb8	0.04403484422141396
19	0x3fbc7c21b2fb3063	0.11126909846933723
20	0x3fc0911a6a951c02	0.1294281979009782
21	0x3f91dd8b1f1109c8	0.017446683665420598
22	0xbfc43c5eebef6f7e	-0.15809237022665096
23	0xbfc64dd7ff9fa183	-0.1742506025468736
24	0xbfb0eea0a7e40f04	-0.06614116763017469
25	0x3fc79aa671b75899	0.18440704872654548
26	0x3fca0493d5b6068e	0.2032646935950208
27	0x3fc49948707ba28e	0.16092782490092755
28	0xbfc769da32421d69	-0.1829178567315737
29	0x3fd696ac5d93d82e	0.3529463685839599
30	0x3fcfa500b57add9a	0.24722298489880928
31	0x3fc142c41371a0b5	0.1348500342312541
32	0xbfd8a036d3e169ac	-0.38477869693238165
33	0x3fa1c59d5e90ad98	0.03471080569610335
34	0x3fc79fa7d5e48a8e	0.18455980247479825
35	0xbfcb8a427473d811	-0.2151568478217887
36	0xbfdc7aa42b9a4c60	-0.44498543031767746
37	0x3fe575ef8d56e1b7	0.6706464539084241
38	0x3fcca9e6d3fa8730	0.22393498754996122
39	0xbfc12115d3b27d8a	-0.1338221820524093
40	0xbfc19a52b514dadc	-0.13752206651562104
41	0xbfd3dba83445bfc7	-0.3102818022225588
42	0xbfce0fa2f29a7231	-0.2348521885477495
43	0xbfb8f8e319c46e8e	-0.09754771594128384
44	0xbfacb4a5b34b6009	-0.05606572927143822
45	0x3fb4dbae091f6879	0.08147704813691971
46	0xbfc5483fa2104d91	-0.16626735127702522
47	0x3fb30bc38d943e9c	0.0743982525493671
48	0x3fc7e97b58d1982b	0.18681279980518303
49	0x3fb67fa362a8c9fc	0.08788510473895167
50	0xbfa705b4f7e1022c	-0.04496541524759254
51	0x3fd1cc836a28d6f1	0.27810750357762887
52	0xbfc9c0f9254c4393	-0.2012015754812891
53	0xbfb12733a61fa0e8	-0.06700442128897388
54	0xbfceac9e6cba6a09	-0.2396429091357535
55	0x3f8e207d172ae909	0.014710404653091052
56	0x3fc298ef5dcdfa2f	0.14529220657637285
57	0x3fb0483ea91f7bc9	0.06360236767748896
58	0x3fdf1637d9bc888a	0.48573108924222963
59	0x3fc03da89ba06c4c	0.12688167189557686
60	0xbfcbfb12b55ee9e7	-0.2185996423339269
61	0x3f6c633f9cc731bd	0.003465294116017341
62	0xbfcbd9f9c7167a17	-0.2175895902737046
63	0x3fd1de2629ab6d00	0.2791839034013748
64	0x3f9b3803be317be9	0.02658086632106552
65	0xbfc91cab76e138ee	-0.1961874323337222
66	0x3fa176c4502f2bfa	0.03410924414455248
67	0x3fd45116a415ceb7	0.3174492456812276
68	0xbfb8688a9051a781	-0.09534517310535585
69	0x3fda3b66eae435d3	0.4098756116735249
70	0xbfc148e3dedb16d8	-0.1350369299090548
71	0xbfa9ecf988d5bce0	-0.05063609881733
72	0x3fbd2e42a53c36f8	0.11398712667525135
73	0xbfb09c3bf59115fc	-0.06488394494325428
74	0x3fc80cf1f7c494e3	0.18789505575219953
75	0x3fd6f3cf9df44a23	0.3586310427209886
76	0x3fc51fbb9e7957b0	0.16503091085422517
77	0xbfb3de18f33b82ed	-0.07760768831532135
78	0xbfd6b6e140abe197	-0.3549121028477428
79	0xbfce21eff2792361	-0.23541068400870827
80	0x3fc2e2777da79753	0.1475362170742139
81	0xbfbfd2f7836eb28b	-0.12431284865187757
82	0x3fb4e48c8ad8ce31	0.08161238088433077
83	0x3fd1edcdbe92e8aa	0.28013938532570626
84	0x3faad3589496298b	0.052393692148217395
85	0xbfd31e3f93f5e2a5	-0.2987212128569275
86	0xbf8b88149ef62d1b	-0.013443146802066644
87	0x3fd1da57e4766cb6	0.2789516192512552
88	0x3fd2154167944973	0.2825473319545814
89	0x3fc0fd0bb8a48a0b	0.13272234454878204
90	0x3fd59cec83431979	0.3377028734070318
91	0xbfa8f40c9c8a5b80	-0.04873694811720153
92	0x3fd7616d0b12125b	0.36532140809166486
93	0xbfa3f44d0289d5d6	-0.03897324233995973
94	0x3fc8627055bdf798	0.19050411402343737
95	0x3fa0968cdd291129	0.032398607251283025
96	0x3fce6e41730d4338	0.23773973577274332
97	0xbfcc2edbe6bc8c37	-0.220180022873224
98	0x3fbcf6ad7c1ca061	0.11313900260995659
99	0xbf9f73a31546ef4b	-0.030714557813311043
100	0x3fd0f3509f62d583	0.2648507648949236
101	0x3fc1ec80f7f0298d	0.14003002268175316
102	0x3faa7045965b07a6	0.05163781605143862
103	0x3fd23cb3c091dc0c	0.2849549656452275
104	0x3fd2645a12ff65cc	0.2873749909900567
105	0xbfb4e78ca3df826a	-0.08165816307838161
106	0x3fb13894b2608a85	0.06726960520658494
107	0x3fd343707c0a332c	0.3009911738707156
108	0xbfbb406b393ff802	-0.10645170352651692
109	0xbf73fb1c4a00e7bd	-0.004878149513439509
110	0xbf5fb8b21187e8d0	-0.0019361247014999979
111	0x3fd45751e8408fe0	0.31782958680036977
112	0x3fbd12a95b5754c5	0.11356600265510781
113	0x3fce07e4842d50f0	0.23461586431461212
114	0x3fb01d926e6625d2	0.06295123286522333
115	0xbfcef3f3b456b99b	-0.24181982331851945
116	0x3fba1e98b9ca53a1	0.10202936683556497
117	0xbf9b2886aad3f06f	-0.026521782089716724
118	0x3fbce7f5c7d99df9	0.11291442994262714
119	0x3fbe11fe92a9e82c	0.11746207314163887
120	0xbf8401beba386733	-0.009768953378670986
121	0xbfcbc12ea2e2f135	-0.21683295205537836
122	0xbfc86d3ad4883dc3	-0.19083342912243326
123	0x3fc5c7c00da7107f	0.17015839258795393
124	0x3fc15fe7a8097291	0.13573928551604245
125	0x3fb2c8362ab0a1ea	0.0733674864028512
126	0xbfc2e62c528ff414	-0.14764932662356556
127	0x3fcdb75b64d34181	0.23215811179262505
128	0xbfe08f42e49cb47e	-0.5174879517632147
129	0xbfd06bcc1ce65ec5	-0.2565794260240007
130	0x3fd624f91048651f	0.346006647015729
131	0x3fc42afb039c950b	0.15756166149473247
132	0xbfd112cb6f6a2b4c	-0.26677213554710444
133	0xbfb122dbed33365c	-0.06693815747277071
134	0x3fd5087fa0d3d40d	0.3286437101917848
135	0x3fc2a42284ebafb4	0.1456339978243456
136	0xbf9e9388a948cbad	-0.029859671909615738
137	0xbfc538bc6c3f7e83	-0.16579394612834983
138	0xbf6dbb1f74d8ed10	-0.0036292662032601022
139	0x3fa47e62d045dada	0.04002674858468476
140	0xbfb7b397e8981d37	-0.0925841276986049
141	0xbfc4284b9713266b	-0.15747971417140447
142	0xbfb47c1102882d33	-0.08001810371222433
143	0xbfd07153dd13c2c0	-0.2569169672924936
144	0xbfb05af6f54e3d8e	-0.06388801087290671
145	0xbfbf1417bb3b1d44	-0.12140034028117436
146	0x3fd42fef19f0587d	0.31542565854159205
147	0x3fdd8a6cc1ab7469	0.46157378113804853
148	0xbfc97d9725ca619c	-0.19914521546594421
149	0xbfc54e15918da7a4	-0.1664454422673859
150	0x3fce6976d56bfcb2	0.23759351178157356
151	0xbfd15946ac2811d8	-0.27107397854004267
152	0x3fa29f548e28dd4b	0.036371843675108005
153	0xbfb8cfc9de01acc0	-0.09692060155946347
154	0x3fe057c2ae2ae905	0.5107129480086604
155	0xbfc24d6a203128b4	-0.14298750469089827
156	0xbfc77224cba3b715	-0.1831708902677113
157	0xbfc43c6b1ae82713	-0.15809382261095858
158	0xbfd177ebd9f1ae59	-0.2729444149360681
159	0x3fbf0af206c0a198	0.12126076378684159
160	0x3fc2f6d756ceb578	0.14815799463887536
161	0xbfd9b5065efc3e1d	-0.40167388225469997
162	0xbfc99782a842c368	-0.19993622985705461
163	0x3fc5608fc48eb871	0.1670093259576251
164	0x3fbadcff0968a31b	0.10493463496881043
165	0xbf893f7f177878fd	-0.012328141120687247
166	0x3f94b39225358736	0.020216258545935527
167	0xbfd1348eeb270f42	-0.26883290256613546
168	0xbfba87fbe26fb927	-0.1036374500106133
169	0xbfbe15defd67e61a	-0.11752122580210092
170	0xbfbfc039a4d0c1c3	-0.12402687333884103
171	0xbfc187421a518250	-0.1369402531154429
172	0x3fac244feea78ff5	0.05496454036963875
173	0x3f7149da990a8ec1	0.004220823190425883
174	0x3fc56fdcc233be1b	0.16747626764798515
175	0xbfd246aca1a557ae	-0.2855636194775525
176	0x3fc3b681242f6a61	0.15400709406715676
177	0x3fc660317d06c575	0.17481058697516585
178	0x3fd564c356055b2d	0.3342750873611518
179	0xbfb332d1b35277fc	-0.0749941885755731
180	0x3fc8f1a45ae7945e	0.19487432898236795
181	0xbfd8774088a03fde	-0.38227856962566686
182	0x3fc1efd51c3df3bd	0.14013160590175558
183	0x3fc779203866ed1c	0.1833839679146444
184	0xbfa7b8cfa4f1c9aa	-0.04633187187654937
185	0xbfbe0a721c6c9467	-0.11734688943814008
186	0x3fccd2f20c1bb568	0.22518754569265842
187	0x3fc4f05ec495a3b1	0.1635855159650226
188	0xbfe53216a1d231fb	-0.6623643074577211
189	0xbfb8b315120dc838	-0.09648257914321412
190	0xbfbdd937d38c4e8f	-0.11659573473689931
191	0x3fca383775f31057	0.20484059581042643
192	0x3fbfc0b6a25e93a0	0.12403432334993036
193	0x3fd46eab2151aab0	0.31925466779527323
194	0x3fd251a729c6d482	0.28623370246652524
195	0xbfd6125a2f5885f9	-0.34487013457882615
196	0xbfb5a1063cd72f74	-0.08448828683247972
197	0xbfcb2169ba18fd6c	-0.2119571837119837
198	0x3fab00beeb58ca61	0.052740064839231555
199	0xbfc80826494acc75	-0.18774870470733487
200	0x3fc6e3d6b0fb2ed9	0.17882808343562465
201	0xbfcd472120e04dd7	-0.22873319726259808
202	0x3fdd8e04d33419de	0.46179314256042214
203	0x3fc3b708494091af	0.15402320458191585
204	0x3fcc17b1ae86dc40	0.21947308561149903
205	0xbfdeb4da2ec8f9bf	-0.47978834694722744
206	0xbfd4cc006518e3bd	-0.3249512660291279
207	0x3fd1ad338c45a265	0.27619637201727293
208	0x3fc623c11e81fad6	0.17296613683352885
209	0x3fc94d2958f519cf	0.19766728252052565
210	0x3f7bc7a4fc492b3e	0.0067821926828156
211	0x3fb2a7f9232c7677	0.07287556751949774
212	0xbfb1f60eb6d2b382	-0.07016078914121063
213	0x3fc368eca78a267d	0.15163953953406298
214	0x3fbcab5c4b13756e	0.1119897540370027
215	0xbfbc647f7181fd62	-0.11090847512422422
216	0xbfc3f98bdcbd2108	-0.15605304983387946
217	0x3f98187372351434	0.023530773015654385
218	0x3fd33da91294039c	0.30063845457339666
219	0xbfb036cf5cb7360d	-0.06333633435789228
220	0xbfa17af9c25aeb29	-0.03414135453700446
221	0xbfd0c662094b2412	-0.2621083346135161
222	0xbfca93974c9975f5	-0.20762912025649852
223	0xbfcfa09ada7a04ae	-0.2470887724667014
224	0x3f8f2b334c5d1d7c	0.015219116943298465
225	0xbfc47ff408e4252b	-0.16015482362880937
226	0x3fcf09a1d9dc5b23	0.24248145234806726
227	0x3facc33883c68c0a	0.056176916204343355
228	0x3fd18c7953ca1abe	0.27419884855809673
229	0xbfc3cc02fb74b00b	-0.15466344144931585
230	0x3fc7a29731a7fdc1	0.1846493713819495
231	0x3f8003d13180482b	0.007819780657914851
232	0xbfa7ab189efae8dc	-0.04622723522830238
233	0x3fe2b097e59eb3ec	0.5840568051113428
234	0x3f73710129175cf8	0.004746441396000771
235	0x3fce7ff54a4a1d6b	0.23827997329156445
236	0xbfd3056f69903774	-0.2972067385570576
237	0xbfd1d01f9d012ef4	-0.2783278496979016
238	0xbfc1cccceae1badf	-0.13906251400791
239	0xbfc79d0d20dc4bb2	-0.18448032478826587
240	0x3fd083719805a794	0.25802268834979114
241	0x3f79512ba984636a	0.006180925898910819
242	0xbfcaa6bfd40c5885	-0.20821378568570395
243	0x3fb19d01bcd877ad	0.06880198345649431
244	0xbfe10dd95c821760	-0.5329405600357227
245	0xbfa9f20a5de6d762	-0.050674747431385794
246	0xbf8b1b445403e75d	-0.013235601247732093
247	0x3fcb4c55d15ecc0b	0.21326706622275568
248	0x3fc1c9f7126275db	0.1389759864586456
249	0xbfd572a667077330	-0.3351226812499588
250	0xbfbf4eff0380ac73	-0.12229913554681264
251	0xbfca507da55212e7	-0.2055813843945977
252	0xbfd1ff69b4c7448b	-0.28121416715755093
253	0x3fbdfcccf284651b	0.11713868065671244
254	0xbfa1c3f137e45fda	-0.03469804579998455
255	0x3fca7659f7dd3e34	0.20673679926629662

hidden_layers.1.bias f8 [64]
0	0xbf9411a6b5bfa913	-0.01959858402543897
1	0x3f9d183337fa83d6	0.02841262845197775
2	0xbfd0b43e2fc08eed	-0.26100115454958833
3	0xbfc8fb222f948523	-0.19516398738145666
4	0xbf61bb3e62b9fc87	-0.0021644800634131353
5	0xbfafc0bfee3df332	-0.062017438728594235
6	0x3f81273d30993f2c	0.008375623746502102
7	0xbfbd353dfbd2cefd	-0.11409366033586461
8	0x3fd24b0c9a607bf5	0.2858306415163832
9	0x3f9dff4ff2a18c14	0.029294251617454206
10	0x3fbb739eeeb26649	0.10723298385200865
11	0x3fc0273f7d172422	0.1261977539818711
12	0xbfc54ccc027e7e63	-0.16640615579398163
13	0x3f9464103637ffbe	0.019912961301087988
14	0x3fcc8f72f6bb2fcb	0.22312771842405107
15	0xbfb60a758b16bdad	-0.08609709401820594
16	0xbfa50ae4e85f2746	-0.04109874092644232
17	0x3fbf1a9691bef87f	0.12149945314647147
18	0x3fd4ebcdef863e68	0.32689236060193716
19	0xbf4fc53d6f2ca5a2	-0.0009695577594800895
20	0xbfdf9a15087cc85a	-0.49377942875719827
21	0x3fcb3a95b5815156	0.21272536623531363
22	0xbfa7d00493fdb333	-0.04650892550021126
23	0x3fd33a71951ea887	0.3004421192405364
24	0x3fb9df981ce5ad1d	0.10106802659509069
25	0xbfc3c98a2214045f	-0.15458799995397762
26	0xbfca2182ba125f74	-0.20414766393218609
27	0xbfc28cb781a1399d	-0.14491933660106052
28	0x3fa6f65b3704567a	0.04484829947084008
29	0x3fdc62402288c2e6	0.44349673626406483
30	0x3fc0d34a582a7a02	0.1314480715272595
31	0xbfc49d9d66ca842c	-0.16106002348991078
32	0xbfc0a4d13e773d0e	-0.13002982664190949
33	0xbfcf0705a96ea0db	-0.2424017979913121
34	0x3fc379ded6a9aa7d	0.15215669137554136
35	0x3fa380eca46f544f	0.038092989990822994
36	0xbfce11589c134bcd	-0.23490436192386568
37	0x3fc739d453fbd563	0.18145231343047916
38	0x3fd4af802c9ebb2e	0.3232117114775289
39	0xbfb88e88ee7e58c5	-0.09592490980716935
40	0x3fb8a55c5488ff45	0.09627320350500408
41	0x3fc7220a08fede9b	0.18072629393804082
42	0x3fc3d86c59e72fa0	0.155042213342651
43	0x3faf4f6b9775438c	0.06115280364850326
44	0x3fbbf6f40821443a	0.10923695753560106
45	0xbfab6add2a042c6b	-0.05354968202490159
46	0xbf990b953a6cb213	-0.02445824784369861
47	0xbf7c47db9dfcc797	-0.006904466514059757
48	0x3f87a6dbf66a2061	0.011548727471805078
49	0x3fc698875b8b9d20	0.17652980775822247
50	0xbfc43242e8560eff	-0.15778385490931865
51	0xbfb4b471782d6e53	-0.08087834533710607
52	0x3fc128d1e5f80b87	0.13405822495414219
53	0xbfbfbbd8754a2674	-0.12396004546658351
54	0x3fb6cb456215c158	0.08903916973736636
55	0xbfb3644db368f111	-0.07574926023602681
56	0x3fbb96c4530f7ecd	0.10776927020878731
57	0xbfcf033a14eb94a5	-0.24228597661491338
58	0xbfc4327670a2f3f6	-0.1577899980528909
59	0xbfb59015779297cf	-0.08422979516271244
60	0x3fa922dbcad98946	0.049094074737484436
61	0xbfb4c7738261e3a3	-0.08116838391460006
62	0xbfcdb6a32cf587c8	-0.2321361512686606
63	0xbfb907439570e28a	-0.09776708982907159

hidden_layers.2.weight f8 [64, 64]
0	0xbfb9f12485abd983	-0.10133579505404637
1	0x3fd55cc232aac9ed	0.33378653476680037
2	0xbfe28be92b39d861	-0.5795789570099822
3	0xbfd5867d24012064	-0.33633354679159866
4	0xbfd0adcbbfb09fa3	-0.2606076595279722
5	0xbfe29252cb20aabd	-0.5803617446266213
6	0x3fbc70ff8c87cb4d	0.11109921627921189
7	0x3fc607905106dae9	0.17210582691560397
8	0x3fd1d83eda33995a	0.27882357891794174
9	0xbfbd5f572ad6870f	-0.11473603053903168
10	0xbfd825f25add6a0a	-0.3773160827019245
11	0xbfc410583f3e6c8d	-0.1567488011176902
12	0xbfb6af2aa24ed3f3	-0.08861032927127592
13	0x3f934f6bbd847a99	0.018857654039602243
14	0xbfe535ba9b9eef84	-0.6628087081403327
15	0x3fe3fc70cfffd0cf	0.6245655119405685
16	0xbf969be873a2e822	-0.022079116876490563
17	0xbfb9f70b5ac7e2d7	-0.1014258476860833
18	0x3fe0332f87605c34	0.5062482494421432
19	0xbfb8cb55e7cdb9e1	-0.09685265454547888
20	0x3fccf781e43cedc0	0.22630332607682924
21	0x3fddc21c493bdb2d	0.4649725642370182
22	0xbfc15ec42971896d	-0.135704536663137
23	0x3fc6bad5371f8735	0.1775766867786445
24	0xbfc88147089cba5e	-0.19144523544805997
25	0x3fd41a069e8ed118	0.3140884922425058
26	0xbfd9821cbc450d4d	-0.3985664213725684
27	0xbfd52fce3552c4e1	-0.33104281623225346
28	0xbfc4c7d900c1c7a8	-0.16234886681519112
29	0x3ff144f0bc8727fb	1.0793311466572948
30	0xbfabdea282c866f9	-0.05443294378728853
31	0xbfcca3b3f74f2f9e	-0.22374581885958106
32	0xbfcb705712cadc68	-0.21436584870909603
33	0x3fb36bb0b80d2bb6	0.07586197369998512
34	0x3fcdd9099445c5ad	0.23318595638151632
35	0x3fd2e508f046f622	0.295229181905457
36	0xbfc1b103c56a18b6	-0.1382145608842557
37	0x3fa32fa705be08cc	0.03747293419930173
38	0xbfd84fd09ecfc887	-0.3798715163130812
39	0x3f8e942b6621b7fa	0.014931048445045992
40	0xbfc47942f0606c89	-0.15995060670033848
41	0xbfe07981389b336f	-0.5148321252432718
42	0x3fc74db137c3db68	0.1820584795275082
43	0xbfb7bb1e3c2b3435	-0.09269894570316313
44	0x3fc6a1e1cea3075e	0.17681524839104673
45	0xbfd5117e023ad3d4	-0.329192640473875
46	0x3fd419bcd4904f99	0.314070899564507
47	0xbfae15af15251902	-0.05875918515316593
48	0xbfce5369568400e7	-0.23692051624676155
49	0xbfaae45e7addd9bd	-0.05252356767498465
50	0x3fe2562ac6efbd38	0.5730184445837159
51	0xbfc142c3d36f71ba	-0.13485000442495992
52	0x3fc633407a4a08c2	0.17343908282425075
53	0xbfc0a0260ca19c1a	-0.12988734833490484
54	0x3fe125055867f00b	0.5357691504173102
55	0x3fb2018dfb773cca	0.07033622159291322
56	0xbfa9d079ca0ed00d	-0.050418668666139956
57	0xbf86a4649200ba23	-0.01105574198308285
58	0x3fc0d95904672850	0.13163292613018251
59	0xbfdf2d805098f44e	-0.4871521746716255
60	0xbfcdf64521dc9936	-0.23407806542781778
61	0xbfc00e3c81f7994d	-0.12543445917180876
62	0xbf8de8d1b1b9014c	-0.014604223476567889
63	0xbfdb6751d1020090	-0.4281811276523593
64	0x3fe2b93dc037e8d4	0.5851124529138141
65	0xbfc3b152d2f79740	-0.15384898472910358
66	0x3fc0d2f250c54457	0.13143757766605077
67	0xbf99472ca7fc29ac	-0.024685571434966455
68	0x3fcc2a0e0bcdf67f	0.22003341270822216
69	0x3fa9f5beb80b25a7	0.05070301052689823
70	0xbfcc3d6f7549d802	-0.2206248591134568
71	0x3f8ee9d5b6f4d17e	0.015094442029842222
72	0xbfd696f7d0abdcab	-0.35296435716686386
73	0x3fa465cb4be88bd9	0.039839127555999894
74	0x3fb43fcbc8c96eb9	0.07909845020315744
75	0xbfc13284bee600d5	-0.13435420342648877
76	0x3fc763d3e873c3d5	0.18273400163846412
77	0x3fd3e4be0f572a63	0.3108363294419744
78	0xbfb722eee2eb5cb9	-0.09037678756736768
79	0xbfb81b00e4afa7c5	-0.09416204054983186
80	0xbfb865fd058e0e56	-0.09530621896379307
81	0xbfc873d55d23a13a	-0.19103495643435925
82	0xbfba9679a75a3ade	-0.10385856948617397
83	0xbfaf4944e9b8f7d8	-0.06110587456758737
84	0x3f8e92836128b419	0.01492788925414783
85	0x3fa05afb99053059	0.03194414370463567
86	0xbfc5bf53ece26164	-0.16990136210075513
87	0x3fc142a6ff4cf28d	0.13484656778191031
88	0x3fcc8d111e024e83	0.22305501904758182
89	0xbfc55e798ac9bab5	-0.1669456412959868
90	0x3fb3416b68b7f6bb	0.0752169733677545
91	0xbfd08a5ca9ee1f58	-0.25844494433157683
92	0x3fd00b22940163c1	0.25067963079123606
93	0xbfb5d14eda834092	-0.0852250369528085
94	0x3fc981675585c3e8	0.19926158595947574
95	0xbfd2dc20be0b23b6	-0.2946855407613457
96	0xbfc9e6829a8fa2a0	-0.20234711214950085
97	0x3fb47bfdcd6fec83	0.0800169588618918
98	0x3fc8a1796a2abec5	0.19242780384001015
99	0xbf583dac10cc0855	-0.001479547531915167
100	0xbfc583218e0554a3	-0.1680643027745293
101	0xbfa0a846d9fb92c7	-0.03253384982034429
102	0xbfa2faf0c134a6ea	-0.03707077368228602
103	0xbfd973f4817f9bed	-0.39770233770690205
104	0xbfcd2e1b72dfae87	-0.22796958073682935
105	0x3fb17f8d694e6190	0.06835254498435561
106	0x3fd22e2a52b0964e	0.2840677077786936
107	0x3fcd6836e045d3c4	0.22974286986177905
108	0xbfb71ca7fc74d6e1	-0.09028100884901448
109	0x3fc94bb4e8a7d10b	0.19762288437016937
110	0x3fccb22548342aaf	0.2241865732724668
111	0x3f9e5b40e23809ec	0.029644979293161386
112	0x3fb5bbf19dfb711b	0.08489904505717442
113	0x3fc510d6f31d0384	0.16457640524643236
114	0xbfca845be6f22b5b	-0.2071642759004487
115	0xbfb1c2d2d965ab1a	-0.06937902267024434
116	0xbfd44292d89de2d4	-0.31656333116511104
117	0xbfa34e9b0f885787	-0.03770908894163854
118	0xbfb16a5fe2ce0e18	-0.06802939688901011
119	0x3faf72c9369ca2dc	0.06142262260101969
120	0x3fd3137ebd909a30	0.2980648852557435
121	0x3fd78dcad49c7f16	0.36802931559394503
122	0x3fb34d9056ac9bfd	0.07540228000708278
123	0x3fc348e12632258e	0.15066160550149416
124	0x3fa415481f848ee8	0.039224866721523644
125	0x3fd43461791f6ead	0.3156970675315545
126	0x3f95f5f3474ff6ba	0.021446038463173812
127	0xbfe41eba90427058	-0.6287510697907335
128	0x3fc6b6a20b3021b1	0.17744851633348227
129	0x3fcbf72401bbb2f4	0.21847963413838267
130	0x3fc5ba4c843adcd2	0.1697478910116162
131	0x3fd2378641b964f8	0.2846389428937779
132	0x3fe0fa1738fece46	0.5305286515417229
133	0x3fb5b4e5a44c8b7c	0.08479151974874627
134	0x3fc8c54cd6760201	0.19352112266280133
135	0x3fb6df8ee4386a3e	0.08934872695719151
136	0xbfa9431fac95f1a9	-0.04934023839720975
137	0xbfd0465251e52d30	-0.25429208753185417
138	0x3fd95342113683a9	0.39570666962577633
139	0xbfa0be217d10f221	-0.03270058299719759
140	0x3f83a8c75255df4b	0.009599263382127928
141	0x3fdecf4107daa204	0.4813997818660314
142	0x3fd1836268c9ac2b	0.2736440680807301
143	0xbfb25ad42483747d	-0.07169843570177821
144	0x3fcebb3dddcf99eb	0.24008916216480655
145	0x3fc8ff02bd371fa2	0.19528230895070658
146	0x3fb3db3d3b00856d	0.0775640744255008
147	0xbfcf9c011e6337e0	-0.24694837554710514
148	0xbf9ec36c281ef417	-0.030042352627550253
149	0xbfe27d1f358558da	-0.5777736707048249
150	0xbfcc606c788fdd7c	-0.2216926182443152
151	0x3fcf040740a3af0e	0.24231043487758835
152	0xbfc12c139a91696c	-0.13415761039034224
153	0xbfa1301093304865	-0.03356982990966698
154	0xbfca9b093f6c4be5	-0.20785632702663218
155	0xbfd4d4d25819fa53	-0.3254896030775047
156	0xbfb121bf35c02596	-0.06692118704099523
157	0x3f3e1166c41425ab	0.0004588008778943729
158	0x3fd2a0c1ac65c778	0.2910618003435199
159	0x3fd2f18299addb20	0.2959906101963714
160	0xbfb3c1391de22597	-0.07716710071158271
161	0x3fc653db07032758	0.17443406908415215
162	0xbfcb6e3be77c2e09	-0.21430157473547265
163	0x3f843762b2c1a5fb	0.009871264534200277
164	0x3fcba1ec947dd093	0.2158790326171852
165	0xbf796c9fdc789448	-0.006207107980604816
166	0x3fd009029e01faf4	0.25054994039957923
167	0xbf9661c9e6ff7159	-0.02185740921400856
168	0x3fc9f258c109b36b	0.20270833421400467
169	0xbfc2fb30d5cef45f	-0.1482907337175758
170	0xbfb80446b7ddb23c	-0.09381525029102361
171	0x3fd2804610850556	0.2890792046856253
172	0x3fdbf6b6982a0aeb	0.4369331823328781
173	0xbfcfadec2eb3998f	-0.2474951961550684
174	0xbfd30add003041fe	-0.29753804224404223
175	0xbfc0284fbdb136a6	-0.12623020899120724
176	0xbf923b3c14e1a34b	-0.017804087423800834
177	0x3fb52405e01a747c	0.08258091660759875
178	0x3f96b782d586a1a0	0.022184414179407974
179	0x3fc2b85e76b2ccae	0.14625149532148413
180	0x3f86f8cae83b6ecc	0.011216721737063472
181	0x3fa5f24c68bc6a53	0.04286421564593881
182	0xbfce95b1d6f0c286	-0.2389433192743306
183	0xbfc08c9e30222803	-0.12929131841912075
184	0xbfd287ea1ce06e45	-0.28954556293476613
185	0x3fd8074bcd9ce03e	0.3754453189790218
186	0x3fca2ef54efa24ba	0.20455805164627866
187	0x3faaac7c38cf1e88	0.05209720796079603
188	0xbfabfa763a7448f3	-0.05464524711182319
189	0x3fd125366f4275aa	0.267896279003106
190	0x3f9e7cad54c0d270	0.029772480295110204
191	0xbf75d1f043c874bc	-0.005327166113173461
192	0x3fb3f3aa616a39c6	0.07793679121298344
193	0x3fbd7c8e14099bb9	0.11518180836865967
194	0x3fc7b8e5cda8e7be	0.18533012907010787
195	0xbfd017eede5319a3	-0.2514607592715043
196	0x3fc0bc40b09bd41f	0.13074501632186838
197	0x3fc7ac34e70872d7	0.1849428299036819
198	0x3fbf852237bc6152	0.12312520848025102
199	0x3fca4d216ccd64a7	0.2054788380872072
200	0xbfc260ada1d354f7	-0.14357538606297002
201	0x3fdbe02d3793755d	0.4355576555952519
202	0xbfab19d011334c18	-0.052931310748725646
203	0x3fa7db1f3878d147	0.046593642848537224
204	0x3fc6fd08d6405d31	0.17959700070853438
205	0x3f784ff1c0632172	0.005935615865560672
206	0xbfd601fac62de62b	-0.3438708243698751
207	0xbfb0d49a53b1a7b2	-0.06574406188306517
208	0xbfddf9bb68ef43ab	-0.4683674359085283
209	0x3fc805c7ef035dba	0.1876764218384162
210	0xbfc16082b489ab8c	-0.13575776877709378
211	0xbfc3d385933d4fba	-0.15489263238361933
212	0xbfc542abfac3d24f	-0.16609716171628228
213	0xbfdc139ad221d146	-0.43869658013069956
214	0xbf97f5c4f4f27629	-0.02339847321547076
215	0xbfc2edd9883a7e4c	-0.14788359786779137
216	0x3fb9cddb3b2c55fb	0.10079736895234952
217	0x3fd4faf628d9af64	0.3278174780777958
218	0x3fc1aa101e379600	0.13800240970083166
219	0x3fc5925a7627d7d8	0.16852885026281572
220	0x3fc0ec53e8568ce0	0.13221215099938544
221	0xbfc79a092575c73d	-0.18438829735856102
222	0x3fdfbd73136ce6f2	0.49593808075915924
223	0x3fb23f8d951c63e3	0.07128224268343746
224	0x3fcbb9800205776e	0.21659851168345362
225	0x3fd1ddbce889c68b	0.27915880879218297
226	0x3fc8cd27b7d38c93	0.19376083827873866
227	0x3fa05f0ce6261f80	0.03197517690119778
228	0x3fcf81f503227f4c	0.24615347531379894
229	0x3fb208de42d73a15	0.07044781810621033
230	0xbfc32cbebaad13ec	-0.1498030101303408
231	0xbfb699a6d232a4ea	-0.08828203803809101
232	0x3fb81425bd464432	0.09405742522200525
233	0x3fba80e80a3e680c	0.10352945566265265
234	0xbfc7bdf6b830a708	-0.18548473352102968
235	0xbf90c885fa8c8040	-0.016389935891425234
236	0x3fc79f5e7eeae885	0.18455105969571065
237	0x3fd24fc33b16d2b9	0.2861183239977368
238	0xbfd61af52f8c92c8	-0.3453953708979438
239	0xbf64439de2f1603f	-0.002473648426114777
240	0xbfcd58f841c6949e	-0.22927764140800816
241	0xbfbbf233c98a5808	-0.10916446371479094
242	0xbfb8a40deeb8ee03	-0.09625327184851788
243	0x3fb2a99988732a84	0.07290038663192361
244	0x3fac751a1eeb76f3	0.05558091762007491
245	0x3fc40e4786427d77	0.1566857724728654
246	0x3fd89197f2b56670	0.3838863249016873
247	0xbfa3565458a93c13	-0.0377680166462754
248	0x3fb5abb2ea670c86	0.08465116713255058
249	0xbfd8b5e8dd0be72a	-0.38610288225719336
250	0xbfc50d881f84dd28	-0.16447545565618182
251	0x3fc24006bf944270	0.14257892946672568
252	0xbfd5685a20988906	-0.3344941442793615
253	0xbfbd0560f4d5bf67	-0.11336332299629036
254	0x3fddc5f338088433	0.46520691368101835
255	0xbfc3fe9f3b6dec9c	-0.15620794679475558

hidden_layers.2.bias f8 [64]
0	0x3fc6cc6e85638c84	0.17811376107338017
1	0xbf93bdbe58cfc039	-0.019278501673341195
2	0xbfc03ce96448bbb0	-0.1268588771503949
3	0xbfcb92aa2823349f	-0.21541335067596365
4	0x3f76f6e419e9a649	0.005606547375103307
5	0x3fa229c32b1fffa7	0.03547487164905699
6	0xbfc5fa514eb134f6	-0.17170158712762146
7	0x3fb9d7728a5657d8	0.10094371678709935
8	0x3fc6cad47591104c	0.17806487789687464
9	0xbf9f744c85bed778	-0.030717082656074507
10	0x3fa7ed2272689743	0.04673106810177654
11	0x3fb85b9ba330f31f	0.09514782652054209
12	0x3fa6ff8d39bf9acf	0.0449184544557305
13	0xbf83c57a5158b7ca	-0.009654002768993215
14	0x3fc6409dd28184f5	0.17384693888292416
15	0x3fc164ee6402f773	0.13589267619493803
16	0xbfa3c1020f3a4778	-0.03858190952190815
17	0xbfd001b065597bc5	-0.2501030912152909
18	0x3fa4498825f6df2a	0.03962350333625715
19	0x3f91e83e281c86ac	0.01748749847241153
20	0xbfa9b680480b6fe0	-0.05022049788905725
21	0x3f8097207a3f886b	0.008100751620023957
22	0xbfc246ee57a03b60	-0.14278964308365527
23	0xbfbfdff5c28c1a74	-0.12451110839547558
24	0x3fba0aa1e4944ee1	0.10172473745870604
25	0xbfa0c59a9942053f	-0.03275759812187084
26	0x3f886b7b6f6b5214	0.011923755967850481
27	0x3fbdfa446f285bc7	0.11710002626237702
28	0x3f971ea2e3db8cd7	0.022577805669141107
29	0x3fb56e3e89d6da7e	0.08371344437805736
30	0x3fb2d3d80e0f0057	0.07354498236873162
31	0xbfa1c71a3c090c19	-0.034722156361134356
32	0x3f9dfdceb2b3c40e	0.02928851094924672
33	0x3fa69166853d048a	0.04407806755490025
34	0x3f93396cbe704c54	0.01877374565453878
35	0xbf800595fa89f336	-0.007823154171313722
36	0xbf80ba7416b86393	-0.008168131774299236
37	0x3fb50bea82f7cff3	0.08221307465993259
38	0xbfc5df9eb3fe17c4	-0.17088683880518662
39	0xbf629ea9743193e8	-0.0022729215284464817
40	0xbfbd92761a74f0cb	-0.11551607271116208
41	0x3f816ad2fa7bd6e9	0.008504532117040014
42	0x3fc0ad954a5aaa58	0.13029733782362274
43	0x3fbd8879cc80305e	0.11536370508855628
44	0x3fa9b5c82e4adf95	0.05021501126378706
45	0x3fbeccb2afcad437	0.12031094352535453
46	0xbfc98fe26809c803	-0.19970350341787943
47	0xbfb8fd1abe118008	-0.09761206760731522
48	0x3fc5ec4c56d8ef5d	0.17127374878497906
49	0x3fb8277008e8fced	0.09435177056819884
50	0x3fc442c51f136ebc	0.15828765885713902
51	0xbfbad9b602f09d05	-0.10488450595640948
52	0x3f9400531a5ed31c	0.0195324883313389
53	0xbfb2c2b4895e61fc	-0.07328346589782336
54	0xbfbfa99378aac6e3	-0.12368127532934241
55	0x3fb2735d8b2ee78f	0.0720728363802705
56	0x3fb1fd99e1a99897	0.07027589568460467
57	0xbfba8e3f30593e64	-0.10373301439653343
58	0x3fb31f1d12fda09e	0.07469350541726036
59	0xbfda5c8f4ed854aa	-0.4118994016619789
60	0xbf744563c77480f2	-0.004948987734025178
61	0xbfba9dd9c3db3d95	-0.1039711096921024
62	0xbf71e77604a034da	-0.004371129043659406
63	0x3fa889c8ceb25600	0.04792621157791288

hidden_layers.3.weight f8 [64, 64]
0	0x3fcdeb202a0a877e	0.23373796513356732
1	0x3fbcd247fe46539e	0.11258363683584924
2	0xbfdf5a49f439f14b	-0.4898857960722764
3	0xbfc7955b00f15202	-0.18424546762493327
4	0xbfd7f5bdcf45d4ff	-0.37437386743052053
5	0x3f91bf7b317e172f	0.017332005401406277
6	0xbfd9ac8996e54806	-0.40115585075284377
7	0xbfc2828c12c5f15c	-0.14460898319874615
8	0xbfd97e94cbed79f1	-0.39835090555962355
9	0xbfd5c713315aeb19	-0.3402755720123181
10	0x3f8fd3f5dcbd85ce	0.015541001128158618
11	0x3f9316ecce81aca2	0.01864213953414818
12	0xbfca25e2a4354173	-0.20428116815538608
13	0x3fcdd3fe1f3aa4eb	0.233032002686094
14	0xbfb0aaf1f70f25aa	-0.06510841638296108
15	0x3faaf6d9bc2e0563	0.05266457006565408
16	0x3fc33b691072ea25	0.15025056174438692
17	0xbfc969452fb27633	-0.19852509335480448
18	0x3fea55ebcd8e1ac3	0.8229884161708799
19	0xbfde365954c45d13	-0.4720671966365028
20	0x3fa0a37600163586	0.032497107992735016
21	0xbfc2bcee952bd494	-0.1463907459616719
22	0xbfc6920a9a876318	-0.17633183045725143
23	0xbfbb278b8a374eef	-0.10607215999999274
24	0x3fd1ff72fc8c15aa	0.2812163797646813
25	0xbfc57f7416308d38	-0.16795207103232612
26	0xbf7501297c85c404	-0.00512806134825983
27	0xbfb95b1936e549f8	-0.09904630270219872
28	0xbfc3dc1f05c519e6	-0.15515506536230744
29	0x3fd40fb2fbf6479d	0.3134582005087568
30	0x3fd0cc5e0db49c42	0.26247359598568576
31	0xbfc799d553c318d3	-0.18438212003656548
32	0xbfb904e8bcb34ee3	-0.09773115736907871
33	0x3fd234606577a345	0.28444681080741346
34	0x3fb0b91712aced8c	0.06532425123162094
35	0xbfce471cbece6712	-0.23654517475807119
36	0x3fd4c41c9e366117	0.3244697136920122
37	0xbfc229c8d4c0e23a	-0.14190016163208147
38	0x3fc5ee17be4d933e	0.17132851402416266
39	0xbfdeab9566b4c5da	-0.47922263173958657
40	0xbfd3247ba62c5946	-0.2991017458711166
41	0x3f9bae35ecc01ae2	0.027031748366449622
42	0x3fcd5da5bce419f5	0.2294203922576369
43	0x3fdf810ba02cbfa4	0.4922513069350265
44	0x3facb121c5993ee0	0.05603890931217648
45	0x3fb9a4024def3811	0.10015882876106753
46	0x3fc9f043dea02770	0.2026448094405242
47	0xbfc31cf6234e057b	-0.14932133411279466
48	0xbfa73b83f4c2a928	-0.04537594187543653
49	0xbfd95e3ce21ef34d	-0.39637682039374483
50	0x3fda99b4f6ef711b	0.4156315242269259
51	0xbfd44e1b3b04ec2a	-0.31726723445507565
52	0xbfc18d1681dc4d45	-0.13711816159102788
53	0xbfb124d45b9713ca	-0.06696822391593496
54	0x3fa95adf4be637a9	0.049521425261544856
55	0xbfba8689bdd036c1	-0.1036153877650703
56	0x3fd0dbfa2c659212	0.2634263452112303
57	0xbfc05df9d650f2f0	-0.12786791767748396
58	0xbfc6936fe47daf2c	-0.176374422614907
59	0x3fb5a065cec903de	0.08447872446505708
60	0x3fca091ef661d596	0.2034033492124478
61	0xbfad4221f90c880a	-0.05714517750881505
62	0xbfdfc02eb262380c	-0.49610488338737535
63	0x3fdc3fee3f90c6c2	0.44140201766559184
64	0x3fbe329cad8a3c91	0.11795977818313676
65	0x3fdb338e4bb8c953	0.4250217189284246
66	0x3fcfc9f67c0e8566	0.24835091645676782
67	0xbfb82aecdc15836c	-0.09440498707909989
68	0x3fa0ae17fe90bf3e	0.032578229737167494
69	0xbfaac6ec13092cfa	-0.05229890568133473
70	0x3fd2b4c207b93b93	0.2922825885224764
71	0xbfd099c6775e4541	-0.25938569695525265
72	0xbfd8d63e8f07fd0a	-0.3880764385975942
73	0xbfd288f8c7e40f5f	-0.28961009522048714
74	0xbf998ec735ca655d	-0.024958717973821865
75	0x3f70c34262eccc73	0.004092463800407053
76	0x3fc4715304940381	0.1597083828310382
77	0x3fb45f07f5c4daac	0.07957505941599646
78	0xbfc8c00e825e78b3	-0.19336110463786368
79	0x3fb59136cfa460d8	0.0842470414103248
80	0xbfc0d786f20cf6a8	-0.1315773660552868
81	0x3fd421f2cfe2629d	0.3145720510597501
82	0xbfe0bb6109a1726d	-0.5228734195803334
83	0x3fd3585b3c7a2feb	0.3022678461645671
84	0xbf82621e16df6759	-0.008976206849115863
85	0x3fd3180e12d8b4ae	0.2983431991622848
86	0xbfc570e9ab6d5ae9	-0.16750832434146126
87	0xbfc4add84fc19684	-0.1615553273615441
88	0xbfd56a031726ffdd	-0.33459546338053575
89	0x3fbe78cad4799425	0.11903064429641626
90	0xbf9c1d8e0be32d82	-0.027456492877531165
91	0xbfa6ef459523b520	-0.04479424901533435
92	0xbfaff60e35794c04	-0.062424129512372445
93	0xbf59495149a48ffc	-0.0015433591675639837
94	0xbfacd3f10dba400f	-0.056304486203885167
95	0xbfc9ef7dd447f336	-0.20262120118413812
96	0x3fb5f634bccc615b	0.08578805550894712
97	0x3fcdf915cea0a198	0.23416397656661725
98	0x3fa6067b749d2afa	0.043018205628490194
99	0x3fd6f1b80fa60b0d	0.35850335624870483
100	0x3fc14af57f2c8297	0.13510006627713686
101	0x3fd1defbcb1d9ac3	0.2792348369170378
102	0x3fc1dce084ae26fe	0.1395531318524305
103	0x3fb40ec79b2c778e	0.07835052050037758
104	0xbfbbfb268ca2341f	-0.10930100377500239
105	0x3fb454fab0c855ec	0.07942168060284133
106	0xbf722e814c1dedb2	-0.0044388819386499846
107	0xbfc45ec20066f9b4	-0.15914177913323402
108	0xbfcac39360be3e5a	-0.20909349654947357
109	0x3fa9e60773e976ce	0.050583107852373396
110	0x3faff9d1db7aa288	0.06245284847438365
111	0xbfe5662c317f9ff2	-0.6687222449081658
112	0xbfcf0b017bddcda6	-0.24252337024846077
113	0x3f9a8973af97fc47	0.02591496237982607
114	0xbfcd5157e1e42b21	-0.2290449002251416
115	0xbfa5bf2134642c08	-0.04247382893125723
116	0x3f8f334f7db998b7	0.015234585785219286
117	0xbfcbd8c3c10881a7	-0.217552632574564
118	0xbfd490aa4bb6a324	-0.3213296641720709
119	0xbfbfcdd3b0097494	-0.12423441932465301
120	0xbf9152061e2cae78	-0.01691445883913764
121	0x3fc56db8ec2dbf96	0.16741096050418197
122	0x3fc7ea7c2efdb7a5	0.1868434171150827
123	0x3fb905f271e96b5a	0.09774699479150453
124	0xbfb7bc5c9cbc3047	-0.09271792246380627
125	0xbfe1b0179f721fdf	-0.5527456392455824
126	0x3fd211ce57d33a5e	0.2823367936770519
127	0x3fadc5662eaaaa2c	0.058146660992253935
128	0xbfbb495c607878ea	-0.10658814769019256
129	0xbfb3d15a81a3809f	-0.0774132315159499
130	0xbfb877b39a8c402a	-0.09557650111332863
131	0x3fd91f833168babc	0.3925483686934219
132	0xbfda2ba7aabef145	-0.40891448664094227
133	0x3f9f048717662c91	0.030290709307831568
134	0xbfb40ffa0bde8ef9	-0.07836878576068419
135	0x3fb337a44fc8e34c	0.07506777713650797
136	0x3fdb8d1f4472ea89	0.43048841175519975
137	0xbfa668f4283cfc75	-0.043769483482258766
138	0xbfc97b86c4318620	-0.1990822275138706
139	0x3fc7bb911bf416a8	0.18541158547320902
140	0xbfc2cd033f32bfc7	-0.14688149057246688
141	0x3fd31fc5edc4bfd0	0.29881427974305286
142	0x3fa247785bf7c7b4	0.0357015239968769
143	0x3fb1e4e341352b93	0.06989879934296388
144	0x3f868bcdede96aad	0.011008843253127532
145	0xbfc1d8cf0557b723	-0.1394289756857968
146	0x3fbc2e0ad9e844f5	0.11007755107882018
147	0xbfcd30ce063e66f2	-0.228051903771124
148	0xbfce99613ad8d6c5	-0.23905578015699383
149	0xbfa8b6d6346b461a	-0.048269933604057694
150	0x3fa54df34b091cb4	0.04161033907853931
151	0xbfccb8c71c5f059b	-0.22438897023498047
152	0xbfc9285f7c97acdb	-0.19654458602540256
153	0xbf9cf7cb64d17b96	-0.028289011028728682
154	0x3f76ed3c0c0eade3	0.00559733825586359
155	0xbfd41001c948f165	-0.3134769883797815
156	0x3fbe689440be83e2	0.11878325062436049
157	0xbfcc3df3a2420421	-0.22064061568019702
158	0xbf760d855422b4fd	-0.00538398820405672
159	0xbfc70a0df25b41ab	-0.17999433835804032
160	0x3fc268d0b6a13ad5	0.14382370870085617
161	0x3fd61cccdd80973c	0.34550782805523617
162	0xbfcdb6b876aad251	-0.23213868898678183
163	0x3fdc989f051af4ec	0.446815257058758
164	0x3fae332716bbd791	0.05898401405822463
165	0xbfd0595137a7613c	-0.2554514926428231
166	0x3fd584cf74b0866d	0.33623110194648725
167	0x3fc4bfe426f0d853	0.16210605527311603
168	0xbfb2fd2133f61d4a	-0.07417495268429267
169	0xbfce6a8566bc145f	-0.2376257659563263
170	0x3fde39c78a41e47c	0.4722765779657221
171	0xbf9302ac72abb278	-0.018564886568969347
172	0x3fc66136caf96b4d	0.17484173689703156
173	0xbfd6d71657b4ee73	-0.356877885485779
174	0xbfad49ebaed41a26	-0.057204594699261244
175	0xbfda9df6329ffd8f	-0.41589121764987963
176	0xbfcfcac4d01ca739	-0.2483755127116696
177	0xbfc794949b7f27c1	-0.18422181694614717
178	0xbfbd69354f58588b	-0.11488660037170655
179	0x3fd93274bb9c3ea3	0.39370458909341205
180	0x3fd1f63b56a280d9	0.280653795818592
181	0x3fd7ec2e9af43804	0.373790408441778
182	0xbfcac237949f3f26	-0.20905203587471383
183	0x3fbb7bd640d1caaa	0.10735835154063503
184	0xbfc3c6993d20d1fe	-0.15449824795508954
185	0xbfaad7d773f01834	-0.05242799082047647
186	0x3fa2e18b946fff69	0.036877023572741426
187	0xbf872ed777c3abb3	-0.011319812147538721
188	0xbfb797c75cc00da5	-0.09215971006783848
189	0x3fd9aa66a858cd68	0.40102545204282203
190	0xbfae9b6d1e0910b0	-0.05977955810206603
191	0xbfd5cb10f76a5c69	-0.34051918183963054
192	0xbfaf04ea1e6853d5	-0.060584369861466016
193	0x3fc1156748eb3b70	0.13346568165294626
194	0xbfb72210e48c97c3	-0.09036355571569658
195	0x3fc4605b41c6c7ff	0.15919056617491376
196	0xbfc66ab78d605707	-0.17513174441472065
197	0x3fbf18491eb38cc1	0.12146431922478752
198	0xbfc1a77af3e8af17	-0.13792359265914264
199	0xbf9aba337a83565f	-0.026100925781824432
200	0xbfe16d4c9a8bf633	-0.5445921915522319
201	0xbfae3daefc4c677a	-0.05906435804190742
202	0xbfcf21632f37051a	-0.2432064037839517
203	0x3fc04abd98198228	0.12728090216389032
204	0xbfc79e65a6c75cbd	-0.18452139514440616
205	0xbfb71a6117afde59	-0.09024626568122453
206	0xbfc67d9262248cf4	-0.17570714752319072
207	0x3fe26c18832edc96	0.5756952821892749
208	0xbf9d1461640e1b44	-0.028398057681921843
209	0x3fdf7b91a0351a01	0.4919170441175141
210	0x3fdb982afe0548df	0.4311625939054817
211	0x3fc17309c3bd6cb3	0.13632318551649333
212	0x3fada56b7e269c2c	0.0579026786320401
213	0xbf9cd458cbebcc36	-0.028153788992266914
214	0x3fc45d1c1edefca4	0.1590914870011818
215	0x3fa937a2b4892818	0.04925259069257509
216	0x3fb9009a36ed9a2d	0.09766544190424815
217	0xbfd3b69460f3d8fd	-0.30801877468128663
218	0x3fcb4e3c9277a723	0.2133250918553183
219	0xbfd364f63b9ab4c4	-0.30303722210630846
220	0xbfc14d631258750e	-0.1351741637780965
221	0xbfc9fa5d010fa738	-0.2029529814893125
222	0xbfb7f5f94a1f08c4	-0.09359701213455468
223	0xbff31cb3e77a64e4	-1.1945075075257643
224	0xbfc37f3acc9bb409	-0.15232024183879414
225	0x3fc74b92f2fe675a	0.1819938360684386
226	0x3f9586d5797771b8	0.02102216295121348
227	0xbfbc8ac07c41a750	-0.11149218591313326
228	0xbf9875917060449e	-0.023885986789598072
229	0x3fca5b19a85476b0	0.20590515822634847
230	0xbfb6e5a2fbcabfc6	-0.08944147727265692
231	0xbfdbb13d7068d1bb	-0.4326928708790338
232	0xbfd46828d39109b2	-0.318857390029872
233	0x3fd29f442dcb62f6	0.2909708449565608
234	0x3f653b4ccca1aa23	0.0025917530047554634
235	0x3fe01e714b523ef9	0.5037161322706815
236	0xbfb5754e2ba78e57	-0.08382118764671397
237	0x3fb9695607570c45	0.09926355055999732
238	0xbfc175258304a3e8	-0.1363875283944076
239	0xbfd98f09bd12d37f	-0.3993553491994177
240	0xbfdc39359a2d1a3d	-0.4409917836787008
241	0xbfa6b5b604799898	-0.04435509495378759
242	0xbfdb8f7d442dcbc5	-0.43063289316267755
243	0x3fb7c40b6c37ae68	0.09283515350369387
244	0x3fbcb85d636d2ab2	0.11218818356898444
245	0xbfac12503c8405bc	-0.05482722033230966
246	0x3fbb82f1177a9eed	0.10746676276414364
247	0x3fc0fb7a8c48a5f1	0.13267452096742674
248	0x3fca77d39e19946d	0.20678181857798297
249	0xbf99ae7952c469a0	-0.025079627682410455
250	0xbfd7df3a5b5a45b8	-0.37299975320010104
251	0x3ff0998d0cd9f6b8	1.0374880315788868
252	0x3fd545bcd183beb5	0.3323814435998245
253	0x3fd4e6c756214e90	0.32658561144965237
254	0xbfb79ace8ff6a25e	-0.09220591559154331
255	0x3fd2eaf1c75d9c09	0.29558987111380525

hidden_layers.3.bias f8 [64]
0	0x3fc81e08730ec573	0.18841653459598326
1	0xbfac20f794258f1f	-0.05493901904517728
2	0xbfae209ac296d697	-0.05884250283581343
3	0x3fa3e9baad85af81	0.03889258735838919
4	0x3f82e5e7c977b057	0.009227572284508918
5	0xbfa8ae850cc6a07d	-0.048206479844623985
6	0xbf9c0e13e4040a74	-0.0273974521560469
7	0xbfc143735bb3b4a2	-0.13487092950473306
8	0xbfc404465cca30c3	-0.15638045817138932
9	0x3f94ade1b901891c	0.02019455615698816
10	0x3f6109aeae25771e	0.002079812214261247
11	0x3fb0b4ed2ad7a957	0.06526071830709178
12	0x3fc0799c5a8f9141	0.12871126577295836
13	0x3f9401f9120b7840	0.019538776136748703
14	0xbfa69c403f1b4bcb	-0.0441608502420859
15	0x3fb47b58de4e072b	0.08000712802279668
16	0xbf9dbb9392688805	-0.029035859881453536
17	0xbfac4ffd9b000208	-0.05529778019991133
18	0xbf7310bf7422a405	-0.004654643884500769
19	0xbfa4776192e04f6c	-0.03997330587313183
20	0xbfad1a049b1ef4b9	-0.05683912652555407
21	0xbfc0ac4835a8e0b9	-0.13025763149358285
22	0xbf8c832a41173730	-0.013922052489671793
23	0xbf9a392105c5d674	-0.025608554818481413
24	0x3fa5eb19df6370f0	0.042809303778740815
25	0xbfb9deb4297a5cb8	-0.10105443966527872
26	0x3fb82015a5f2822a	0.09423957158515664
27	0x3fc08247a7f0f74f	0.12897582721955778
28	0xbfa72584ff557465	-0.045208126228978775
29	0xbf80d2c903e3ba9a	-0.008214540892791878
30	0xbf8b2d6f9885744c	-0.013270255891877046
31	0xbf982784c86a550b	-0.02358825181234629
32	0x3fc195c07f06967b	0.1373825664751854
33	0x3f9e0f15059fe8a6	0.029354408710766798
34	0xbfb0bedba580352e	-0.06541226187274127
35	0xbfc705c4608a7a83	-0.17986349786675157
36	0xbfb40de5a632c4a6	-0.07833705241752628
37	0x3f93c377ab4e9f48	0.019300336676365576
38	0xbf871358c5ada0aa	-0.011267369778309739
39	0xbfb10725e92bb633	-0.06651532118458973
40	0x3f965c4caf758351	0.021836469849748245
41	0x3f93c803eb92dd19	0.019317685368801827
42	0xbfbd056a50f1923b	-0.11336388088381792
43	0x3fc04211c8252d43	0.12701627991405404
44	0xbf9f3b77550b6294	-0.030500282827093786
45	0x3fc05c1edc558681	0.12781129606723954
46	0x3f9355bdd3816ffc	0.01888176539829088
47	0xbfa9e217f5175169	-0.05055308214983507
48	0xbf84b7c50255bb4f	-0.010116137632136505
49	0x3fab519f51e5a8ee	0.053357104060369184
50	0x3fa459daf4e7e795	0.039748041530358304
51	0x3fc6bcfc6c221f29	0.17764239578195287
52	0xbfacafb03f6a0c61	-0.05602789663409947
53	0xbf7b20d9944a5fd3	-0.00662312499903091
54	0xbfb6ffff75cde4b6	-0.08984371782379949
55	0xbf97bac04837711b	-0.023173336417913065
56	0x3fc3392313a8bf89	0.1501811834327749
57	0x3f329e151bc079e3	0.00028408065168319794
58	0xbfafaa2644fe239b	-0.06184501259037419
59	0x3fa3871b814cc364	0.038140162976907616
60	0x3fc055fbf52a01ba	0.12762402983572746
61	0x3f9b215adfe94ec6	0.026494426647629486
62	0xbfac61455c87ec90	-0.05542961840179672
63	0xbf94984418f5e36b	-0.020112098716228582
