BurgersEquation/Output/2_Train/Data/PINN_state.pt (torch, 404789 bytes, 10 tensors)

hidden_layers.0.weight f8 [128, 2]
00000000: ba9b 36f2 69ca 933f 9609 7f7e 6cd3 cb3f
00000010: da2a 42a4 86c6 9a3f 86aa 4c6d 18a3 c0bf
00000020: c108 cfc5 0ae0 c3bf 80d0 f9c1 b6c3 b73f
00000030: 9e99 5b76 7852 a1bf c176 1659 0a86 d1bf
00000040: eaeb 4513 d6d2 b4bf b179 5293 2f8d c2bf
00000050: 8cf4 464e da4c 8f3f e6cb 52a2 6c5e b7bf
00000060: c85e 3810 9d5f b3bf be67 4a92 05c1 a03f
00000070: dcb2 3ab7 5b7e 833f 4330 eeca f0e9 d1bf
00000080: 9115 ba03 5d4f a1bf f131 3a1a bfbf 993f
00000090: 3599 dcf6 d53a 793f ecbd 2335 248c c3bf
000000a0: 7a53 c5dd a508 ab3f 3e3e a266 67e5 9ebf
000000b0: 2402 7d87 8f34 82bf 2f4a 359b 9336 d63f
000000c0: 7031 e4e0 7315 b0bf 9d37 6a69 2908 c13f
000000d0: 9a1b 5635 9cfd a8bf 4a87 f880 6c18 b53f
000000e0: 5540 42af 7b1f b4bf 4c1b 0286 85a8 a5bf
000000f0: ea47 f96e 7ad7 ac3f 3cbb dc0b ca26 bebf
00000100: 603e 488a d6fb c13f a5a8 9cb3 b346 c7bf
00000110: 0810 e307 a842 b83f fdf8 173e c824 c03f
00000120: 977f d0a1 913e ae3f ef62 95b3 7e09 ccbf
00000130: de7b a9b6 f4a7 b13f ce28 25dd 2710 cfbf
00000140: 5ece f068 9dbf b4bf d993 f438 d4ee cfbf
00000150: 2a9b b27d c4b5 abbf 58fc f75b 4714 e03f
00000160: 2b40 c687 1af3 cdbf 82d7 39a8 ba51 a43f
00000170: a3f4 b4f6 8a61 c23f 2689 4b39 9937 ccbf
00000180: 48a8 2a40 a64c be3f 3953 33c7 8ac4 85bf
00000190: 9f4c 5be7 471b 973f f551 62e5 4251 bebf
000001a0: 6cd1 e9f3 6d3d 92bf 1e31 bf7d 07e3 c8bf
000001b0: 2544 a38a b44e c1bf 7172 ac2a 7056 903f
000001c0: e5e2 b24e e604 d3bf c5f4 99a4 e539 c13f
000001d0: d419 abd8 0cbb bcbf 1613 0f0f e7b9 c83f
000001e0: 830c 5b46 0ccc b43f 63a3 c5af f714 bfbf
000001f0: cb6d 66e7 9ec1 b53f 8ceb e49f 3c6e a5bf
00000200: a9bb f462 0dfa 9fbf 7b24 ec47 073c 73bf
00000210: 0ba2 39c6 cc89 643f 47bb 71be 5595 873f
00000220: ceb0 fd7d e50f b1bf 153c d7bf 5b0d c83f
00000230: 895d 6afc 50f6 c4bf 20f0 cf03 7633 ca3f
00000240: 2bfc 12e3 e129 afbf 93cf 7f98 b39b b6bf
00000250: 7b1f c766 3935 bebf 856c 4e82 3b8d bfbf
00000260: 6436 3ec0 427b b3bf 24bc 230b 1e5e cebf
00000270: 5887 ddb2 9610 a7bf e6ff b450 8c24 ae3f
00000280: 01b5 4596 c723 60bf 45d0 a658 4d81 a13f
00000290: e150 f7d5 e95e b13f 159d 213a 42f3 c0bf
000002a0: f766 9548 cc63 b8bf 0c1e f7ca 9250 91bf
000002b0: c127 f7c5 fd3c b53f dd69 3b02 231b d63f
000002c0: e43b 7082 7855 b13f 6e17 8544 7661 cbbf
000002d0: 85d7 7f6d 8450 b03f 9eda c012 f80a c7bf
000002e0: a769 1c89 4ea5 30bf 633e fc8b bbf3 973f
000002f0: ff18 8afa d9d9 b13f 2a0e d2d6 31d1 c63f
00000300: 32ce b2f9 006b b63f cf2d 3b97 fa3d 8c3f
00000310: 03ac 879d 8e35 96bf d445 2df8 baeb c83f
00000320: 042d a31f eee8 b0bf cf92 ca29 762d c33f
00000330: 2aaa 5c2c f240 c43f 215f d516 13ee c1bf
00000340: b762 2f9b ec01 c1bf 3aa2 0cc2 f8e9 bfbf
00000350: 5f54 4c27 ee72 b0bf b13b 6ac2 4b3e b7bf
00000360: 1eda 2d3d 40cd 6cbf 91c6 036d 1d90 c03f
00000370: 8032 b36f 1613 a33f be40 36e4 4108 c13f
00000380: 863a 9ca3 3ebb c4bf 6a8b b357 4075 b5bf
00000390: 9983 cf03 f608 9e3f 23a6 90fb d579 b43f
000003a0: 2a55 8d57 58a0 bfbf d7d8 498e 6b2e b93f
000003b0: 807d b444 a6c7 b03f 41ab af8b 1465 c03f
000003c0: 2542 8e53 49d0 c0bf 6760 aa98 6bce cabf
000003d0: c8fd a81a a868 b13f 01af 02b4 ad24 a73f
000003e0: 7bcf 684a 7d2d be3f 4ddf 851c 3d70 953f
000003f0: 6d96 5370 24a5 b83f e898 834d 9abf c03f
00000400: ec2a dd4c 1071 83bf d087 c62b ad2b 703f
00000410: d0ff bdee 931c a93f eb70 f1d9 441f a4bf
00000420: 3791 bee8 03b7 b13f 529b f161 934a bcbf
00000430: 7acf 0951 6f3a b1bf fab3 4cfd 3cab c2bf
00000440: 0d84 9422 525f b1bf 2b16 b894 7277 973f
00000450: b92a bb40 1676 b33f 860e f8a0 e4ed d0bf
00000460: 8ea3 269d 2469 82bf 45fe 48ed 63cf bbbf
00000470: 38c6 627a 9656 aebf 9847 1d8d a519 a3bf
00000480: 3ada 64d7 c646 a4bf 2e5f 49ee d33d d83f
00000490: db3d 2cce 6971 9a3f 5c36 c975 0671 c2bf
000004a0: 6d62 5ffb 412b 9abf 7da8 1e13 2a00 cdbf
000004b0: 6617 ac6c 06db a03f 5b96 9e62 cdd1 b9bf
000004c0: 83ed 01a6 bb60 be3f fed4 2f41 9f4a 853f
000004d0: bbe7 8b8d 468d cdbf 410a 6bab 69fd 14bf
000004e0: 37b6 f993 4398 afbf d83f 9669 bde0 cc3f
000004f0: 556b f186 bc9a b13f 6e13 1110 e6d4 d2bf
00000500: 07c4 e589 e8cc c13f 753e 6909 bccd c4bf
00000510: a31a a0e5 0412 c6bf e095 ec8b ea1b cf3f
00000520: f7dd 5d69 ed99 aabf 62a7 7a27 6f66 be3f
00000530: 3769 b6c3 2d6f bc3f 434d ead7 9e45 a8bf
00000540: 5c58 d47a 7c6c a0bf 03b8 8536 da05 c83f
00000550: 627e f58a 9040 c83f 9083 5a2d 243b b5bf
00000560: d281 43cb 8a0f d43f e5e7 078e b1c0 c0bf
00000570: 102e 1bdb a990 be3f 775a c480 abda c5bf
00000580: c119 3ab6 c17d 67bf ddda 711e 5938 b03f
00000590: 11a2 6f80 621f c63f d8a5 cd7c a815 c9bf
000005a0: b26a 039f 3ec6 c43f 6b11 5172 f517 6e3f
000005b0: ed04 2a29 8326 b4bf c142 06cb a2f2 983f
000005c0: f537 ec84 7cd6 bd3f 406d 9155 67c5 9e3f
000005d0: d951 111d 8eda a83f 8229 d64c f966 c4bf
000005e0: 9566 70ef 7aa7 babf 50c9 1cf0 b65a c8bf
000005f0: 948b c518 7a55 b1bf ed0f 2947 2f72 c9bf
00000600: 69c4 1bfd 3133 ae3f 3157 05d6 ea7a b6bf
00000610: 42ea d5b7 8804 9bbf e544 8e0b d88d d53f
00000620: ff27 552b 1040 b0bf b38b 4101 d738 c3bf
00000630: e859 7595 5195 a8bf 4cb5 3a1f f45f d7bf
00000640: d13e 3b58 158e a53f d538 b78c 2785 c8bf
00000650: 153d 73c1 c568 c6bf d997 7834 01ea c53f
00000660: 8eab 61c8 ba2f 98bf 16f4 3b2f 9d65 bd3f
00000670: 4588 1303 1483 b6bf 6d31 3db7 1823 c7bf
00000680: d9b4 b4bf 9665 b83f 4b2a 179f d259 cebf
00000690: ec1b d23b 0b11 bfbf 173b f663 c6ce d4bf
000006a0: 3706 87c9 3bfd b83f 3630 300a a6c0 bd3f
000006b0: 3c94 8d77 2714 adbf 6615 854e deaf b93f
000006c0: 3f91 b2af ab81 78bf b384 b7c5 28e5 bf3f
000006d0: 7a43 6e3a 5fb7 b43f 389a 9ffb 0c73 d1bf
000006e0: 43dd 2aae 3700 c0bf 8d5b 34ac 5428 c9bf
000006f0: 8978 b322 2605 bf3f 778f f4db 5211 c9bf
00000700: fc48 61f9 0ce3 ab3f 1366 338f 8b7f cebf
00000710: 6a34 28d4 22cb c5bf 48d6 9a5e 162f b13f
00000720: f205 ff0a 5dfc a1bf 25b5 522a 506a a93f
00000730: cdc1 aa0d 2129 a33f 2dde 4f7a 4cff 693f
00000740: 12a5 ef5c 7327 d3bf 15c8 42a4 a550 c03f
00000750: bb70 22ba 7b94 adbf fc4c 4807 11cc c93f
00000760: 835d ae82 9541 a73f f72d 568f b096 d1bf
00000770: fc00 74af 9b1c b53f a018 e024 784e a43f
00000780: 56dc b018 8da5 9dbf e021 aa8f 06b0 ba3f
00000790: 1c24 c944 953f c53f f26d 24dc 73d4 b6bf
000007a0: e0ee cf99 93cc 323f 35fc 0f6c 25e2 d0bf
000007b0: 3761 1c54 091b a73f 8868 231c bd57 bbbf
000007c0: 10a8 60b5 1673 a6bf b28e 1cc9 94f7 be3f
000007d0: 9a6d 044f 4484 abbf 95c9 6558 3bf5 a13f
000007e0: 1cd2 f47f a302 93bf 5b32 1493 d5a0 983f
000007f0: 9bf6 4cb2 b46f cdbf cc0e 8510 d17a d0bf
0.019326835068252037 0.21738964249204845 0.026147941375294838 -0.12997727715385937 -0.15527472170476211 0.09283010707605577 -0.03383232540891189 -0.2738061780927233
-0.08134210558448243 -0.14493364995446492 0.015283303750829334 -0.09128455126737797 -0.07567769666672597 0.03272263918661576 0.009518353013242935 -0.27990360085891924
-0.03380861921781809 0.025145517326153614 0.006159625814495852 -0.15271427721698616 0.052800353356963606 -0.030171981467502322 -0.008889314005160527 0.3470810905174941
-0.06282734146606628 0.13306157729351478 -0.04880989218786809 0.08240392826749346 -0.07860539463786272 -0.04230134259073867 0.056331468626595285 -0.11777937688451073
0.14049798729000695 -0.18184515256991066 0.09476709549477402 0.1261225035850159 0.059071112635364624 -0.2190397621987112 0.06896905383608451 -0.24268053339102952
-0.08104881107356607 -0.2494759824850508 -0.05412115129848012 0.5024754329932746 -0.23398143415079295 0.039686043773072846 0.14360177084191603 -0.22044673249826835
0.11835707727974054 -0.010628780559650873 0.022565005775345367 -0.11842744922825672 -0.017812459957398927 -0.19442838325483874 -0.13521439332410626 0.015954735378829136
-0.2971740501921388 0.13457937752892782 -0.11222915925745919 0.193173296311351 0.08123852460544083 -0.12141368905362308 0.08498566769997422 -0.041856665151917744
-0.031227311291498392 -0.004695919457625593 0.0025071143625619067 0.011515302538297368 -0.06664881063415182 0.18790766589378963 -0.16376697850203595 0.20469546495576285
-0.06086641213322993 -0.08831331704260341 -0.11799963721489164 -0.12324878627116405 -0.07609955972130816 -0.23724723380971213 -0.04504843648352502 0.058872589923794114
-0.001970186060296642 0.034189621993761445 0.0678545138719673 -0.1324236663669828 -0.09527279636440854 -0.01690892566491979 0.0829619034113014 0.34540629594780886
0.0677104299977454 -0.2139118036813516 0.06372859643292202 -0.1800222484177611 -0.0002539936768798608 0.023390703600908568 0.06973039976773875 0.1782591151169169
0.08757024856714038 0.013790090313157059 -0.021688679089418638 0.19469391935358138 -0.06605423233411406 0.14982487717238377 0.15823199430572404 -0.14007795920292046
-0.13287122323415243 -0.12466387498410195 -0.06425369700839799 -0.09079431053599653 -0.0035158400218577987 0.12939803908334516 0.037255002150776484 0.13306449549827976
-0.16196425427229516 -0.08382036343713897 0.029331058485584902 0.07998406783794869 -0.12354042184354755 0.09836456512298085 0.0655464093911089 0.12808472462287493
-0.13135639743679053 -0.20942444757816078 0.06800318385011572 0.045201709960876364 0.11788161341320162 0.02093596922483636 0.09626987211557898 0.13084725174775902
-0.00949299559183233 0.003947903107844611 0.04904615678151425 -0.039301063160310644 0.06919884140240105 -0.11051293507771945 -0.06729789474939976 -0.14585077636857574
-0.06786073059312532 0.022916593863575734 0.07602061348294854 -0.26451984138132223 -0.008989606901040916 -0.10863327544301978 -0.059254362525632265 -0.03730504367435045
-0.03960248355217684 0.3787736727731382 0.025823262413778508 -0.14407425643223604 -0.025555640189710283 -0.22656751569349246 0.03292102886739094 -0.10085757882787887
0.11866352847021315 0.010396236588329884 -0.23087388907862114 -8.007008987490854e-05 -0.06170855695095805 0.2256085172234623 0.06876734060771857 -0.2942443043614763
0.13906580670621357 -0.1625285192444498 -0.17242490017107057 0.24303943474039524 -0.05195562277998172 0.11875052179189319 0.11107145336282974 -0.04740616212543582
-0.03207768439658373 0.18767860090468966 0.18947035584550337 -0.0829336748816003 0.3134486184117381 -0.13088054118253392 0.119394889824598 -0.17073577678157267
-0.0028675826486647964 0.06335980408935478 0.17283278723995513 -0.19597345441734038 0.16229994549106191 0.0036735338094634937 -0.07871265177711324 0.02436308254397335
0.11655405278381166 0.030049910161648485 0.04854244332151198 -0.15939251186166464 -0.10411804528885178 -0.1902683899330193 -0.06771052460457688 -0.198797139879502
0.05898433890059424 -0.08781306958311742 -0.026384483547625466 0.3367824662064563 -0.06347752626348323 -0.15017211495714164 -0.04801421117251775 -0.36523154306162975
0.04209963514369764 -0.19156355257877658 -0.17507240243728775 0.17120375692428416 -0.02361957405120623 0.11483175662210984 -0.08793759417633946 -0.18075856158464934
0.09530012302703329 -0.2371161724862126 -0.12135381899325609 -0.3251205421628795 0.09761403722861749 0.11622083424316618 -0.05679438909900411 0.10033978859890666
-0.005983038568192988 0.12459044291564929 0.08092303444415264 -0.27264713833429566 -0.125006637613959 -0.19654329689430164 0.12117231700128363 -0.19584117641454288
0.05446663421811768 -0.23826736919618038 -0.17026172026854464 0.06712474641502653 -0.03512850531798141 0.04963922993315809 0.03742316524347054 0.003173493738809949
-0.29928287578384627 0.12746115227270197 -0.057773462745190206 0.20154011588656562 0.045422241403851 -0.2748223686000694 0.08246777566455771 0.03966117334498276
-0.028951840049753784 0.10424843795238514 0.16600290163685905 -0.08917926907127319 0.00028685191665521297 -0.2638028674409186 0.04512814666503789 -0.10680753647776176
-0.043846807137313815 0.12096528921079644 -0.05374349083487147 0.03507409528801301 -0.018564753231844575 0.024051034070952642 -0.2299714918716987 -0.2574961339307549

hidden_layers.0.bias f8 [128]
00000000: 5326 62a0 60d6 ad3f e7e0 8efb 04c6 b7bf
00000010: 3346 38b9 8405 bc3f 34a5 4230 56a9 96bf
00000020: 541f 0964 ca38 ba3f 2780 e1c9 dbe0 c13f
00000030: c106 097f f1f1 973f cea7 9124 ccdb b6bf
00000040: 7259 1782 1be1 ae3f 68e3 1c73 5b2c a6bf
00000050: 1bbf 660e 47b5 b7bf 6279 dc10 298e a13f
00000060: 80c8 f45e c93b b13f ec3f 1080 0154 bbbf
00000070: 3a49 87f5 a118 a3bf 7d9c a728 b333 b5bf
00000080: d192 bc05 5212 b5bf c170 3622 487d d33f
00000090: 38ff 81f6 b5e9 a6bf 133f 1758 39d6 933f
000000a0: 9b9e 4ac7 2f56 c13f 1258 581c 4821 a93f
000000b0: c47f 018e 8e67 c1bf 409d 702d 3dc0 b5bf
000000c0: 8fd6 10ca 943c b0bf 3f1a 59f7 e324 a2bf
000000d0: 6366 a593 fa93 ae3f d626 acdc b1e8 b83f
000000e0: 845d 23ea 995c a53f a49e f128 6e1f bf3f
000000f0: cfd1 9629 8b64 9ebf dd70 f5b2 73d3 b23f
00000100: e954 3983 2999 b1bf d355 cf7f 6646 b4bf
00000110: 89cb 34a5 35a2 b33f f022 07ad 7b0f 6fbf
00000120: 047a 19f0 1882 ac3f 607c 9543 da7a b5bf
00000130: e61e 8f75 d843 513f b1e2 8965 78e2 b03f
00000140: 8628 21ad e217 b2bf ce4d 9002 365c bf3f
00000150: 103b 5b03 f971 acbf d5fc c8e0 200a b73f
00000160: f892 d9dd eec7 a1bf 28a9 4ed4 ecc8 bc3f
00000170: 77d4 8857 37b2 b53f a81d 3de5 0881 babf
00000180: 733c bfb8 889a b5bf a462 893a 05b0 b1bf
00000190: 5802 3e6b f6d8 aa3f 8046 e07a e5e1 aebf
000001a0: ad63 8ddf a0e8 afbf 7f60 d1e0 9994 a2bf
000001b0: 8808 db4c 281e a83f e7cf 9f4a 1666 81bf
000001c0: 547b 3197 e289 ba3f e07a 713b a578 b1bf
000001d0: 9d8b 549b f9f0 b43f 5d50 58af 7e9a 8ebf
000001e0: 1f83 bb21 1933 ad3f 1bb6 0e98 88c5 b4bf
000001f0: ffff 61a0 d6c5 b7bf edd4 1d27 724e b33f
00000200: 699f 65f8 6468 aabf fffc c061 62ad 9e3f
00000210: ebd8 61d5 8b02 b0bf e217 c60b b92d b5bf
00000220: c4d8 8250 4b19 57bf c5f5 84d1 4ef7 b2bf
00000230: 8d32 675a f07f be3f daf7 1c4a 593b b03f
00000240: ddef 5b46 1916 b93f a825 2283 5002 b9bf
00000250: c210 be5a ccbb 9c3f 584c 6cfa 7343 c03f
00000260: cd2c 8067 63c0 c6bf bf18 7c0b f51d 9c3f
00000270: ac82 ebce 486c a03f f0ed cdd5 a762 c5bf
00000280: 9b01 31bd 964e bb3f 16ed 32cb 5f98 b13f
00000290: 7562 3401 2812 ba3f 729f 327e 235a b3bf
000002a0: 8a84 fe6e 3baf abbf 298b 80e5 2a43 b1bf
000002b0: bbf2 9d97 dd23 9bbf fdcf edec 0f49 903f
000002c0: 9464 0fb3 6632 8b3f d257 8785 e843 9cbf
000002d0: e799 9cd2 48ca a1bf d5f6 c053 8cf5 bf3f
000002e0: 9079 72cc c174 ae3f cd5c b9d7 6d00 b83f
000002f0: 8175 35bf 384b 9d3f 2493 b0c3 4d94 b13f
00000300: 9736 345c ad08 a73f 344f 8b05 374f a4bf
00000310: b89f d422 1ffb aebf 32c9 5818 3136 b1bf
00000320: 56e0 226c 2ff7 bb3f f60c 70c3 b226 b13f
00000330: 5ecd 816b 059b 96bf 8123 ad26 05f0 abbf
00000340: 6d6c ba2d de6c b5bf cc36 3b01 7f3b b33f
00000350: 9459 d932 3e9f aabf 828e dff1 2387 773f
00000360: f48b 9a8f 2711 bcbf b647 85ba f75f bb3f
00000370: bb4d f359 66fc b43f 7e86 9152 0df3 a5bf
00000380: c3bc 55a9 392a ac3f 15d6 2f43 ff4e b13f
00000390: b0ed 9e39 1ac0 bf3f 4301 cd01 23a9 bd3f
000003a0: 88fb 46b9 5b40 a43f 5c26 72c4 9f27 b63f
000003b0: 512b eaab 9815 acbf 4eda aa36 85c7 b93f
000003c0: bc3a ea08 141b bdbf aec7 0908 fee3 afbf
000003d0: 52cf de03 f8d7 b5bf 75c9 6332 c0fe b4bf
000003e0: 75b9 ee88 f1c5 b43f a8e1 72e7 7163 b03f
000003f0: 9da4 7aa7 f649 9abf 9c95 b693 e8b1 b3bf
0.05827619512372153 -0.09286528722339292 0.10945920488327303 -0.022130343146874412 0.10242905561710575 0.13967463834251356 0.02338387811528864 -0.08929134266659774
0.06031118357684563 -0.04330716877161117 -0.09260982610316797 0.03428772288156058 0.06731852119699688 -0.10675057770299617 -0.037297307225929235 -0.08282012693926961
-0.0823107971196564 0.30452159253196603 -0.04475182184341836 0.019371887208591575 0.13544270735768724 0.049082044086546386 -0.13597280439262083 -0.08496458396313233
-0.06342439587828096 -0.035437702125410635 0.05972273876495817 0.09730064046393791 0.0417221163094679 0.12157333850484037 -0.02968041840877494 0.07353900069341841
-0.06874331906995547 -0.07919922466620415 0.07669387133937113 -0.0037915626091699003 0.05568006449606247 -0.08390583181379574 0.0010537732944033095 0.0659556625267992
-0.07067696310801538 0.12250077784147281 -0.05555704275103868 0.08999829757611917 -0.03472849329117439 0.112440873940305 0.08475061308929975 -0.10353141400002264
-0.08438925276208113 -0.06909210852735242 0.05243654307469531 -0.060317202806015935 -0.062321688927745235 -0.036289986318196014 0.04710508287600229 -0.008495496895171996
0.10366645995371232 -0.06824715329410536 0.0818019870971924 -0.014943113065818798 0.057030473106129735 -0.08113912308063968 -0.09286252418132789 0.07541573958390631
-0.051577716180701234 0.029958283630773682 -0.06253885230566751 -0.08272892510839783 -0.0014098392003183838 -0.07408611884326095 0.11913969237429907 0.06340559062388654
0.09799344985725562 -0.09769156648157795 0.028060143507460784 0.12705850341498848 -0.1777462249159271 0.027458027673696202 0.03207614446524096 -0.16707323016804265
0.1066679202931539 0.06873129568969136 0.10183954266939017 -0.07559415656089444 -0.05407129030141629 -0.06743114569739518 -0.02650400388619077 0.0159037102088888
0.013279726352197131 -0.027602799558586195 -0.03474643298095597 0.12484051747102438 0.059484535414628614 0.09375654713345512 0.028607260389767134 0.06866918590146703
0.04498807669197651 -0.03966686194112726 -0.06050965595414887 -0.06723315090565476 0.10924049749417128 0.06699673911502999 -0.02207573383971117 -0.05456558320162853
-0.08369244209682032 0.07512658863125948 -0.051996177394062176 0.0057441143125945855 -0.10963675743055018 0.1069331007359143 0.08197631546072774 -0.04286996491351845
0.05500965301586682 0.06761165037445267 0.12402500063665545 0.11586207193341118 0.03955351483045094 0.08654211565058162 -0.05485226725166704 0.10070068916943706
-0.11369443147325858 -0.06228631828425023 -0.0853266725014781 -0.08201218824595975 0.08114537804678952 0.06401740933040989 -0.02567277333460948 -0.07693341833381456

hidden_layers.1.weight f8 [128, 128]
00000000: 2db2 abf1 a0d4 6b3f 80ff 3ce3 83be 8cbf
00000010: 0053 1a67 5f86 a0bf 7888 f261 77e1 9c3f
00000020: 6bdd a7a9 0ba9 a63f 806c 548c 35ea a6bf
00000030: 7812 7909 3ea2 703f 2091 4631 18e9 bb3f
00000040: be6a 4e55 66b0 c3bf 35e7 7ef7 0507 b3bf
00000050: 5bbf 8823 60c5 b03f 5aad c173 1495 adbf
00000060: 0847 0b5d 55ba c13f 2348 2956 2886 abbf
00000070: e964 3324 d600 b03f 33c9 8a69 f78f 86bf
00000080: 94f9 32fe fbdc c13f f54d b160 a8b5 b93f
00000090: 1306 18b2 4e4e 853f fdad 4c2a 1ef5 9b3f
000000a0: 076a 7fc9 61d7 9ebf 7ed6 ebc8 07e1 cabf
000000b0: 038a 9e10 24b6 c5bf b7f1 0272 d0ad bbbf
000000c0: 2ed9 e98e 8413 90bf 4d72 9309 ebd8 9abf
000000d0: cf4f 4f83 14ba a93f 670a 887a df2c c3bf
000000e0: 0f08 19ea 8e71 c5bf 7d94 f43a 08b2 98bf
000000f0: 928f 3d66 7a5e a2bf 860e 5c3c cc9c a43f
00000100: c1c7 84ab e04c b93f e522 c65c 0e4f a53f
00000110: edef de03 2d39 c43f a3d4 f519 7991 c2bf
00000120: 805e a643 53d0 813f 1d24 7c23 ff31 bfbf
00000130: d319 81ce 6728 babf 53c2 1e25 1bde bc3f
00000140: b181 83ed a88c bebf 1daa d250 0849 c63f
00000150: bcab a5eb 24a5 c9bf 4064 d88a 72b7 b33f
00000160: c365 d6da e708 ca3f 4bb3 edf8 60be bd3f
00000170: 58f4 8a34 389e c4bf 254a a4ee 5285 bfbf
00000180: 39f2 eca3 ee50 b3bf 3837 04b1 88a3 c5bf
00000190: 6378 f088 4a3b 7ebf a3dc bc97 d94c c43f
000001a0: f370 fb28 c9a4 babf 63f2 2c53 72c1 b73f
000001b0: 52e9 c2aa 6ef2 c23f ad5d 232f a7b4 a03f
000001c0: 439a d25b 7616 c3bf 9789 ceaa 5c50 903f
000001d0: 331c ecbc 3c20 b5bf eba4 5f4c d581 a53f
000001e0: 704b 6cea 2a4f bbbf 4ff3 6070 c549 993f
000001f0: 8e2f 5393 7397 adbf e076 e919 b836 c93f
00000200: 72a7 ea8b 4fc4 b93f b36e acee 1760 b13f
00000210: 8cde d725 1ac8 ba3f 2eb0 e0a8 5958 b0bf
00000220: 90cf 191e 939a ba3f 1959 5af7 a06b b0bf
00000230: 0c93 a9e7 9dfe cabf 2be7 8e85 e19e 8e3f
00000240: c310 1035 5a22 c83f 0716 59ae 97e2 b13f
00000250: ca2e 0991 5e3c bebf 9d07 6636 368e 8bbf
00000260: a63f 482b 49b2 b0bf b133 ad6c 6229 b3bf
00000270: 4345 8c14 f719 a9bf 967b 861b fd99 c3bf
00000280: e893 63e4 0351 bb3f 3ef0 6728 db6b c0bf
00000290: 2a4d d708 e621 bf3f dfac a3f8 c0b7 c0bf
000002a0: 8a4c 5cea 4a79 b23f abfe eee1 2a48 babf
000002b0: d182 5984 aeef a53f f45b 46e6 6e44 c13f
000002c0: f7f8 a195 1523 92bf 6bdb 6d48 a2ce c43f
000002d0: bfc0 42b9 fa0d b3bf 23ce 89c0 5eb8 b13f
000002e0: c99e ea25 8335 a1bf a7c1 f533 5f60 b53f
000002f0: 0d23 b7a9 5f6b 823f b3f9 036a b29b c83f
00000300: faab 826e 7901 ae3f 2695 b489 3967 adbf
00000310: 8aec 2bf1 eea3 a5bf fe64 1e38 9115 ba3f
00000320: a7df 9137 b09c ce3f a8cc e07d 0e5c c2bf
00000330: c46f 63e8 595b c2bf a349 158c b383 b2bf
00000340: d7c7 e2a2 05b0 82bf ed85 8416 2070 843f
00000350: 7d3b 8fde a996 c73f 9e53 49dd 97aa be3f
00000360: c4f4 c6f9 08f0 a93f 3587 f398 13ad c03f
00000370: 2018 830e 545e 93bf cfc8 1d77 b6a2 b43f
00000380: dcc6 12bf a390 babf 63dc e866 5158 b6bf
00000390: 2dfb bea4 b8bd bc3f 328c 91b8 dc45 b3bf
000003a0: 37a3 ce6e 1ef3 babf 6ffc 728f 058f b8bf
000003b0: bf97 ffbf 3cd4 8f3f 15fa ea06 1e0f a53f
000003c0: fffe ea82 f3f7 b8bf 36d8 178f 2d93 b73f
000003d0: f17a 1b56 2598 adbf 453a 091c 0b32 96bf
000003e0: 54ca d5c8 dd47 c13f 7950 a612 8b9d 843f
000003f0: 611a cd9e 7db4 aa3f e2a2 6510 59a8 98bf
00000400: 9fdf 8803 a763 823f 2a3c e98d c614 c63f
00000410: d27b ad36 c734 9ebf 9752 63ec 0834 823f
00000420: db69 678b 1b57 b73f acf3 1f82 78d7 ae3f
00000430: 7dc2 3f1a a7ce aebf 0504 5a3c 3b44 b53f
00000440: 1d59 21e0 2d12 73bf 9744 e5f7 d33c b23f
00000450: c9a5 43a0 79ed 6fbf 2b39 4505 e6dc abbf
00000460: 9224 0d08 6d95 873f 1a2c 79cb 5e41 a73f
00000470: b9ee 4f5d 7f8d bcbf c4f3 213d 5a0d c63f
00000480: ddff 4ab6 3c77 993f 613b 1fdf 546e bfbf
00000490: 133f 7e20 5aa4 cbbf 3f46 f454 15ac be3f
000004a0: 0818 70e1 619a 44bf a880 70bb ae7a bb3f
000004b0: 792a 5b73 2304 bb3f a56f 2d7d c8b6 893f
000004c0: ae91 79fe 5d6b b53f 1dfd 767a 21e4 943f
000004d0: 9a32 a856 fbe2 b3bf 29be d35a 972a 913f
000004e0: 5afa e318 23ee bb3f 6345 8eaf 58de 993f
000004f0: b054 e6b2 b21e 84bf b112 8589 535e 99bf
00000500: 29fe a548 a417 81bf 734a b563 9e8b acbf
00000510: 7b55 5292 3bf5 b13f bd32 4d56 f000 a4bf
00000520: 26b2 12ed b66a 8d3f eedb 81ca c46d b7bf
00000530: d4a4 e2c2 4834 b0bf 7b59 be15 55d0 b2bf
00000540: e2d4 38a2 232f c33f 07ea 4f77 5ccb c7bf
00000550: b385 55c4 059d a7bf 61d6 a8ed 04ae a63f
00000560: e94a 73cd ab26 bdbf 0d20 c6b5 d81e 883f
00000570: 4a0c 9e81 6b9f b63f 75ce 7d42 dc88 c23f
00000580: f42c 2a00 b064 96bf 91c9 a036 5188 a23f
00000590: 7108 7705 3d80 9ebf fc5e f368 142a 9fbf
000005a0: 0eea 93f8 ee7a a9bf ce80 3d83 ba1a 97bf
000005b0: 7e32 43b3 eab3 c2bf b7d3 5d66 38b4 b3bf
000005c0: 919e 2eab dc4c 713f 993f ee38 653a c0bf
000005d0: c41e 3715 ddce b33f 82bf 91a5 3ec8 c7bf
000005e0: 36ab 2392 c2a0 a9bf d517 d08d 5ec4 b93f
000005f0: ccd9 e367 1ebc b3bf d9d8 e871 ae9a c2bf
00000600: d28e 137c a642 c0bf 634f 205a 7d90 c8bf
00000610: d36f f6b8 c787 b6bf a22e f82c 319f b73f
00000620: b360 4f26 e024 8ebf 4991 47bf f67d ccbf
00000630: fadd da83 9b06 92bf 059a 5815 3c18 933f
00000640: b3bb 34a9 05d8 a8bf e8b8 1959 aa61 b43f
00000650: 99ad 7880 3f59 c33f 121a 2d40 8d9d c43f
00000660: fe24 dffd e64b 9dbf 6509 4ef5 6df1 8e3f
00000670: a78a 1ebf 530a 763f cc0d 0ff8 6d4f b33f
00000680: 2e68 1561 de85 a1bf 7196 9112 6388 bbbf
00000690: 4081 2bd5 26d1 95bf 1364 75de 4442 bfbf
000006a0: a374 07f7 dcab a1bf 4ee0 0cda 0fc5 c0bf
000006b0: 9b88 9356 0642 acbf 4f73 6be0 cae1 b9bf
000006c0: c366 74c0 0ace b53f bb66 3791 0065 c9bf
000006d0: 38e2 b56a 5608 b3bf 0d5e cd75 a40b 78bf
000006e0: 01e3 9881 831c b2bf 8e41 36c7 4b9b b3bf
000006f0: cc67 5730 e9b0 91bf 5133 d311 c0f3 c53f
00000700: 0000 f2be 5414 b0bf b738 9e6d 224a 963f
00000710: 6588 08d2 342d c73f 2a7e de7e 705e b83f
00000720: 52c5 3da2 7327 8fbf 8670 1314 0683 9a3f
00000730: 6957 d7c0 4791 c5bf 4223 33b5 658b c8bf
00000740: ca71 8189 39ad 783f b1c1 e5a6 2edd 863f
00000750: 918e 3e7a 9a19 ab3f 9943 afaa 7030 943f
00000760: 781c 17fe fd39 c7bf 6a3c 37ad 3752 8bbf
00000770: 1991 dd37 84c3 933f 05e7 4572 5195 b1bf
00000780: c898 e121 4d2b ae3f a543 5bb8 76a7 b13f
00000790: 7eee af0a df6e 903f 8717 a05f deba 893f
000007a0: a9b9 d532 4ba3 b33f 2bc3 582d b1dc b93f
000007b0: 13e0 0dd5 00da 8cbf 20cb 746a b4d5 c1bf
000007c0: 9051 c9b8 d5b0 b4bf 3640 f5a9 9a28 c9bf
000007d0: 762e 6dee 4635 c73f c478 ac65 a67b c23f
000007e0: 7fcd 7f5a 6860 c2bf 84fb f48e d246 a9bf
000007f0: 6c51 946d 03ae abbf ca5a 775b 7405 b43f
0.0033972876966486183 -0.01403525387979676 -0.03227518209056335 0.02820383582423644 0.04425846525185303 -0.044755624179935616 0.004060976345105709 0.10902548983591887
-0.15382079282138322 -0.0743259171712481 0.06551171176465458 -0.05777801430744019 0.13849894564787513 -0.05375791599057347 0.06251276382262784 -0.01101678171957996
0.13955640708986705 0.10042812691363408 0.010403265771858938 0.02730223782707063 -0.03011849205345565 -0.20999238310439589 -0.16962099849213538 -0.10812094481929689
-0.015699454519983273 -0.026218101939649952 0.05024780371573422 -0.14980691416720335 -0.16752802305751444 -0.024116638754226195 -0.035877060871626246 0.040258772247423955
0.09882930934398272 0.041618775200793746 0.15799486817365907 -0.1450644852408561 0.008698130132685167 -0.1218566381104584 -0.10217903892144102 0.11276406913999297
-0.11933379934953937 0.1741037745135409 -0.20035230165680484 0.07701793565537773 0.20339677987503366 0.11618619992596028 -0.1610784775311085 -0.12312811208929782
-0.07545367719735276 -0.16905316012747007 -0.007380763198879678 0.15859527501172463 -0.10407693148176005 0.09279551058438922 0.1480234464450612 0.03262827349106643
-0.149122996173178 0.01593155663034337 -0.08252315151558846 0.04200617368025824 -0.10667675231188212 0.02469547747044781 -0.05779610799217415 0.19698239579422872
0.10065171400006337 0.0678725202273494 0.10461581634432998 -0.06384811757078587 0.10392112240680107 -0.0641422847641916 -0.21089528857842088 0.014951478851674324
0.18854835120158073 0.06986377722304137 -0.1181086639491539 -0.013454841170417892 -0.06522042566962102 -0.07485022690998623 -0.04902622342900511 -0.15313686222085882
0.10670494390394902 -0.12829150650930105 0.12161100116582149 -0.1306077207621916 0.07216327878659193 -0.10266368881183989 0.04284425130459158 0.1349009155644293
-0.01771196103845171 0.16255596672609882 -0.07443205855338685 0.06921951485292559 -0.033611391428448885 0.08350176828913068 0.00899386154823525 0.19225149323024268
0.05860499834064821 -0.0574281674001134 -0.042266337337388896 0.10189159030996461 0.23915674889917435 -0.14343434473412242 -0.14341281745043777 -0.0723221032142534
-0.00912479785288049 0.00997948712080451 0.18428538672602804 0.11979054596424851 0.050659447183969 0.13028187721561726 -0.018914521585223665 0.08060779960740948
-0.10376952566982872 -0.0872851253742382 0.11226991674537308 -0.07528476244037632 -0.10527219968083733 -0.09593233825852264 0.015541529282881215 0.04113096079298743
-0.09753343530882928 0.09208950751767095 -0.05780140567889259 -0.021675275407967005 0.13500568682100555 0.010066114908831235 0.052158284792814376 -0.024079696298403237
0.008979134364480333 0.1725090210843246 -0.029498207771549385 0.008888311113346687 0.09117290643135993 0.06023766125142713 -0.060170385317069176 0.08307237838199917
-0.004656008912283374 0.07124066164148456 -0.0038974166401330762 -0.0544196969445799 0.01151547604389894 0.045420610750248794 -0.11153408077364703 0.1722824858187818
0.024868916155128196 -0.12277727553667496 -0.2159531267793616 0.11981328319623062 -0.0006287553723047798 0.10734073711546677 0.10553189817725607 0.012555662460435555
0.08366954291120152 0.020401499843271432 -0.07768221727037386 0.016764035147330745 0.10910243375472231 0.025262246813843158 -0.00982417686899803 -0.024773888844054685
-0.008345874278119574 -0.055752706214339386 0.07014820406251047 -0.0390696626041964 0.01436369811048006 -0.09151868766808466 -0.06329779394095009 -0.07349139958237132
0.14987607403751385 -0.1858935911730699 -0.04611986180931229 0.04429641152493669 -0.11387132421377157 0.01177758507471085 0.08837005533682532 0.14480164763118678
-0.021868467340522238 0.03619626800390841 -0.029786065538936094 -0.030433958917313028 -0.04976603302380421 -0.02256289888407608 -0.14611562493373137 -0.07696869372541824
0.004223691927940047 -0.12678208617989808 0.07737523811294539 -0.18579848370017876 -0.05005462678840049 0.10065260851123921 -0.07708921467187863 -0.14534550249090364
-0.12703400667589065 -0.19190947437948144 -0.08800934091271921 0.09227282855880017 -0.014718772095804722 -0.22259411182234093 -0.017603330538546992 0.01864713554655319
-0.04852311792853161 0.07961525607399589 0.1511611344625237 0.1610580981598138 -0.028609856839271856 0.015108927773103084 0.005380942473410733 0.07543074899790908
-0.03422446189024729 -0.10754985049569556 -0.02130566288076463 -0.12210493498913903 -0.034514336733743954 -0.13101385256755055 -0.055191228931805024 -0.1011015699290969
0.0851752014026728 -0.19839484301228602 -0.07434597115742114 -0.0058704780793372826 -0.07074758447641828 -0.07658837903568935 -0.01727642400314959 0.17150116796838202
-0.06281022702933114 0.021767175617747294 0.18106708770307303 0.09519103143110699 -0.015211966885291393 0.025890440917337297 -0.16849610248635408 -0.1917540678753316
0.006024574999255747 0.011164059131915179 0.0529297136520458 0.019716034333956498 -0.18145728022338736 -0.01334041116106573 0.019300523671874268 -0.06868466415280856
0.05892411268796277 0.06896154404536377 0.016047940280243804 0.012563454907659878 0.0767104148014598 0.10102374417398312 -0.01408768320264645 -0.13933425138528666
-0.0808232856882738 -0.19655164049845703 0.1813133873168799 0.14439849819695472 -0.14356712740810093 -0.04936845774726975 -0.054061991812121984 0.07820822938024743

hidden_layers.1.bias f8 [128]
00000000: 1de8 17a3 ec6c b83f 21e5 1a96 6f23 afbf
00000010: 2115 f26f acec b63f ced0 2998 776e a1bf
00000020: 6332 8d14 8b9f bf3f 4b3e 5ce4 1c65 a63f
00000030: 89fb 48f9 96fa 91bf aee2 725d 2632 b3bf
00000040: 477a fcee 446c b0bf c7b8 eed3 def0 ac3f
00000050: 6db7 cfd1 88ec a43f e19d c149 b02f b23f
00000060: 9355 a86b 93bd b93f d0cc 2d60 c6f3 953f
00000070: c1f0 5908 0a20 b23f 8bd5 0b16 ca16 b13f
00000080: 9a45 43c0 76e6 a13f e42c ea37 b553 a93f
00000090: b2af a585 ba1f c0bf f6ca 5c24 4aea 993f
000000a0: e781 0a5b 6c10 9b3f 9b6d 8f56 a562 b1bf
000000b0: eb04 9c41 d236 ac3f e63c efa8 3539 aabf
000000c0: 5577 0cbf 9fbe b7bf e59f 6bd4 96cf 783f
000000d0: 2391 3603 ae56 95bf bf94 3abb 340f b2bf
000000e0: 7dd3 4216 54b1 a13f 59db cb68 eada a8bf
000000f0: f306 315e bf00 bbbf 9055 6fc9 964a 9dbf
00000100: 8384 a5b9 5a6a 9b3f a25a 19fc 8781 b9bf
00000110: 501b aad5 85a6 a4bf cc26 5977 a293 c0bf
00000120: 1642 818d eacc 713f f60e c554 6846 a4bf
00000130: 04cc 9182 6f9f a93f e1a5 ae4a 2f99 aabf
00000140: 818d 08bf 11d2 b0bf aa7b 07eb 00e4 9b3f
00000150: cbae dc30 6d79 a33f 79d8 5041 7876 bc3f
00000160: 7e0e 6a08 89e3 99bf 9999 2f65 fbdc b2bf
00000170: f5ac 738c e071 b1bf c978 77cb 025c b93f
00000180: 2abf 092a 3f67 b73f 88a9 b880 f6c6 b7bf
00000190: 80eb b4ec 1e81 bcbf b43d a965 4a66 b6bf
000001a0: 88ce 5c3b 66fb b73f c5e4 d992 f497 b43f
000001b0: 2a49 69bb fe8e b3bf 2a01 0bc8 971d 96bf
000001c0: 625b 82b8 11f7 ca3f f319 e583 8f08 bf3f
000001d0: 7eca 52d0 a687 b1bf 14e4 72df f67c 7bbf
000001e0: 936d d8db 029a b93f 77c4 e7d4 3013 aebf
000001f0: fddd 0baf 21f7 afbf 4216 8c33 68ea a23f
00000200: 37f2 6e94 df00 a93f 6645 6b5c f666 9f3f
00000210: 3951 9fc6 61b1 a1bf 49cd 92f5 d577 b53f
00000220: d6c2 780c f854 a43f c7f0 9944 bebd a1bf
00000230: 78b6 b17e 681c a13f 849b 75d9 b5c7 84bf
00000240: 6610 66b7 0548 b7bf 9124 4549 8fdf b43f
00000250: 6397 4857 d639 a83f 04a6 cf59 cfcf b93f
00000260: f2af 8296 5167 8abf 8d7f 3710 a627 b93f
00000270: d32a 897e 5df3 95bf 3fe9 768b 61c2 b13f
00000280: fc54 cef7 b625 9f3f eecf 7a9f 2578 a4bf
00000290: a91c 3e38 7f81 b13f 9bdc 88fa c885 a1bf
000002a0: 481e 2c04 5dc2 893f 3f62 70c3 8da4 9d3f
000002b0: fade 5575 39ce 92bf 626d 581d 99ca b2bf
000002c0: 25cb d561 c6c4 a7bf 2dc2 c085 6d4d aabf
000002d0: f66d 9976 7a56 b83f 631a 12b9 7cd6 c03f
000002e0: b346 ca2c 3e0b b6bf 6c63 bbc2 1294 8b3f
000002f0: f773 f62b 5416 a8bf 79f8 7624 48d6 563f
00000300: 583a 5779 97ce a93f f6d8 3f8a 86d6 aa3f
00000310: dba7 1731 7a81 bb3f 80dd 3125 629a b2bf
00000320: 5eab d180 3cf4 a13f 7a1b 5a63 0ec6 b0bf
00000330: 2362 7813 b637 a9bf 0db6 5b46 4ba2 b13f
00000340: fc5d e44c 583e be3f 0753 87ea 7ef1 ae3f
00000350: 9a61 a5e7 6278 b6bf c705 0b5b 13b9 b23f
00000360: b452 ede3 cda7 863f bc42 8e6a 7ce2 9fbf
00000370: b9bc b021 580f a5bf 382f 3494 8657 b2bf
00000380: 8751 d419 4f76 a9bf abc5 1aa5 cb9b a93f
00000390: 5ab9 d09d afcf a33f cdc2 2db1 0a85 a63f
000003a0: 9c0d 8df2 1113 b4bf c250 f8ce 9cef a6bf
000003b0: 3b57 8002 bffd a83f deed 545a c253 923f
000003c0: 003a 6910 ed66 abbf 2e08 6d45 2548 acbf
000003d0: e719 28f1 c430 b2bf 213b 360f e7cc a8bf
000003e0: c8f7 ca36 b9eb b43f 4f2f 2f05 611d b8bf
000003f0: 7f77 f6df 957f 633f 3cbb 42a0 cbd4 a8bf
0.09541205388805492 -0.060817229340907504 0.0895488522820256 -0.034045922588946106 0.12352818729159191 0.04374017989732389 -0.017557486500887207 -0.07498397618736405
-0.064152057977915 0.056525195475261074 0.04086711465048052 0.07104017067614833 0.10054894808157248 0.02143773996381243 0.07080137924089326 0.06675398863065689
0.03496142479856275 0.049466765475779245 -0.1259682800840643 0.02530780646265903 0.026429837280945192 -0.06791146624839543 0.05510575343033416 -0.05121772467793466
-0.09275244154238511 0.006057347468164641 -0.020838469453921548 -0.07054452487007533 0.0345560338186379 -0.04854519395114804 -0.10548015641782253 -0.028604846996889643
0.026772897320715316 -0.09963273911248874 -0.04033296807488418 -0.12950545146514114 0.004345813962644237 -0.03959966692721466 0.05004452198854639 -0.051949956766587986
-0.0657054034605178 0.027236952157064266 0.03803578587971187 0.11118270487426853 -0.0252820407281562 -0.07368441791877557 -0.06814387730598866 0.0990602251763192
0.09141917015380999 -0.09287968294726145 -0.11134522704098337 -0.0874983308979072 0.09367979954986982 0.08044365487320977 -0.07640068126173519 -0.021597262940077723
0.21066495427359216 0.12122437448588368 -0.06847612939854206 -0.006710972163255686 0.10000627391166565 -0.058740163793012216 -0.062432339303935415 0.0369446337627264
0.048834788197812555 0.030666207686242862 -0.03455644177998569 0.0838597988647979 0.03971076156847679 -0.03465075099390585 0.03341986223754828 -0.010146542261919363
-0.09094272353655838 0.08153625048466241 0.04731626334641594 0.1008271784081885 -0.012892377286640031 0.09826124092023587 -0.021436177108891407 0.06937226920027671
0.03041730773437211 -0.03997914859556305 0.06838221667395551 -0.03422382410320176 0.01257774991019213 0.028948035291337822 -0.01836480883272793 -0.07340390173378844
-0.046423148577466024 -0.05137197740294073 0.0950695552395969 0.13154562985092175 -0.086109052596181 0.013466021125553694 -0.04704535519270075 0.0013938622013110176
0.05040429455003864 0.052417950035236346 0.10744441698594136 -0.07266820343089897 0.03506650040147606 -0.06552209783158772 -0.04925316798852843 0.068882660558039
0.11813880803344284 0.060436216477375786 -0.08777444987698005 0.07313652966242677 0.011062248724252079 -0.031137413028377678 -0.04113269244441526 -0.07164803617723414
-0.049730750945090434 0.050016750244491114 0.03869389344650882 0.04398377812220176 -0.07841598674445155 -0.044796848549738325 0.04881092935117556 0.01789764095631862
-0.053519638303090034 -0.05523792717441754 -0.07105666053403291 -0.048438282591737776 0.08172185504642393 -0.09419828774042326 0.0023801734202625875 -0.048498500168867115

hidden_layers.2.weight f8 [128, 128]
00000000: b4f9 1d8f 30e5 953f facf cf13 fa48 aa3f
00000010: 3376 d821 7053 b23f 0f58 57fe 3c31 b53f
00000020: dd72 aed0 3cf8 9f3f 6391 fb5a 643b b33f
00000030: 6e3a 0d04 fa69 bebf f492 d00e e485 c33f
00000040: 1f21 2b6c 8289 c8bf ed47 b5f7 3c50 b63f
00000050: 2a3f faf2 7e58 b5bf e557 b0c8 f514 a53f
00000060: edec e76d 5d8d babf a0c8 7d70 6092 bcbf
00000070: c332 84ed afaa b8bf 656b 6a0e d02a c23f
00000080: ba37 c44c 7b5f b3bf 7af7 b007 76be b63f
00000090: 8e7d c58b 97f9 c5bf 15fa d929 790a b73f
000000a0: 6548 9feb 4a04 a3bf d004 30a1 8f40 9bbf
000000b0: aff8 3532 1e29 b33f fb31 a84f 3015 b23f
000000c0: 9800 d1cc cf61 b1bf c67a 2272 ae74 b8bf
000000d0: 6a13 326b 28fc a93f d5b2 1551 8f84 6cbf
000000e0: 93bc 568e 06ca c9bf d9a4 1ea7 f57a abbf
000000f0: edc1 18bf 663f be3f e4b1 3e96 2b66 c43f
00000100: 83d1 8695 7603 5f3f ac26 9961 e503 b73f
00000110: 5617 ff6e 7004 c0bf 8ff4 19bd 15ab a7bf
00000120: 677f 8e40 620d a63f 5f96 d7b2 beb4 ad3f
00000130: ca77 978f 6585 b4bf ed48 67ad 75ac 96bf
00000140: 4610 98c6 f51b ad3f 0c9b 05d6 c6cb c8bf
00000150: 7237 bc1b e92b bfbf 280a bf96 5c87 c73f
00000160: 0646 8989 7f69 bb3f 7d92 c776 93ca 79bf
00000170: 5c3d ed62 e634 b5bf c3b1 e721 f911 be3f
00000180: e7e8 8d89 df14 a73f 2ff1 436a d40b b5bf
00000190: 1aeb 6248 64af ab3f 5c3b 70e8 eefb ad3f
000001a0: 8a5c 061b 7236 acbf edf1 eb26 d3a5 753f
000001b0: 30a5 55eb 04ba b5bf 5718 c788 5ab0 b6bf
000001c0: c139 2cb8 e998 be3f 2138 9047 1e05 74bf
000001d0: e610 d374 c3ba c53f 400c 5040 738a c4bf
000001e0: d49d 45a9 965c b2bf 1aa7 9647 31c3 8bbf
000001f0: 0762 637d f55a bdbf f8ca 095e 06ed bcbf
00000200: 3ee9 bd2c 29f5 b33f e1b2 abcf b332 99bf
00000210: 5544 37e9 1db4 893f 217a 9e70 d642 953f
00000220: a97c b42b e08c be3f 1af1 6fd3 f7d7 70bf
00000230: 1cc2 c059 bb60 a0bf b71d b6b1 cc14 c33f
00000240: f1e5 c728 2cf8 c13f 1820 2f7a c9d0 74bf
00000250: b685 548a cc76 c3bf a1a3 a62d 6adb bd3f
00000260: 2e35 bab6 b52b c2bf 7f59 3ed1 fc0a 633f
00000270: ec0e 0601 b451 993f ba45 06bd 310d b03f
00000280: d12d af48 d6e5 b2bf 09e0 7455 b249 b33f
00000290: 0c0e a987 d07e b43f df1f 42f7 180e b7bf
000002a0: 17ea 8868 a308 7e3f 26f7 2153 00a1 8cbf
000002b0: a190 bcea cd3f b93f 3b72 360e 7e86 a5bf
000002c0: 8fb6 3098 a944 813f 19d0 7590 9c36 b73f
000002d0: a948 b802 6cd9 ae3f 647d 1fda dec5 babf
000002e0: 738c 3f74 08f7 893f 19b1 9dff 05bc b43f
000002f0: cd10 59b4 9187 b53f eba5 c6ca 9cdc b43f
00000300: 8a29 9b14 a054 893f 556c b8ec 0465 c73f
00000310: 7c01 dcdd c2f6 993f a570 3219 9036 973f
00000320: 2fe4 9430 391a 92bf 1780 1813 36ef bcbf
00000330: f1d4 48fc e093 873f 37df b993 6d62 81bf
00000340: 4a7d 2aac 851a b33f 4f53 7083 0549 7abf
00000350: 8535 5f6a 6444 babf 0bb3 5c50 d763 bf3f
00000360: 62e6 22a1 0af5 a83f e749 e42c c871 aebf
00000370: 1fca 458b 1e72 98bf c7e8 643e de95 813f
00000380: 60b2 04fc d5fa be3f 24a5 7b44 0de8 a53f
00000390: add7 f4c8 2ee7 b33f 40b5 f7d1 db8c babf
000003a0: 9b68 2847 0643 a13f 594d 53fa 9111 cabf
000003b0: 71ad f26d 9e70 c63f 6db6 531c bb8d a83f
000003c0: 6b2f e130 50ba 593f f9f1 3fa8 808e b3bf
000003d0: b5fc 8faa bcd4 a9bf b381 f4a2 6852 9c3f
000003e0: e2a9 f6af e7a9 a43f bdb9 2458 1d50 ae3f
000003f0: 63d2 bd1b 7dcc 58bf 43fd 76ed f3ee c73f
00000400: 53d2 b6d1 ee99 b2bf 9626 4838 2a67 bfbf
00000410: b84a 2cb2 0351 c4bf 99ce 6554 aff7 a13f
00000420: c566 ad29 dcb8 c4bf 5f91 eb0a bf3f afbf
00000430: a4ad 1a4d 8a3e c23f 4a11 4cbc c5df b4bf
00000440: b3ce 4ff0 bb27 ad3f f447 08ca d54a c23f
00000450: 481c 625d e854 c73f 135c 3270 13a0 bd3f
00000460: bd48 061e 0545 c6bf a640 05a7 9273 8abf
00000470: c3d8 76cf 2021 9e3f 5c62 b241 bf86 ba3f
00000480: 559d b86b 92ac d13f 4bb7 b769 62a8 7bbf
00000490: 1870 1d49 69aa 9ebf e2ae e2b9 4e58 b8bf
000004a0: 14f7 77a0 0711 a33f b1c5 43f0 edb3 8e3f
000004b0: 9943 2c80 8951 90bf cd9f 2805 f867 bbbf
000004c0: 5544 b5ad 239c a5bf 1f6d 1499 b087 b73f
000004d0: df6b 178a 861b abbf 0e28 5c03 e3d2 c63f
000004e0: 9474 b404 0f54 d13f 16e9 8eff cb8e 7e3f
000004f0: 2231 7ebd 3032 cabf f81a 282d be96 b5bf
00000500: 0723 396a 5301 b5bf 1619 a4c7 25da c93f
00000510: 608d 01b4 5602 923f 8196 edf8 5974 b2bf
00000520: f752 e7dd fa7c a73f 9cf0 0c89 6a8f 9d3f
00000530: 3d59 07e6 4049 93bf 2028 8518 41a7 cc3f
00000540: 875b 8c2d d9ca aa3f bd7d a3c2 c3dc 723f
00000550: 77de 88e1 e34f afbf b173 a066 064d 6abf
00000560: 06c0 915e 1984 9f3f 8fb6 ca88 a4f5 b3bf
00000570: 3aef 7f88 4833 afbf bf10 555f 42df a0bf
00000580: 435d 41fa bd7b b33f 5b36 b531 d6a5 ca3f
00000590: 5a54 43ca 9381 9f3f 7a6e f16a f0e9 b13f
000005a0: a470 7d9b 8143 68bf d453 5e08 0bc2 a2bf
000005b0: 82c3 a819 ecb8 9e3f 6959 a56c bc65 c7bf
000005c0: f1fd 1516 968a a63f 30de d037 eec6 9c3f
000005d0: c72c c2e6 2036 8cbf 3538 4741 e3d4 b83f
000005e0: d7cc bbc8 f583 9fbf defc 2481 4b11 c1bf
000005f0: 84d9 e173 ddd0 c33f 9713 ad0c 2c2b b73f
00000600: df66 e348 e763 b4bf dbda 21b6 4b33 943f
00000610: 1a42 a86c f967 a7bf d654 7015 ab8b c4bf
00000620: af01 08cd e39f a2bf 2355 e0ff a7fb b23f
00000630: bfa1 0914 4a42 b43f 5733 c6c1 390e 913f
00000640: 96da b6b1 238d c5bf daba 8c8b 52c3 bcbf
00000650: 7c7d 7ec9 7e9e 653f 7948 3656 76b2 a53f
00000660: 31e3 1e29 87cc bd3f 8509 45d0 f34d 9f3f
00000670: eb25 7f74 1100 333f fb48 3095 e085 a2bf
00000680: 043a 1c87 1be8 8d3f 12c7 bfbe 6851 b5bf
00000690: 748d 4557 d68b 99bf 45fa 9e47 e82b b03f
000006a0: b003 adde d855 bcbf cb44 62ea 59d0 b2bf
000006b0: 41dc 9d54 6d0b c23f 18b4 7ee2 2d46 b23f
000006c0: cb24 4fba 22f7 b6bf 7de6 4d44 4f9f c33f
000006d0: 6800 bd58 d3e2 b13f 9ead 4ca6 b5c4 b93f
000006e0: ff65 1a38 50a5 a6bf b46f 13c9 b258 b23f
000006f0: 4854 4a41 8a99 b03f 89c2 f635 1e38 453f
00000700: 8545 99d3 d242 8dbf 619c e09f c70b c1bf
00000710: 4e07 3f15 1049 983f 25ad 0d3e 8361 bb3f
00000720: 7650 f720 bc2a bc3f 1958 53af 76ec a73f
00000730: bcb7 8085 4542 b2bf 4634 8b3d 7649 a2bf
00000740: 399f ebc5 8afb bfbf 6bb8 ae40 f7b5 b2bf
00000750: 7d6a babd b1c3 a13f dc0d 18f4 8db0 cdbf
00000760: a275 9518 f8f6 cb3f 2fc9 8ca2 8fc4 84bf
00000770: ecfd adef 3e59 903f f0c9 30b2 0f2b 7cbf
00000780: fca5 249d 2a53 a0bf e717 7485 5b6b b33f
00000790: c1e5 c279 ac8f ad3f 79e8 11d9 cfdd 54bf
000007a0: e843 0691 b602 b5bf 4694 4e91 c5b8 63bf
000007b0: 8797 0433 d3b7 d0bf ae50 c7c0 2b28 693f
000007c0: 5d36 4e44 82c0 c0bf ad3b 902b 12fe 7abf
000007d0: 7e8d f05d 1a3c 763f f959 d8b2 886c b2bf
000007e0: 8a6b 00ac fff1 91bf 6796 6a48 4ed7 9cbf
000007f0: 178e 1baa 2c15 b33f 1cd7 17d4 b653 b6bf
0.021382101760076558 0.05133801929324018 0.07158566309268437 0.0827825661611714 0.03122038863840514 0.07512500020272266 -0.11880457495610994 0.15252352450729456
-0.19169645578063751 0.08716183707772958 -0.08338159019535554 0.04117553782286602 -0.10371955807925178 -0.11160853144045513 -0.09635448025455688 0.14193154052631055
-0.07567568420583273 0.08884370506072328 -0.17167944264199914 0.09000355979694803 -0.037142125380015746 -0.026613468373402338 0.07484616018152467 0.07063581413985524
-0.06789873838806881 -0.0955304173134933 0.0507519369939818 -0.0034811782031084295 -0.2014778323186631 -0.05367248215709148 0.11815492787787436 0.1593679889314351
0.0018929155395258363 0.08990319855470358 -0.1251354734396794 -0.046227149327912824 0.04307086027188128 0.05801959927684374 -0.08016047244697613 -0.022142256458956778
0.05685394334071296 -0.19371877146041816 -0.12176377226952953 0.1838184104982059 0.1070785246640967 -0.006296707183058301 -0.08283843913271965 0.11746174886474763
0.04508112482194964 -0.08221175760622111 0.054072507702093556 0.05856272303946383 -0.05510288791554625 0.005285095989844707 -0.08486967797729927 -0.08862844313907324
0.11952076670079405 -0.004887693671674882 0.16976206974334856 -0.16047516479747692 -0.07172528870216094 -0.013555893895346883 -0.11466917334781367 -0.1129917125306682
0.07795960752801975 -0.024607476759160533 0.012550576858219179 0.02076277792331827 0.11933709208504929 -0.004112213201548332 -0.03198800535790644 0.14907225301088342
0.14038612357380445 -0.005081927319174916 -0.1520629573288212 0.1166292535259701 -0.14195891782984787 0.002324575218106861 0.024725735247115674 0.06270132889610283
-0.07381953501242512 0.07534327112523455 0.08006003677387968 -0.09005886112765847 0.007332456888031766 -0.013978960549362162 0.0986298273169859 -0.042041720614382126
0.0084317445344724 0.09067705656872284 0.06025254758073235 -0.10458176446217277 0.012678209350218439 0.08099400988220785 0.0840998711874505 0.08149127913079439
0.012368441227768274 0.1827703624593108 0.025355381766531945 0.02266907838621592 -0.017678159322915995 -0.11302507368282054 0.01151252527152244 -0.008488517828694959
0.07462344601889473 -0.006417295014235005 -0.1026060828873679 0.1226172038265753 0.04874451844211759 -0.05946183727259662 -0.023872830629850236 0.008586632041091126
0.12101495173255605 0.0427860399339102 0.07774631887590884 -0.10371183277284945 0.03371448153139164 -0.2036612007419574 0.17531185501625715 0.047956320960889844
0.0015702994455919171 -0.07639316661511221 -0.050451179333316366 0.02765811438178085 0.04035877249710375 0.059204976091098406 -0.0015135976563815038 0.18697976202927621
-0.07266132945989882 -0.12266792177265481 -0.15872236442426924 0.035092810680820104 -0.16189147982622934 -0.061033220370321876 0.14253357663015465 -0.08153949591730228
0.0569437723969747 0.14290878643856753 0.1822786766026374 0.11572381486108467 -0.17398132291834215 -0.012915750238477419 0.029423248922932254 0.10361857751775844
0.27615795631068824 -0.006752380776999643 -0.029946942412934247 -0.09509746587962867 0.03723930200429329 0.014991625685499029 -0.01593603939824426 -0.10705518842644253
-0.0422068738504399 0.09191421258258402 -0.05294437823950892 0.17831075347959352 0.2707555337854697 0.0074604004557221795 -0.2046566891916735 -0.08433140375573689
-0.08205148070659272 0.20196983574005206 0.017587046372125825 -0.07208788230271958 0.04587539633545206 0.028867401709462656 -0.018834127464139917 0.2238541955687774
0.052328860101787326 0.004605068863582526 -0.061156388550838985 -0.0032105565087605305 0.030777355572752206 -0.07796696033138971 -0.0609381357789673 -0.03295333303188518
0.07610690459965945 0.20818593432561525 0.03076773569121758 0.06997587786593754 -0.0029618770021625097 -0.0366366813388265 0.030002297464480694 -0.18279223732924813
0.04402607936480852 0.028102609783870303 -0.013775116960707113 0.09699840873437966 -0.030776825310522362 -0.13334029966242772 0.15481155546485692 0.09050250348543752
-0.07964940576075773 0.019726927749128414 -0.04571513606436302 -0.16051233813110483 -0.0363761127264327 0.0741524696062084 0.07913649548721134 0.016655828907050942
-0.16836973359541635 -0.11235538393951164 0.0026390529928474443 0.04237718393700702 0.11640209916994305 0.03057080229451394 0.0002899210562615484 -0.03617765256071156
0.014602866230714724 -0.08327345520936216 -0.024947499348298277 0.06316997288284039 -0.11068492351934256 -0.07349168751013051 0.1409737265746305 0.07138335017835151
-0.08970849083484038 0.15329924426241695 0.06986733356916519 0.1006577998165796 -0.0442299908147099 0.07166592988090664 0.06484283536913538 0.0006475589288382359
-0.014287612040024164 -0.13317199045670505 0.023716212555661635 0.10695667519546655 0.11002708248935442 0.04672594919399859 -0.07132372388215819 -0.03571671963946037
-0.12493197757760023 -0.07308907822764048 0.034696154031924366 -0.23195051592493499 0.21847439957029474 -0.010140535495882645 0.015965445879826776 -0.0068770039679741796
-0.03188450973750531 0.07585689552442397 0.057736768592302486 -0.0012735872044502812 -0.08207264938961567 -0.0024074419729509825 -0.261219787428097 0.0030709127952182813
-0.1308749040148766 -0.006589957215523618 0.005428412433534089 -0.07196859709106453 -0.017524714348933247 -0.028165076417869275 0.0745418467809532 -0.08721487691931568
