BurgersEquation/Output/2_Train/Data/PINN_state.pt (torch, 106293 bytes, 10 tensors)

hidden_layers.0.weight f8 [64, 2]
-0.576672238878607 0.0828939975704632 0.3219221015882417 0.2561810631229226 -0.029176617723021377 -0.10592272173558806 -0.16300891752568705 -0.3434089276497996
-0.4096290919297533 -0.030540103339027538 0.3891348138579817 0.1645931220232366 0.19564141361361034 0.1181308212889182 0.5813590516076409 0.19954393357002292
0.41685754169379496 -0.023419904029999015 0.2981783744194364 0.2416606669624305 -0.6089276726498236 -0.26204601830348867 -0.352321039543753 0.0284571194256318
0.4823542158894519 -0.030609668254249243 0.3715186520444584 0.14170245597931724 0.2303410406135583 -0.12454745321982101 0.11112574517769487 -0.2178203183682795
0.21860504310851145 -0.18812516252281425 0.20501951080953756 -0.2499442505731548 -0.4240516969413924 -0.30837754288542896 0.002784697504998433 0.007782005107094137
-0.35134312913029225 0.13477457231780388 -0.3119041905332442 0.2088212711389719 0.5333953147920443 -0.20001113686760827 0.5139063957068617 -0.16120206579260712
-0.39328104516640433 -0.14671823972049225 0.0750533709737274 -0.02555473102485526 0.5618371818233135 -0.26919695143836225 0.20996078998476306 0.4248329157822764
0.02193390065612298 -0.05929541446234625 0.4979642410616878 0.23091093075349498 0.15701274912919824 -0.2537418258274035 0.010493625798265016 -0.2320708287459646
-0.3177367586738305 0.11388957509173746 0.586519691153107 0.2385279850869895 -0.18231208130085735 0.009084212914224218 0.6345009076862304 -0.23285212793102456
-0.2471724354613211 -0.2971414912943781 -0.3086740070306578 0.030806853651229933 -0.1409159137616811 0.42792595834838343 -0.6135735150248572 0.12863370111587347
0.09333130699212806 -0.45873170580305633 -0.3994308020195336 -0.11006663850178809 -0.030152008842009224 0.946259202083641 0.44946645391034534 0.3426574392902431
0.42103467720475446 -0.3037273013521087 0.30015622065999287 -0.32975375410966373 0.3964851605334038 0.1212537578731097 -0.5739183565227773 0.09607697966209251
-0.4786659463899515 -0.2303508601150065 -0.7620065356888283 -0.026865080691993403 -0.2667329013568464 0.22380631075912674 -0.6514081178353642 -0.10853954752939084
-0.6172740681719763 0.2695762978235978 0.42261646890922133 0.26175789355087586 0.06953266540501009 0.7992236054405377 0.10878951210313553 0.41070563915764247
-0.2625527996055775 -0.15934527814987157 -0.5843892271252541 0.22823368952321807 0.4904995412850322 -0.3649429463898371 -0.5269770985801253 -0.12494666374236275
-0.34946476550676475 -0.014216935408832473 -0.33996171216079385 0.25848208963215824 0.4447768613699491 0.15295281707884217 0.4086375739704151 0.1541190520843902
00000000: b8d4 cf56 1974 e2bf 4e8f 9980 8a38 b53f
00000010: f196 8b28 5f9a d43f efea fd41 4565 d03f
00000020: 9f8c b6ab 79e0 9dbf f2f5 c161 c01d bbbf
00000030: 0156 dde8 79dd c4bf ac42 5a70 69fa d5bf
00000040: 9e05 55f0 5c37 dabf 37f7 3aa4 e745 9fbf
00000050: 3753 d0b4 95e7 d83f 5740 1e2e 6311 c53f
00000060: 6559 9b20 c70a c93f ebe4 154e d23d be3f
00000070: b96d 3c4c 7e9a e23f 7233 66d6 a78a c93f
00000080: 909c 2a41 cbad da3f 1687 8927 63fb 97bf
00000090: 0861 a0bf 5a15 d33f dca5 aa9a bcee ce3f
000000a0: e221 f5e2 557c e3bf a745 aaa9 5cc5 d0bf
000000b0: ff1e a28b 6d8c d6bf 45f8 15f5 dc23 9d3f
000000c0: 8d4e 9537 e4de de3f d9a6 5f10 2458 9fbf
000000d0: 0fa3 182b f6c6 d73f 8ad6 185b 4e23 c23f
000000e0: cc50 2eb2 d07b cd3f a314 6186 57e2 bfbf
000000f0: f525 48a1 bc72 bc3f 93e5 e543 89e1 cbbf
00000100: 1b24 7203 40fb cb3f c28a 4b3e 7c14 c8bf
00000110: 5604 fc4e 143e ca3f 8f78 0457 2cfe cfbf
00000120: 254d 8bba a923 dbbf 5ce1 6029 75bc d3bf
00000130: fcb4 d216 efcf 663f 7498 ea16 06e0 7f3f
00000140: 817d 52e4 677c d6bf 3cfb 370e 4b40 c13f
00000150: 3bd7 74fe 3cf6 d3bf d921 20c9 a7ba ca3f
00000160: f6e2 1b0d 9311 e13f ef50 d705 f799 c9bf
00000170: c284 58d3 eb71 e03f dd3d 50f0 44a2 c4bf
00000180: 0717 c842 842b d9bf 00c1 a9cc a9c7 c2bf
00000190: 2566 c99d b236 b33f da10 0af8 042b 9abf
000001a0: 3974 33f8 91fa e13f 2715 a7d9 853a d1bf
000001b0: 0fa4 36c3 fedf ca3f 1526 e365 7630 db3f
000001c0: 3c90 f727 d775 963f 364b d6f3 f75b aebf
000001d0: 84fe 7b68 a5de df3f f305 f047 7d8e cd3f
000001e0: 9350 4867 fe18 c43f ef95 e35a 4e3d d0bf
000001f0: e0c7 f59c ae7d 853f 83e6 e835 7fb4 cdbf
00000200: f16e cf8e cc55 d4bf 4fd5 5f00 de27 bd3f
00000210: becd 7ef1 c4c4 e23f 0990 90c3 1588 ce3f
00000220: 062b 6d95 0056 c7bf 380f 036b be9a 823f
00000230: f96d f9d8 d44d e43f ea45 2239 19ce cdbf
00000240: bdb7 63ab 58a3 cfbf ab37 d9be 5d04 d3bf
00000250: d19a 549f 50c1 d3bf 22e2 b2f3 d48b 9f3f
00000260: 00d3 8b5c 8809 c2bf 18cf 0d8f 2363 db3f
00000270: 2127 97ec 64a2 e3bf fc61 bab1 1177 c03f
00000280: 5560 397f 8fe4 b73f b2fe 833a dc5b ddbf
00000290: b817 ec35 4690 d9bf ffee bec4 532d bcbf
000002a0: 2960 8a0f 2be0 9ebf 19a0 cf60 c147 ee3f
000002b0: e66a 0cf2 0ec4 dc3f 8de4 de77 19ee d53f
000002c0: b5e2 446e 3bf2 da3f cc6a 8da2 4470 d3bf
000002d0: 813d db6f c235 d33f 3f97 687d af1a d5bf
000002e0: 23c7 754b 0360 d93f 1305 957c 7c0a bf3f
000002f0: 57dc 7a07 8a5d e2bf a911 8c3d 8098 b83f
00000300: ee09 5d7e 76a2 debf 8453 6611 237c cdbf
00000310: 93e5 c387 5b62 e8bf f3f2 e70b 8582 9bbf
00000320: 0312 06e0 2612 d1bf 85a7 ac68 afa5 cc3f
00000330: 2d75 4ed6 55d8 e4bf 6d1c f66e 3fc9 bbbf
00000340: ddf5 ee8b b5c0 e3bf 8476 bbf1 bc40 d13f
00000350: b0d4 2df2 250c db3f ca55 112e a4c0 d03f
00000360: 0d11 eb8b e4cc b13f bcdd f161 3d93 e93f
00000370: b479 a124 a1d9 bb3f 20c0 1d4e 0049 da3f
00000380: 5dde f141 aacd d0bf 0d7e 3613 6d65 c4bf
00000390: e567 5409 51b3 e2bf 737f 2cf4 c236 cd3f
000003a0: f96b 2130 5864 df3f 659d e9a8 395b d7bf
000003b0: 3b90 8413 ffdc e0bf b98b 842a 81fc bfbf
000003c0: de2c bd76 a15d d6bf 2bd0 0ac5 c41d 8dbf
000003d0: 8cdb e7c4 eec1 d5bf 5c99 6476 f88a d03f
000003e0: 467e 665e 3977 dc3f 2aa4 9739 f593 c33f
000003f0: 64a9 0736 1e27 da3f 0e4d 3250 2cba c33f

hidden_layers.0.bias f8 [64]
-0.1022085744844312 -0.14586567759628694 0.2915511953709828 0.13992279104312863 0.2080272105343454 -0.12446299740774136 -0.06524152494938674 -0.24028009757358504
0.03662543221997694 -0.2862297202266222 0.28825713319731894 -0.030828305936528466 0.052089696919438565 -0.22074124911721632 0.0897951588850777 0.15087877777164355
0.1998983488668365 0.20361124369760597 0.3324329699879673 0.0036426327214554993 -0.16420330221603455 -0.2136755232669604 0.24633905197077174 0.15689960244650503
0.22517767081394713 0.018276499091242668 0.33037596578968687 -0.4445238426222115 0.05816329670634243 -0.21245590496432984 0.30087785458114513 0.24067050806391266
-0.09857411199539914 -0.2534122937760917 -0.005737558699501595 0.22968355354499212 0.20879859650093846 0.13789191345992544 -0.13043048101588375 -0.2087085095397087
0.10429684995316685 0.12918469570673355 0.047433759197648 -0.30505921558975096 0.27732631836895194 0.2920525162374865 -0.07338938379629897 -0.20741251573161135
0.2181156414612274 0.028129425316757543 -0.19715414063413958 0.11918096384173558 -0.277075354070117 -0.23881760506773658 0.04904802080242186 -0.3649753488346249
0.1552136336550783 -0.21793635899947914 0.3671581610946883 0.1422227958306427 -0.10558685436013708 -0.24956358380242008 -0.16734460040130228 -0.08996104694735062
00000000: 9f0a c854 572a babf 7645 71fd b9ab c2bf
00000010: d398 4e58 c6a8 d23f 4f65 bf71 fde8 c13f
00000020: cd28 f6b8 a2a0 ca3f 70aa 6d97 cedc bfbf
00000030: 51b0 ff27 abb3 b0bf 80a7 7a8c 7fc1 cebf
00000040: 705f 2c93 91c0 a23f 840f e175 9651 d2bf
00000050: f4f4 fa0b ce72 d23f 5065 2797 7491 9fbf
00000060: 3380 7431 80ab aa3f ca16 ebce 3f41 ccbf
00000070: e722 c0c6 d0fc b63f ce46 18ec fe4f c33f
00000080: b227 74e3 4496 c93f acb9 63e8 ee0f ca3f
00000090: 5378 8def 9446 d53f 20a5 1e8d 27d7 6d3f
000000a0: 91df 7422 9d04 c5bf 7592 3134 b859 cbbf
000000b0: 0797 f8bd 0988 cf3f 98ae a142 4915 c43f
000000c0: c4b9 f735 9fd2 cc3f 6c6f 8717 13b7 923f
000000d0: 26df 1c3c e124 d53f 93b2 9621 1473 dcbf
000000e0: 6cd1 5c62 94c7 ad3f 0bfa d44d c131 cbbf
000000f0: fe10 6130 9541 d33f c883 9f8c 4ace ce3f
00000100: 92a2 402b 273c b9bf d50c 8b32 e837 d0bf
00000110: bb63 922f 4480 77bf afd0 734b 4566 cd3f
00000120: a80b b693 e9b9 ca3f 27bc 5835 71a6 c13f
00000130: c5b0 2e2d f2b1 c0bf 9e5a 6fdf f5b6 cabf
00000140: 6cea 9fc7 32b3 ba3f 0121 9ac5 1f89 c03f
00000150: ace1 f5d8 3c49 a83f 094a 9316 1786 d3bf
00000160: 2ebe ede2 b6bf d13f c016 7d09 fdb0 d23f
00000170: a658 478b a5c9 b2bf f096 ec49 7e8c cabf
00000180: 6338 699d 36eb cb3f deb9 29c7 f5cd 9c3f
00000190: ebb5 25cd 583c c9bf 0f8a 01c6 a482 be3f
000001a0: bd8f 1044 9abb d1bf e6cb bc45 9391 cebf
000001b0: ee52 8f7a d21c a93f 66d1 c590 c15b d7bf
000001c0: ba8f 3854 0ade c33f c78b 41af 56e5 cbbf
000001d0: ab1d 97f1 847f d73f 454d 6b48 5b34 c23f
000001e0: 0343 5d76 bd07 bbbf 051b 5a13 b3f1 cfbf
000001f0: 4c61 f140 8c6b c5bf bf83 8dea af07 b7bf

hidden_layers.1.weight f8 [64, 64]
0.23564909475092402 -0.24908902247414583 -0.05194167926631346 -0.09564950325255231 0.3141646485804797 -0.05778530491742113 -0.12983336163881876 -0.17686119913764972
0.04673682042492801 -0.16743719952057232 0.45883916230185146 0.05136696233418708 -0.19818441374342102 0.04894173841790941 -0.2859406311114866 -0.07154280298518725
-0.005867117487849443 0.15746703489307806 0.2292603354945683 0.08757079152293769 0.17298415918629043 0.047897489783612995 -0.18462951340116765 -0.2054429207056669
0.06544474471401293 0.1404702053470127 0.0010169041937065774 0.004034344949969893 -0.0860456745416561 0.014113636663462126 0.1532515181481316 0.08782943889517068
-0.1709151790268279 -0.20493746468576743 0.06896117476573707 -0.2332405849049133 -0.06491909174742339 0.45766812588187694 0.10691113578708565 0.054704069332410205
-0.06297648236703278 -0.05143303394699718 -0.11705719638705993 -0.31627276289553474 -0.11611336026698427 0.025621082593243544 -0.2761922757875962 0.1503466311908828
0.32450736176085193 0.21593288511458983 0.05462436026039724 0.3575588345546618 0.038894410756535304 -0.19880494335267926 -0.18760951450578184 -0.04691886745387445
0.17935403719631718 0.13760401432696545 0.23772971712571994 0.25021908116816877 0.018889564227726977 0.07457106978359067 -0.2884422277395871 -0.024209216031509672
0.07616295421536176 -0.14136123510659332 0.003978768536853681 0.25696598008987126 -0.007995628249214747 0.22268001298396936 -0.020645210576791435 -0.11640634593185972
0.12782343795412945 -0.041250217542269055 0.18852382715938829 0.12773545375186127 0.12414946200047688 -0.05995717825852916 -0.17692720312793875 -0.13823461107332752
0.04515089005615459 -0.14721477058511226 0.10202639633981009 0.04486258474949762 0.05206101665898428 -0.1949226773334782 -0.05485188294444662 0.0667345120459806
0.20238590201046588 0.07000388591544658 0.04344777126660283 -0.09578140428499533 0.17049352612266938 -0.05421463939362272 0.14820839320155502 -0.03607031441173261
0.22837487236512263 -0.14375262946840153 -0.036438139088432464 -0.19122281286284873 0.17284043637436414 0.10244008488213309 0.049919205135847564 0.226945598989736
0.15967712560131156 -0.05959754425837455 0.02368612435423208 0.08081591079916725 -0.13001415187575205 -0.04670249074718481 0.03742638769150829 0.20068260296721788
0.12440370680879333 0.0981929954020886 0.09567510270238891 -0.11388344278763257 0.1815062572497107 -0.0806442396314623 0.027539985424564272 0.029157254402534808
-0.03142901926972114 0.015424880129387095 -0.18643694630537316 0.12815161211366677 0.12403814970853323 0.07643084551278195 -0.08048496162109328 0.10528244531956057
-0.3984186859757691 -0.09469698792261964 0.23502928874189805 0.16077004238512926 -0.16751033397373155 0.04169368770951043 0.3038370803245617 0.08670787861335545
0.07949906205292204 -0.1285721468544539 0.0823287798162021 -0.07887038067451564 0.040276047841441474 -0.043965053498778855 0.07622210157110644 0.00039674631668458715
0.01019645947876768 0.05904724048727743 0.2345740791898644 0.10829132852497225 -0.3618615154492946 -0.36671968518200054 0.3903397567259993 -0.0740655147168237
0.004635758832408527 -0.08641081179243379 0.5842302522432453 -0.29282623745792496 -0.11415146966335595 -0.0718538701148547 0.054997471947123955 0.12377108606969726
0.030854898760160617 -0.27205918795945977 -0.1959475313782744 0.2228772444418419 0.12640971011621888 -0.018596276345296554 -0.08996182333583372 -0.28911105362815814
0.09827845948751648 -0.13177728316260773 -0.1021613608563952 -0.19211977707566555 0.2943765151531282 0.3704766948087058 0.15858116011059964 -0.305694604228584
0.10752862376684039 0.12396220539599542 0.09932132165880239 -0.04151530824013351 -0.06653292870342531 -0.2566794319004333 0.08402667587385626 -0.0837331986154369
-0.05786506126990044 -0.1735031940207433 0.6574216883296866 0.033337749014226925 -0.4950299985983893 -0.2049709027028176 -0.023603330964716954 0.1508657863017802
0.17486621648597495 0.1885410426042129 0.21955516610305822 -0.18460129959827568 0.09799405252748591 -0.1544417978706046 0.04446336826824135 -0.16665992128825727
0.06856553200222425 -0.1149343609593176 0.3608003746381055 0.1151657658526567 0.08671229803265615 -0.34894444984817863 -0.251001943402582 0.11978789425518818
0.013653448015369609 0.01914950557147054 0.05327817387875806 -0.052986998765198585 -0.03261232782962374 0.10242851227616118 0.005090299089436395 -0.2109292075471455
-0.038442737819733966 -0.0670398472910777 0.07382408785373869 -0.07878303774279978 -0.12044627229354611 -0.15551884005660532 -0.08328779150302192 -0.2662928977690636
0.14427783157063884 -0.17787510721654687 0.16800957377646708 -0.1062998886490242 0.20583974780522668 0.03694453245577415 0.28167091303527986 0.05132248138850968
-0.15164597773463137 0.3880164179729286 0.13214894379292247 0.05902746783210488 -0.26550374387502657 -0.23051426407167125 -0.12235343274109699 -0.06474913528939177
0.15724325233257447 0.03948610303139091 -0.011657019304684395 0.13410724773026306 -0.20111342317204137 -0.07309937601647921 0.04779620278973561 0.166909499264068
0.09215491408792671 -0.05929254013510757 -0.15364408154588416 -0.10377938348531784 -0.13701470698858148 0.16165495450691914 -0.04297667473111207 0.09102786350316257
00000000: c1c3 a4e1 bf29 ce3f 22d7 a82a 26e2 cfbf
00000010: e40b 7f8b 1998 aabf fa2d 5960 7c7c b8bf
00000020: 7d99 cd0a 461b d43f 8992 9e15 0996 adbf
00000030: 5890 152d 619e c0bf 5320 1d45 63a3 c6bf
00000040: 72f9 7c76 e3ed a73f 478f 0908 956e c5bf
00000050: a378 0def 9e5d dd3f e8f0 a33e c54c aa3f
00000060: 396e cd5b 1b5e c9bf 2320 d43b e40e a93f
00000070: fe2b ceee d94c d2bf a2e6 150f a150 b2bf
00000080: acb1 b65b 1e08 78bf 9a2c 883a e127 c43f
00000090: 660d 9c15 6758 cd3f 9904 ad15 0a6b b63f
000000a0: c130 374d 5824 c63f b4ba 5c10 0586 a83f
000000b0: b59a f79c f0a1 c7bf 5e12 d020 f44b cabf
000000c0: 9ee3 3d9e fcc0 b03f bc8f 037d edfa c13f
000000d0: bf21 5490 34a9 503f 7438 ef39 5186 703f
000000e0: 5661 1ede 1607 b6bf 4d75 2d3f 9ce7 8c3f
000000f0: 0219 41e9 be9d c33f 2748 ae77 fd7b b63f
00000100: feb4 2770 8ce0 c5bf a377 460e 643b cabf
00000110: 5205 5086 70a7 b13f 211d 22d6 d3da cdbf
00000120: f0f2 f09f 899e b0bf b964 4540 6f4a dd3f
00000130: b7a3 c837 875e bb3f 8c4c 7bf9 2b02 ac3f
00000140: 97fb 2e0c 3a1f b0bf d20a 793d 6e55 aabf
00000150: 616e 3ede 75f7 bdbf de1e 501d d03d d4bf
00000160: 68b1 f9ec 9ab9 bdbf 15ec 4dbf 693c 9a3f
00000170: 2e98 fa5d 22ad d1bf a9a9 03f4 8e3e c33f
00000180: 0ebe 8486 bac4 d43f f75a d953 b0a3 cb3f
00000190: 9843 c461 b9f7 ab3f afb8 3373 3ee2 d63f
000001a0: ed9c 64dc f7e9 a33f 57cf fdbc 7072 c9bf
000001b0: 3642 9cac 9603 c8bf 553b 8ff2 bf05 a8bf
000001c0: c1f5 14b6 12f5 c63f b093 aa22 029d c13f
000001d0: 6ed0 2b68 ed6d ce3f 03f5 9ce4 9603 d03f
000001e0: 9107 6032 c957 933f e3c0 f2f1 1617 b33f
000001f0: 8152 bb63 d675 d2bf b3f1 77fc 4cca 98bf
00000200: b68f 8555 6a7f b33f f63c dafc 1f18 c2bf
00000210: b1ff e78b 0a4c 703f daea 2a70 2172 d03f
00000220: 4616 bb0e 0360 80bf ad97 9e56 c780 cc3f
00000230: d543 fca0 0424 95bf c8fe d268 cecc bdbf
00000240: 496f d6b6 845c c03f 5a07 989e bf1e a5bf
00000250: 474a 157c 8c21 c83f 1db5 33a6 a259 c03f
00000260: b4a8 1b57 42c8 bf3f 4bc8 8f0f b5b2 aebf
00000270: 0887 9af3 8ca5 c6bf ba1b def6 abb1 c1bf
00000280: 015b 5a78 041e a73f 855a 9300 efd7 c2bf
00000290: 34b4 9be3 661e ba3f 5951 a08c 3af8 a63f
000002a0: 59c9 e4d7 bda7 aa3f bfb1 32ee 39f3 c8bf
000002b0: 7ca7 bdc6 8b15 acbf 6283 c052 8315 b13f
000002c0: 7f38 27ff c7e7 c93f bf89 9950 c6eb b13f
000002d0: e229 5949 c93e a63f fd10 f84e 2185 b8bf
000002e0: fe33 705b bbd2 c53f 23f1 516e 05c2 abbf
000002f0: b98d e51c 7ef8 c23f f478 82e9 ce77 a2bf
00000300: f7a7 0448 633b cd3f f1f0 2375 7c66 c2bf
00000310: 5880 6c0f 05a8 a2bf 3d5e bf37 fd79 c8bf
00000320: e2be d3aa a21f c63f 0944 5e6e 8339 ba3f
00000330: 4e66 0093 028f a93f e9e6 d0aa 8d0c cd3f
00000340: d53e 30d0 4c70 c43f 89f4 05bf 9183 aebf
00000350: b5b4 e1e5 2c41 983f 0efe e0fd 59b0 b43f
00000360: 8069 29c1 4da4 c0bf f242 cd8c 63e9 a7bf
00000370: 8eee 482e 8d29 a33f bd67 4fb0 f7af c93f
00000380: 61b4 3edc ebd8 bf3f 71c0 f217 2d23 b93f
00000390: 8af0 25dd 297e b83f 342a 541e 7727 bdbf
000003a0: 5414 74d7 983b c73f 6af2 d3d3 19a5 b4bf
000003b0: 235c ec22 7133 9c3f a170 6638 66db 9d3f
000003c0: 084f d1e3 7617 a0bf 257f 9a5d 1497 8f3f
000003d0: 5ee7 9275 2add c7bf b09b 7aa3 4567 c03f
000003e0: 415a 74d4 f6c0 bf3f 0c0e e2cd f890 b33f
000003f0: 467f fb95 a99a b4bf 3a8c 7d53 caf3 ba3f
00000400: f265 9816 b17f d9bf a348 28d2 0f3e b8bf
00000410: e6d1 5f92 7015 ce3f b83e 1cdd 1c94 c43f
00000420: 2661 1487 fa70 c5bf a0ef 5202 e058 a53f
00000430: 6e97 d314 1172 d33f 9d2c f3ce 7c32 b63f
00000440: 3a79 94ef 0c5a b43f 3a4c f556 0d75 c0bf
00000450: 3686 d4b8 7f13 b53f ddbf 9e69 d930 b4bf
00000460: 030e 95e8 0f9f a43f 0c67 e365 9682 a6bf
00000470: 71f4 7aa9 4a83 b33f 2dd5 7874 4c00 3a3f
00000480: 3e6a f89f e1e1 843f d6b1 9f9d 703b ae3f
00000490: 540d 4eff 8506 ce3f 9084 7402 fbb8 bb3f
000004a0: 3949 a233 bd28 d7bf adfd a9d7 5578 d7bf
000004b0: 72df 5d9a 53fb d83f b35c 7823 f5f5 b2bf
000004c0: 87c6 3c09 f2fc 723f 2e58 abda 041f b6bf
000004d0: 85fe 56a4 03b2 e23f 9db8 5242 aabd d2bf
000004e0: 4594 fedc 0739 bdbf 3afd 3be6 0365 b2bf
000004f0: 584b c0ee a028 ac3f a318 dc3e 76af bf3f
00000500: 6f97 6234 6d98 9f3f 3b2e b7f0 6a69 d1bf
00000510: 2935 8007 cf14 c9bf 513d f3d5 3d87 cc3f
00000520: be49 6c81 312e c03f 15f5 ebfa e60a 93bf
00000530: f2ad 1df1 bc07 b7bf c2ae 0fa6 cb80 d2bf
00000540: da6f 66f1 c628 b93f 4402 c5f8 13de c0bf
00000550: c306 cb37 3f27 babf b136 ba7f 6197 c8bf
00000560: b5c2 5298 10d7 d23f 528c 08e2 e3b5 d73f
00000570: ece7 3730 634c c43f 796d ee19 8090 d3bf
00000580: 4a64 76f2 fe86 bb3f 5ea7 1db2 fcbb bf3f
00000590: faee 5144 1f6d b93f 9276 5996 7e41 a5bf
000005a0: 6068 e350 4d08 b1bf b85d 6491 6f6d d0bf
000005b0: 88ab deb0 c582 b53f d68c a4f5 896f b5bf
000005c0: d173 7843 7da0 adbf 930a 0948 5a35 c6bf
000005d0: d6d3 6135 9909 e53f 700a 7a3b a511 a13f
000005e0: 6d37 a14d 92ae dfbf dcbe de8d 7c3c cabf
000005f0: 71ce 47ba 782b 98bf 3230 20f1 914f c33f
00000600: 2ac3 7d24 0462 c63f d02b f8e5 1c22 c83f
00000610: 434d 0a39 621a cc3f bd6e 49f0 03a1 c7bf
00000620: e6dc ce62 2316 b93f 23ae 7eb3 bfc4 c3bf
00000630: 1c09 2a11 e7c3 a63f fd55 bebf 1c55 c5bf
00000640: cf17 95bd 828d b13f 0dc6 8199 566c bdbf
00000650: 2d22 5d74 5a17 d73f 68b9 f4ed 807b bd3f
00000660: 5a15 36f4 c632 b63f 30fe 0d1a 1b55 d6bf
00000670: ca60 8974 6a10 d0bf 9e61 4860 6baa be3f
00000680: 8112 a1c5 56f6 8b3f fef8 a790 ed9b 933f
00000690: 69bb ccdc 4647 ab3f a993 9ea5 1c21 abbf
000006a0: 3e07 f322 90b2 a0bf 9c6f 6746 c138 ba3f
000006b0: 2016 dbc1 90d9 743f f4d4 1770 baff cabf
000006c0: f2ae 683b c4ae a3bf 08de a4ff 8529 b1bf
000006d0: 8524 fdaa 22e6 b23f 4db9 950a 202b b4bf
000006e0: 3907 6d20 91d5 bebf 9c3c fa95 0ae8 c3bf
000006f0: 115b a944 5952 b5bf 12d0 c45d f10a d1bf
00000700: c21c 112c b277 c23f 7c3f 228c 9cc4 c6bf
00000710: 2875 6474 5681 c53f 6ae5 5031 7836 bbbf
00000720: be29 85f4 f458 ca3f 35be 53cd 64ea a23f
00000730: a724 ee6f e506 d23f adf7 39b6 f046 aa3f
00000740: 0358 78a9 2269 c3bf 8f4e 60d0 42d5 d83f
00000750: 5251 e5af 41ea c03f 6f25 cf27 d938 ae3f
00000760: c529 3a6a 03fe d0bf d683 b9cc 7d81 cdbf
00000770: 1725 2df8 8d52 bfbf aa20 833a 6693 b0bf
00000780: 9a7d 2401 8c20 c43f a426 55c2 8537 a43f
00000790: a9ad 75a5 a2df 87bf fc3a 9421 6d2a c13f
000007a0: 53bf a7ab 15be c9bf f949 5905 a4b6 b2bf
000007b0: 3fb5 b56f be78 a83f 668e 5d5c 4a5d c53f
000007c0: ad5f 2ce6 7697 b73f 14da 8d81 975b aebf
000007d0: f054 bbf8 9baa c3bf 1488 1122 4991 babf
000007e0: 2a22 cbaa b289 c1bf 9cfa 6b0b 1cb1 c43f
000007f0: 6b02 ece8 0901 a6bf 7555 c520 9a4d b73f

hidden_layers.1.bias f8 [64]
0.09780330244338735 0.03549203308482862 0.25827611326326466 0.15695817357482175 0.12997154278105638 0.07517212493920704 -0.010653746496801696 0.09650592304554548
-0.412825109093875 0.04566021909019946 -0.019318490292928963 -0.2285082788440902 0.3163858900000011 -0.13521122035373212 0.2164732365770897 -0.018496018796395182
-0.2625784968854081 0.1177445840400248 -0.0008867263738289604 0.13638077025445464 -0.09680669720798128 -0.056504285024813625 0.4195094312015094 -0.08216005417280837
-0.0829628863878455 0.30499596182757593 0.14411015950543016 0.05182334828204395 0.02001849148659185 0.04443690371133148 0.16291613100770178 -0.1604214978762082
-0.049331165683994746 0.32976446204344684 0.039286055725823034 0.07519256986375705 -0.02977426571397371 0.03948884052793531 0.24820578170007399 -0.05637611205407502
-0.09890253159993324 0.24113438965126432 -0.07003733808211657 -0.007715130620818615 -0.08577263989790172 0.15018229366119604 -0.055005323697598654 -0.3211191217368285
0.2877517741823627 0.06893487685134854 -0.32916788874224073 -0.02868603967448936 -0.07157546000917958 0.08479639933237197 0.33685559873125726 0.008648186595062881
0.00937152807803892 0.3025596431133071 -0.11941225637132438 0.13396561500169804 -0.23969324865107045 -0.011550462090606277 0.2543678874761001 0.1714493755119806
00000000: b365 6f21 a309 b93f f05b bc02 032c a23f
00000010: 0b70 f388 9887 d03f 0700 2c97 3417 c43f
00000020: f0e0 d352 e8a2 c03f d349 2ffa 7a3e b33f
00000030: ece3 44a6 a1d1 85bf 46d5 59b7 9cb4 b83f
00000040: 1fa7 a101 ba6b dabf b0f2 70b7 c660 a73f
00000050: db9c 10f0 39c8 93bf 3014 4060 c23f cdbf
00000060: 9fd0 9d9a aa3f d43f 105b bcec 994e c1bf
00000070: 5368 c71f 65b5 cb3f c2cc 58cf 9ef0 92bf
00000080: d35c 300a 16ce d0bf dca7 bb51 8224 be3f
00000090: 941d 5763 660e 4dbf f9e8 05d2 ec74 c13f
000000a0: 0fc4 8ade 52c8 b8bf 5ee7 8730 21ee acbf
000000b0: 5af0 d715 3ed9 da3f 79b5 b5f9 7008 b5bf
000000c0: 9d4b d143 0e3d b5bf 4489 5dc8 0d85 d33f
000000d0: f06f 0ca3 3372 c23f 12c9 1404 9788 aa3f
000000e0: a02b 0039 ba7f 943f 62f1 5910 6fc0 a63f
000000f0: 859f 558f 6fda c43f 2111 7a0f b188 c4bf
00000100: de97 923e ef41 a9bf 4d04 f766 dc1a d53f
00000110: 25ff 0f49 4d1d a43f 648f 77fc d13f b33f
00000120: 8906 0426 257d 9ebf cdb6 3f9d e137 a43f
00000130: 3f3b 8a01 35c5 cf3f 3384 186b 54dd acbf
00000140: 219c b622 ad51 b9bf f01d bfde 7ddd ce3f
00000150: 1ac4 8f8c f7ed b1bf 6b69 369b e699 7fbf
00000160: 5fc9 401b 32f5 b5bf 0747 db63 2c39 c33f
00000170: 5a2f c664 a829 acbf 07b7 7e37 378d d4bf
00000180: 9fab de6a 866a d23f 455d a151 b7a5 b13f
00000190: 81a4 4231 1611 d5bf 63c7 0389 df5f 9dbf
000001a0: 5082 eff3 c452 b2bf e37a f381 37b5 b53f
000001b0: ae9d 01c9 0a8f d53f db95 c3f4 23b6 813f
000001c0: 1caa de34 6131 833f a0b5 101f 235d d33f
000001d0: 6a3d db37 cd91 bebf d543 9c07 c925 c13f
000001e0: c4a0 03b4 44ae cebf bc75 76c7 c4a7 87bf
000001f0: 8332 773f 9047 d03f a12d 5f9a 0df2 c53f

hidden_layers.2.weight f8 [64, 64]
-0.22154403239271278 0.1331905408782792 -0.28065437714890074 -0.57514573129543 -0.20192468335126687 -0.2663511210324445 0.02247008452525772 0.02518820631027585
0.34090580217969335 0.0024446823592018233 -0.06180677697721867 0.10223504679447457 -0.13692649912167532 0.11341233227534904 -0.4679309479122401 0.29713902483303717
0.32631229168928133 -0.3411535473296166 0.1504899882751248 -0.1297743156434718 -0.007992931410479296 0.23012554741605284 -0.2243454333879427 0.21658270513723457
-0.05764278644305526 0.2903057927457912 -0.07713281588720608 -0.154947529598543 -0.17099499520970027 0.058200340953957874 -0.08119293656938464 -0.1753053487774156
-0.13121636729449537 -0.11858516972488349 0.063051558367942 0.01226710611218312 -0.12255358698468967 0.015854200831527304 -0.26936262585955617 -0.07889094875099205
-0.013810729770736265 -0.7678584876399532 0.12986172859456088 -0.024723839075789966 0.18503311219770235 -0.18312446399383991 0.259282584926071 -0.041752813357620495
-0.21212673728408443 -0.2981225444417551 0.2697423803795232 0.12181406996320941 -0.058000476445623804 0.12235327953697846 -0.10641860920023107 0.02517476954740748
-0.004255732594395371 -0.16026591137594529 0.2987766860146333 -0.26462789506571854 0.09605211512502015 -0.05326143170994004 -0.010403266796549827 -0.2622132749508163
0.7174614785037944 0.07015318797686917 -0.039403543428576854 0.09184679401193652 0.13355794633535178 0.1254264391494797 -0.15150814064792792 0.09066968908422289
0.38422848747540034 -0.12704032746469113 -0.005398385075209488 -0.11683826179983753 0.12827040876107293 -0.26728339742124047 -0.2164726943500022 -0.04787670938439184
-0.16752675257881863 0.11821743227331159 0.04081929191029823 0.012977632416026641 -0.04185508027989849 -0.21184813361838856 -0.7328968363791555 0.2386407432744826
0.030457097796342033 0.11726484558297458 -0.005779258376682925 -0.06913831092900821 0.2873542384646466 0.3797233447502638 0.4765957151273162 -0.198192762255555
-0.03557593828689596 -0.5797755778125728 0.10570362520263181 -0.010262750687707132 -0.11436290949562439 0.14405182453589083 -0.005283806586345811 -0.1703719587505646
-0.15347156392873038 0.1596876236871195 -0.07176923899389352 -0.00641907875423351 -0.41549744696708335 0.11399177521532143 0.01129083613739235 -0.1689783625127762
-0.05318821580430024 0.4081693742708309 -0.391334975510794 -0.07794766346606938 0.026203102506345985 -0.012968957069641969 0.0518220129346145 -0.02059835943988939
0.01192281824210738 0.24435138013142393 -0.2709889108679697 0.07247981098141969 -0.1454890845808014 0.0961762718451701 0.002436619324259636 -0.24640496677609064
0.14812195727191182 0.22234093455021778 0.20095354103631832 0.11064339011029242 0.3044467215904728 -0.002011655821561202 0.07597126132162989 0.14285156089852508
-0.05791816912532415 -0.14657237971390585 0.22976664864868832 0.0071483405978310715 -0.0582075223128684 0.3006341362374468 0.1906524460647391 0.06625106787700506
0.032355192396416314 0.09209981289035084 0.008835365580329253 -0.00828049878294439 0.08098391937317716 -0.4038131841413418 -0.2549754610208572 0.24043569249458427
-0.14926028426029903 0.11166209661882644 -0.11184603063614847 -0.15809362591789453 -0.005641880097285164 -0.02530251119478929 0.16132479295610974 0.14276832630913902
-0.0005862513772975673 0.1092296893375659 -0.08315707561473067 -0.05543138213789861 0.04180715030808546 -0.005782525989316512 0.10313842767483145 0.04224594467391883
0.05918830285199975 -0.14740016809645856 -0.09585750181392722 0.19335732346845108 0.21656340300745536 -0.04462100708366086 -0.15837849755380773 0.055866531140476045
0.051663804128008736 0.016061843962132477 -0.01219190118537433 0.13451136219740292 -0.023872900866052246 -0.021670201596591634 -0.10696161057393909 -0.13309585488894865
-0.009334195537168515 0.11547287313964082 0.1741025548340198 0.025185736301176053 0.07104064796289114 0.01015498616759721 0.06602208117022733 0.01446716198794628
-0.03167961396332696 -0.02931842095666329 0.40478385014034435 -0.15919896017301183 0.3726718072515224 0.23829365961783627 0.07177430066765997 0.6539505200099233
-0.48498841188478525 0.13954571978983957 0.018093646061397958 0.015105329836952407 0.007910634943719274 -0.014851586181702889 0.022248901576191013 0.01838665104168959
-0.2606950572286743 0.07198045682024376 -0.03355836869331421 0.3212674771334891 -0.19028639268673844 -0.10759877384877518 0.5010652745218936 -0.2695286998162339
-0.1562320381110389 -0.005333335957004015 0.29912896169853587 0.32789529982098015 -0.06605966191882263 -0.15754502689749236 0.0698955661969592 -0.03603703069410849
-0.168529491519189 0.4320924338049432 0.09316442902948681 -0.06915389562015906 0.24002570938001125 0.016616772421912444 0.0035579053494359503 -0.021481769263666586
-0.20005224978183025 0.1254578527443359 -0.0016172850655411877 0.08909782877167984 0.06590197866823592 0.6883755974893997 -0.1734954441804706 0.16084039925041563
0.10697049362460895 -0.09443108872379354 0.0812859572249698 0.0907067945308819 -0.016245575857726957 0.10662034577438219 0.31182889111475376 -0.03431683063155057
0.006787579477499335 -0.31077162368917005 -0.05172143283105901 0.3127048411538214 -0.1484012860758949 -0.12868590575339203 0.3948642975694899 0.14728745091511766
00000000: d315 e00a 8e5b ccbf a8b8 9a3c 630c c13f
00000010: a05c d5c6 3df6 d1bf cc21 4b05 9867 e2bf
00000020: 37da 9f03 abd8 c9bf 1c96 8592 e50b d1bf
00000030: 8e85 b2d8 6502 973f 60e0 63e9 efca 993f
00000040: 2c38 d891 66d1 d53f 1d29 05d9 de06 643f
00000050: ab9e 934b 23a5 afbf 8ebf 7c76 132c ba3f
00000060: 9c78 d7b9 ce86 c1bf 0df1 1532 9708 bd3f
00000070: 3e70 84a5 94f2 ddbf 8b7c 8166 5304 d33f
00000080: 50a6 45f3 4ce2 d43f 617c 2cb0 75d5 d5bf
00000090: d32f 0285 4143 c33f c655 c6dc 719c c0bf
000000a0: 3fb4 0e18 995e 80bf 3822 1002 c174 cd3f
000000b0: 993e b4e5 59b7 ccbf fdc8 b869 fbb8 cb3f
000000c0: 9818 3ff5 5a83 adbf 87ae 6bbf 5e94 d23f
000000d0: a616 afe9 f9be b3bf c961 1c16 52d5 c3bf
000000e0: 8f48 1afc 29e3 c5bf 10cf 0662 6fcc ad3f
000000f0: 5051 3b6f 0fc9 b4bf 3e0c e8d9 6770 c6bf
00000100: 7c69 1dab b2cb c0bf c54c c201 995b bebf
00000110: 0bf3 269d 2524 b03f 1e0f 8c1c 7f1f 893f
00000120: e152 1b00 ac5f bfbf d870 4d68 153c 903f
00000130: ee36 35bd 3c3d d1bf 0bff d57c 3232 b4bf
00000140: 3bf9 97c5 cc48 8cbf ecd3 8bf6 4b92 e8bf
00000150: c767 a822 4f9f c03f f35f 0cc1 3451 99bf
00000160: 3c7a c83e 2aaf c73f babc f957 9f70 c7bf
00000170: 2182 abfb 1598 d03f 3121 c6ef 9f60 a5bf
00000180: 8e04 9f0b f826 cbbf 22f8 a494 7014 d3bf
00000190: cdd0 848b 7543 d13f 9744 aff6 342f bf3f
000001a0: d305 f90a 3db2 adbf 656f 2b66 8b52 bf3f
000001b0: 7167 33fe 3f3e bbbf 9cd2 8f2f 6ac7 993f
000001c0: 78e3 0385 756e 71bf 21fc 02e8 9783 c4bf
000001d0: f95d cf3f 281f d33f 43a9 bad6 a9ef d0bf
000001e0: 4c70 2c15 df96 b83f 2327 aa16 1545 abbf
000001f0: d44c 4dd5 4e4e 85bf 7769 1f30 1ac8 d0bf
00000200: 0b09 4ac6 71f5 e63f 861f 1230 8ff5 b13f
00000210: fc97 be84 b32c a4bf 4012 8680 4583 b73f
00000220: 18cd d041 6d18 c13f 28b2 193b f90d c03f
00000230: 278f 9466 9e64 c3bf 0ff0 5af5 2036 b73f
00000240: 397f f914 3397 d83f 06f3 dd81 db42 c0bf
00000250: e67b 96f5 9d1c 76bf cc0e 5ac1 1ce9 bdbf
00000260: aa30 562d 2a6b c03f 2b08 acd2 2b1b d1bf
00000270: e9e9 5a93 60b5 cbbf 1495 17ca 4b83 a8bf
00000280: 67fb c341 8471 c5bf ef53 6e65 7f43 be3f
00000290: 54e9 9927 44e6 a43f 6d64 7356 0494 8a3f
000002a0: 217e f271 076e a5bf ee07 cef2 d61d cbbf
000002b0: 08e4 f210 e473 e7bf 50b3 eda5 c78b ce3f
000002c0: 2f8e dd3b 2530 9f3f 71d6 bfa4 1105 be3f
000002d0: 0a5b 91db fdab 77bf ae3c 5760 0cb3 b1bf
000002e0: 2ca6 2408 0364 d23f 3aba ce24 634d d83f
000002f0: f1ac 7850 8b80 de3f 7683 1864 615e c9bf
00000300: 8df7 ee66 0237 a2bf 222f 3783 858d e2bf
00000310: b35e 508d 640f bb3f 12cd 9014 a304 85bf
00000320: bcbb 283c e346 bdbf b0c7 a749 4a70 c23f
00000330: c4b4 c907 79a4 75bf 029c 7e93 bfce c5bf
00000340: ab4d f8c9 f4a4 c3bf fbf3 a7e0 a470 c43f
00000350: af6b 5606 785f b2bf e73b 1e55 e44a 7abf
00000360: 34e3 929a 8297 dabf ef12 90a2 902e bd3f
00000370: c202 a35f a61f 873f 3cac 5c3e 15a1 c5bf
00000380: 83f9 d25e 7c3b abbf 4a35 6e70 721f da3f
00000390: 7863 66da a10b d9bf eee9 62c9 60f4 b3bf
000003a0: ac22 4671 fcd4 9a3f c497 d1f3 778f 8abf
000003b0: dcbb 8835 6a88 aa3f 5912 9580 bc17 95bf
000003c0: 7974 6893 fd6a 883f 9ace 32f1 e746 cf3f
000003d0: f46b 70df e157 d1bf db13 c971 098e b23f
000003e0: de89 19e6 629f c2bf f9e8 3916 029f b83f
000003f0: e596 ef09 f6f5 633f 0a09 f0ac 328a cfbf
00000400: 15b4 2609 a9f5 c23f 0546 3af1 aa75 cc3f
00000410: c718 627b d8b8 c93f 96d2 0a0e 2053 bc3f
00000420: 7ac0 261a 0e7c d33f 7079 dc7e bf7a 60bf
00000430: eff0 cf42 da72 b33f 9af0 1ebf f548 c23f
00000440: e794 7944 73a7 adbf 8a1e af3c e2c2 c2bf
00000450: 832d d458 fe68 cd3f 67e5 6911 9447 7d3f
00000460: 3f0f 6e59 60cd adbf e1dd ccf5 963d d33f
00000470: 050f 60a2 4c67 c83f 1758 db79 d4f5 b03f
00000480: 2794 651a dc90 a03f 47ef 5474 da93 b73f
00000490: 77ca b9b1 4618 823f 1a0f bdbb 5df5 80bf
000004a0: afae 35b5 5cbb b43f 022a e540 13d8 d9bf
000004b0: a47e 9798 8451 d0bf c715 07c6 98c6 ce3f
000004c0: c8ac be03 f61a c3bf 313f 2e1d e395 bc3f
000004d0: 3509 c503 f1a1 bcbf 43ff 8274 693c c4bf
000004e0: 7bba 17a8 f01b 77bf b669 5ac8 e6e8 99bf
000004f0: 32e6 e372 4aa6 c43f 1f82 3386 3b46 c23f
00000500: 1db6 113f d535 43bf 8d03 7517 7af6 bb3f
00000510: 933e 3238 c849 b5bf f8a0 e88a 8061 acbf
00000520: 80d6 9f2e bf67 a53f 0dba 3200 6baf 77bf
00000530: dc02 d3ad 4767 ba3f eeb5 86ad 42a1 a53f
00000540: c433 1ce2 ed4d ae3f ba18 b33a 02de c2bf
00000550: d4f8 5d03 1e8a b8bf 869a 5eca eebf c83f
00000560: f4b7 b67e 59b8 cb3f ea1e 478c 90d8 a6bf
00000570: 5c0d b121 bf45 c4bf 44ed 60b8 899a ac3f
00000580: 4ec6 3b9a ad73 aa3f b88d 1f1a 8472 903f
00000590: df1e f046 11f8 88bf 4d04 ca16 ab37 c13f
000005a0: 6cdf eb41 2372 98bf 67cf 9e9c b630 96bf
000005b0: c3b1 570b d661 bbbf d697 fdf3 4809 c1bf
000005c0: bc69 8884 ce1d 83bf efbc b555 a18f bd3f
000005d0: b7c1 9415 fe48 c63f 03f9 f426 4aca 993f
000005e0: b2f0 af4b b82f b23f ab6b d92b 23cc 843f
000005f0: c7a2 70b7 d2e6 b03f bc53 d59c f5a0 8d3f
00000600: 0f44 d873 4f38 a0bf 0988 b7ec a505 9ebf
00000610: c64f 9385 fae7 d93f 9409 c0ab a160 c4bf
00000620: 1656 12da dad9 d73f ba8d 7319 6880 ce3f
00000630: 3695 0ff2 cc5f b23f 51a2 14a4 29ed e43f
00000640: fefb fed5 0c0a dfbf 69a6 6557 a2dc c13f
00000650: 5f7b 6508 2487 923f a6f7 280d 8bef 8e3f
00000660: 13af fd72 7333 803f f898 8d27 826a 8ebf
00000670: 2c10 9182 6ac8 963f 25ca a043 f3d3 923f
00000680: 0faa 4152 3aaf d0bf 7e7c feab 4f6d b23f
00000690: 73fc 1600 902e a1bf 03a2 e376 a58f d43f
000006a0: 394f bbf4 4d5b c8bf 232b c5de 978b bbbf
000006b0: 0f73 e70a ba08 e03f f5d2 c24d f53f d1bf
000006c0: 7f1d 2353 69ff c3bf f3fc 3878 68d8 75bf
000006d0: 8606 f2cc ed24 d33f fd90 4f91 3cfc d43f
000006e0: 69b2 8637 49e9 b0bf ab09 1679 6f2a c4bf
000006f0: 358b f302 ade4 b13f c462 8d18 7273 a2bf
00000700: 3643 3ed7 5f92 c5bf 44a4 0206 67a7 db3f
00000710: 5d08 d5bf 9fd9 b73f 685f 14d8 11b4 b1bf
00000720: ad40 fe95 29b9 ce3f 4e00 78b8 fc03 913f
00000730: 7b66 c7e3 7725 6d3f f468 ca21 51ff 95bf
00000740: 81ef 26e7 4f9b c9bf 6e1a 48bf 000f c03f
00000750: a56c bf9d 627f 5abf 990e b884 1dcf b63f
00000760: db2b 1fbb f3de b03f 169b d242 2c07 e63f
00000770: 714b 6145 1935 c6bf adfb 530f 6b96 c43f
00000780: 2e32 c113 6b62 bb3f ad5b cbc5 a22c b8bf
00000790: c1c1 e70f 28cf b43f 3efe 087c 8f38 b73f
000007a0: 90f3 0d24 aea2 90bf 516e 3092 784b bb3f
000007b0: c04a 522a 01f5 d33f 729e 87c2 f991 a1bf
000007c0: a26d fffd 4acd 7b3f 7944 11aa aee3 d3bf
000007d0: 30f8 054d 3b7b aabf 519e 832a 5b03 d43f
000007e0: f5ad 3037 d0fe c2bf d95e 559e c778 c0bf
000007f0: 6dd0 1ae7 7445 d93f 5154 65b0 50da c23f

hidden_layers.2.bias f8 [64]
-0.15946493709958345 0.03456916208477996 -0.11604790366787628 0.24224260977284562 0.07453635658645742 -0.01910583559621207 -0.05061230495164794 -0.1981567520645488
0.04641766863508255 0.12662355249806395 0.009636404962665261 0.012319444525790063 0.021231142232554942 0.011771543126076901 -0.09389152128896454 -0.07018547098355
-0.02333484889073054 0.38660922508627765 -0.015450542160035621 -0.0735614726742537 -0.009988418506533142 -0.05468822029571265 -0.010632271616730611 0.01826336235070962
0.12117165850475897 0.12182309332225895 -0.24445815971523796 0.1004230886204831 -0.020413993489380618 0.20497134997347333 -0.3430786154287599 -0.051125498252372836
0.08206231204069754 0.06355690211992987 0.19559592905885134 0.12721369967206062 0.12854438986392672 -0.012891039969100956 -0.18309548302096032 -0.32552623307855966
-0.008902204184388546 0.014874248220602402 0.01230162220931155 0.006274123557787343 0.04235638745585617 0.017601105194720395 0.06535823461803308 0.11611652790542643
0.06771811244577758 0.07149700340284382 0.00599734508615172 0.025504964916329607 0.03720620934358176 0.09322722558385432 -0.017559213445187582 -0.05233384457602583
-0.1233324059832833 -0.0474885964336531 -0.0011925844029943421 -0.2178809403432071 0.03772228261288153 0.024861619869762763 -0.06210170803911615 -0.1576906587183319
00000000: bdc7 d9d8 5869 c4bf aa60 3599 0cb3 a13f
00000010: eddb 05bf 50b5 bdbf 2006 564b ce01 cf3f
00000020: 41de e68d d014 b33f a9a5 31ec 7a90 93bf
00000030: 72c3 1525 dbe9 a9bf 0ea6 cc50 335d c9bf
00000040: 9e0d 7d81 0ec4 a73f 8af6 7058 3335 c03f
00000050: 3c45 5361 40bc 833f d0c7 beda ef3a 893f
00000060: 1ca4 2ed6 9dbd 953f d4e7 ffc5 ad1b 883f
00000070: 5bcb 4e55 4609 b8bf 2959 87ce acf7 b1bf
00000080: 3904 5f33 17e5 97bf 31f5 849e 34be d83f
00000090: 4838 43aa 88a4 8fbf 1eab 61b7 ecd4 b2bf
000000a0: 9d35 98d6 ce74 84bf e305 4b2b 1800 acbf
000000b0: f124 0257 5fc6 85bf 0c91 0b80 a1b3 923f
000000c0: 98e2 7a16 1b05 bf3f e976 b759 cc2f bf3f
000000d0: 37d0 9bac 674a cfbf a066 63d9 53b5 b93f
000000e0: 92ab abe9 67e7 94bf 9063 604e 803c ca3f
000000f0: 934d 4e02 00f5 d5bf a8a6 f80d 1f2d aabf
00000100: eded 7222 0902 b53f b448 0ae0 4345 b03f
00000110: a7ed 4493 4909 c93f d3ea d8db 8948 c03f
00000120: 2161 467f 2474 c03f 9e36 a118 9e66 8abf
00000130: 8f67 cf3b ac6f c7bf caff 43fb 6bd5 d4bf
00000140: 2a92 ac9e 513b 82bf 9fd4 47cd 6376 8e3f
00000150: 0f2a 9dc8 9731 893f 873f de37 e5b2 793f
00000160: 4699 cc85 bcaf a53f eb36 bd2c 0606 923f
00000170: 7470 3538 51bb b03f 24fe e011 d0b9 bd3f
00000180: d42c 4d66 f955 b13f 2891 60ab a04d b23f
00000190: 2925 2010 ac90 783f e617 ce38 f91d 9a3f
000001a0: ef78 ad38 b10c a33f 78be fa4c bddd b73f
000001b0: 7356 f6dd 0afb 91bf ec1f db6d 80cb aabf
000001c0: d635 3c6a b692 bfbf 7f20 3be1 6c50 a8bf
000001d0: bd94 8cc0 0f8a 53bf 0610 99cc 85e3 cbbf
000001e0: 3a3b 4ec4 5550 a33f a09a 1011 5375 993f
000001f0: 5b84 1b8a cbcb afbf 3d3b 0a1f 352f c4bf

hidden_layers.3.weight f8 [64, 64]
-0.007994087210762082 0.02801453948274941 -0.01955154375875347 -0.08480516146811037 -0.008921818514843966 -0.00770670384835809 -0.17926357818959232 -0.019090068523324042
-0.06803301653809576 -0.023513078984336275 0.012762349718659692 0.046663258550559 -0.06309597437395843 0.007690574280749272 -0.06928920386699544 -0.12674292761092085
0.059594257524068994 -0.05136089276830467 0.09998303786036755 -0.18721350127389805 -0.050157640863318635 -0.007584638481681817 0.028107719227486505 0.09207242459683772
0.029709186747971267 0.061293606881759284 0.0076814611009495565 0.002259971838008419 0.017364060024041228 0.043970680344216556 0.06521951719201938 -0.010566226912490831
0.008994960866382408 0.06922010455345368 0.027364646764821282 -0.11246668011034737 0.12003404031435636 0.021322070220991456 0.04988526541627469 0.04024761732552414
-0.16302813277417777 0.06986084510579074 0.006605935048591298 0.04320414541471044 -0.02732704648169128 -0.031201017357095594 0.05037232650232422 -0.04725458178825751
-0.006884778313614855 -0.01692090778749122 -0.05859924528146035 -0.1110422333078067 0.051154464912268854 0.02569558966478801 -0.05059995027846652 -0.006845221851028233
0.061847740518774556 -0.1070913304676519 0.05579573196822085 0.01002081674457402 0.03401030163425198 0.02087933119870674 -0.07840876698872502 0.007124220272588231
0.8410692086137442 0.29952527886624986 0.08206152111316257 -0.06607620275145158 -0.1779951804872319 -0.03842614351561696 0.1205119803268684 -0.0830520298638855
-0.13519426427528672 -0.27375766826469317 0.04755169479809598 -0.08170717736417965 0.04076686297360241 0.1729503740466962 -0.08733723949584957 0.21679974803073956
-0.04105398907569196 0.11978751510502744 -0.2038922629753607 0.18644887049390502 -0.03001347524448112 0.17842396886052758 0.040155643245620466 -0.21053569804000233
-0.23909685682663323 -0.028629820489620816 -0.04253107770944989 0.026494718452764895 -0.07898395733304847 -0.014678145592099534 0.020455009085612905 -0.10348744255954219
0.06972289847121087 0.06962465252054116 0.008826941241199033 0.02906828721325185 0.11257501907954856 0.1722828953765416 0.5690555032838933 0.05656063309799284
-0.12180496831276032 0.10231833968332892 0.08737806997715744 -0.025218221249749272 0.013641532746376755 0.03205902917178812 -0.06115770223117523 -0.4792927562508754
-0.15818754484743597 0.06692684357086383 -0.19378279174055812 -0.12174754500293856 -0.007668279651030892 -0.18393975909287702 -0.11842413185941204 -0.00695633731076194
0.12918237812512537 0.2032911321647948 0.09521573873415078 0.06376376186221056 -0.09931641230210946 -0.2943529330273835 0.3037420695834897 0.09864794328165834
-0.10838273238457602 -0.08971388507631292 0.09612752396692031 0.08171208333231719 -0.07988751045969919 0.008340883076803862 -0.10740686569209565 -0.009812000430995975
0.08163878912189769 0.03173497592622044 -0.11945084733817994 0.07209312499164151 -0.10651851173581264 0.018103951727664984 0.05649187363509661 -0.026627332038903155
0.08710167175972627 -0.03127232082360111 -0.007126951980862496 0.03938127271646805 -0.043593987561515675 0.0845754594643192 0.05306894179360021 0.015125622301349877
-0.05090168379290935 -0.05795095107116345 0.028854943998788993 0.03197020045557117 0.06129267382511611 -0.01683358083019287 0.0404253905937437 0.02696146223818817
0.0583862645742939 0.05107043513075815 -0.061637318375122895 0.2854932837411124 -0.047086630974068476 -0.10935440382086109 0.1936013255832169 0.01959635458205267
-0.07694752767894271 -0.18422399164446862 0.19330299456889816 -0.05505841352386677 0.08864720272417687 -0.29490699679047144 -0.1901983985608708 -0.26522725426139476
-0.09327005443577216 -0.023245459521429892 -0.0741620513707084 0.10339734545588394 0.05959638091891887 0.22981989440049133 -0.09025424709972615 0.021920272579467364
-0.07345041829738877 -0.027307738522895576 0.11981736293841297 0.009373729614089084 0.00971577286550204 0.18577130338781644 -0.08092225313587324 -0.0849008994140462
0.0703524284954991 0.063091465692144 -0.0434946389318093 0.04552301028448392 0.26809525215249397 0.02659476722200158 0.13461689493298684 0.1659822725168973
-0.1948496071675614 -0.37000627846908557 0.08708560280914449 0.0036146340619740364 -0.09171896833893728 0.20408204506830147 -0.007194854365356461 0.09808410520860927
-0.01758022924094835 0.05802650701423844 0.13862150153090905 0.13535652550947 -0.166395573397232 0.17678123404936338 -0.168220423846712 0.17390037584143347
0.1358427160075846 -0.2138346340438028 0.3541557196146939 -0.17342170898995676 0.0429633875121045 -0.11654011213790223 0.3312869411708729 -0.13008841486363082
-0.14552527348943792 -0.19695772680043996 -0.19532294543921044 -0.09172075621258334 -0.10372836061028552 0.2631517345755337 0.0405685994186843 -0.09665888841752172
-0.13983696128093964 -0.03469451023648358 0.08688736291770364 0.0037458941030872298 -0.0033519670761195004 0.1694529152323133 -0.19995346128520078 -0.3219851287701086
-0.12091179437517643 -0.1633606303732569 -0.003572592088572841 0.01479890790231057 0.028521969975508175 -0.22423975286828202 0.021905206672120536 -0.06614517404138184
0.13314080869173833 0.3172436739139355 0.027280929976748493 -0.049232180139661456 -0.028985861555593264 0.25486780476360277 0.10028625467476156 0.32585666305838573
00000000: ae81 0d39 345f 80bf 934a 90eb d7af 9c3f
00000010: 05e2 1ee4 5105 94bf ca9b 0983 cab5 b5bf
00000020: 3dd3 ef35 9a45 82bf 4388 d18f 1091 7fbf
00000030: 2e18 d8e2 1bf2 c6bf d9bd f1cf 588c 93bf
00000040: 2e50 149d 9c6a b1bf 795f 1005 d013 98bf
00000050: df47 4b95 2523 8a3f d483 cc22 3fe4 a73f
00000060: 1906 72ca 0e27 b0bf 8b57 5fd0 2680 7f3f
00000070: 701a 93f0 efbc b1bf 274a 8bbc 1c39 c0bf
00000080: 50c8 3076 2383 ae3f 1d6a 7795 f94b aabf
00000090: 98d7 c305 7d98 b93f 69a7 abac 9cf6 c7bf
000000a0: 1f10 4e26 43ae a9bf 2862 b1e3 1111 7fbf
000000b0: b089 631b 45c8 9c3f 87c0 81f4 0e92 b73f
000000c0: f8a6 e4c5 156c 9e3f 99a6 052a e061 af3f
000000d0: 62d9 6c83 9876 7f3f 10c5 4a24 8183 623f
000000e0: c055 b757 e2c7 913f 1c60 1f34 5383 a63f
000000f0: e28f 66ed 39b2 b03f e806 40f8 bea3 85bf
00000100: 01d2 ff35 f36b 823f 8c64 48a5 68b8 b13f
00000110: 989d af5b 7a05 9c3f d3b0 f6c8 9dca bcbf
00000120: 6691 8e05 8dba be3f 2bf2 20e9 73d5 953f
00000130: a0c5 07bf 8f8a a93f 9b62 4ff0 559b a43f
00000140: b6e8 4b19 1bde c4bf 3213 007d 66e2 b13f
00000150: 7825 e42f d30e 7b3f d532 378f da1e a63f
00000160: 4594 bd0b 9ffb 9bbf 0645 9ad4 28f3 9fbf
00000170: 8ade e6cd 66ca a93f 25c3 bba6 c031 a8bf
00000180: 55ac 279b 3633 7cbf ff7c 43e6 b653 91bf
00000190: 24ba 1b64 b800 aebf 1f26 8888 436d bcbf
000001a0: e465 af03 eb30 aa3f 1dfb 0bd5 f14f 9a3f
000001b0: 6e1f 4097 3ce8 a9bf 2197 be3f bc09 7cbf
000001c0: 8721 b8cd 81aa af3f 7c2f 0b62 566a bbbf
000001d0: f0a9 1e18 4291 ac3f cbc5 9341 cb85 843f
000001e0: ec0e 7e5a cc69 a13f 36a8 a432 6461 953f
000001f0: a1ae efd1 9812 b4bf b1c5 4851 492e 7d3f
00000200: 7165 15f9 09ea ea3f 9b92 4313 6c2b d33f
00000210: 71e8 70dd fb01 b53f 6b81 dcb9 5eea b0bf
00000220: 4ee6 84cb 8bc8 c6bf 3805 6c6b 97ac a3bf
00000230: 51b4 4786 dfd9 be3f e1bd 21d8 e542 b5bf
00000240: 4da6 d5af 0b4e c1bf 0078 0ee2 3e85 d1bf
00000250: 93ec 0d1c b258 a83f e8ab a0f6 c2ea b4bf
00000260: 7cda 76ee 64df a43f 8746 2ee4 3c23 c63f
00000270: 3e8b 5bbb bb5b b6bf 415a c919 18c0 cb3f
00000280: d79f e648 0705 a5bf f45e d803 65aa be3f
00000290: 4d7c b144 2419 cabf 04e0 927c 8edd c73f
000002a0: b218 753a dabb 9ebf e80b 8abb 98d6 c63f
000002b0: ddc4 facc 478f a43f ae75 dc70 d5f2 cabf
000002c0: d2c9 52ce b99a cebf 20e9 c5ba 2251 9dbf
000002d0: 04c5 a627 a2c6 a5bf 8cdd 1575 6e21 9b3f
000002e0: 4473 a7e9 4a38 b4bf ad9e 455a 930f 8ebf
000002f0: 9994 3f6c 28f2 943f 7d04 572d 277e babf
00000300: 8357 b720 5cd9 b13f d732 92d5 ebd2 b13f
00000310: 9d26 a3ff db13 823f e502 babb 13c4 9d3f
00000320: 9611 4b69 b7d1 bc3f 37b6 a6ac 5d0d c63f
00000330: 10d2 06e3 b335 e23f fd3a cbea 83f5 ac3f
00000340: 67c4 6443 9c2e bfbf ff8d b8e2 8831 ba3f
00000350: 7682 f0c0 685e b63f 63b5 1f2e ced2 99bf
00000360: 63a0 1a88 17f0 8b3f 9b2e ab83 0a6a a03f
00000370: 917a f6f5 0f50 afbf 52a9 5386 bbac debf
00000380: f28b e04d 7d3f c4bf 9d82 5c1c 1e22 b13f
00000390: c0d1 86e0 dfcd c8bf ade9 27dc d82a bfbf
000003a0: 7b8b 1525 c668 7fbf 9e77 de88 568b c7bf
000003b0: a9b3 643d 0b51 bebf f4a2 fe93 3f7e 7cbf
000003c0: 692a a254 0c89 c03f 4178 1b9e 7105 ca3f
000003d0: ff7a ed03 0f60 b83f 883d de67 d252 b03f
000003e0: 2b2a cbe6 cc6c b9bf 0465 35af add6 d2bf
000003f0: cef2 d193 8270 d33f e55e 36da fd40 b93f
00000400: ccf9 0a83 f8be bbbf a65d 663a 7df7 b6bf
00000410: ecf1 ae3b d09b b83f 2aaf 9945 15eb b43f
00000420: 1e84 c804 8273 b4bf 60ed 4660 0615 813f
00000430: 2e6f 832f 047f bbbf 4ffc ac67 5018 84bf
00000440: 4f14 5d99 47e6 b43f 4124 7c17 913f a03f
00000450: 5306 ccaa 5494 bebf b504 1bee b174 b23f
00000460: 9aeb 5214 cc44 bbbf 5e0d 65a2 d789 923f
00000470: 4848 81bb 80ec ac3f aeb4 2501 3244 9bbf
00000480: 288c a28f 4b4c b63f 922e 6af6 ec02 a0bf
00000490: c1f3 d89a 2631 7dbf adbf c83c c829 a43f
000004a0: 8104 c27d f351 a6bf 4784 71c0 bca6 b53f
000004b0: 8ea9 df32 da2b ab3f 1675 eda8 2efa 8e3f
000004c0: ac5c 6716 c90f aabf 32d8 3e3f bfab adbf
000004d0: a9f9 3583 268c 9d3f cc75 ceea 655e a03f
000004e0: c964 20db c061 af3f ef9d 8f7c d23c 91bf
000004f0: 5c6a 0e05 a3b2 a43f fcec 421a c99b 9b3f
00000500: 26af c3f1 cde4 ad3f 70b2 5b71 e725 aa3f
00000510: 03c2 4435 ed8e afbf 9453 399f 8545 d23f
00000520: 5b92 3928 bd1b a8bf 8c8c 1574 a6fe bbbf
00000530: 0ecc eba0 edc7 c83f 21f4 3318 1111 943f
00000540: f59c e34a d5b2 b3bf 7233 a0d9 a694 c7bf
00000550: 5636 f20b 27be c83f 22c8 e8ca 9d30 acbf
00000560: 7c0c 9544 95b1 b63f dde7 a498 c1df d2bf
00000570: 9706 c9ce 6b58 c8bf 55e0 c3bb 7bf9 d0bf
00000580: 966e 7fd9 8be0 b7bf e73b b361 a8cd 97bf
00000590: 9fd0 3dc1 48fc b2bf 96ea 3999 3f78 ba3f
000005a0: 2570 03b6 6a83 ae3f dccb 3501 bd6a cd3f
000005b0: 3651 9eff e61a b7bf 3b93 6497 4472 963f
000005c0: 72fd 7688 a5cd b2bf ddc2 884f 8ff6 9bbf
000005d0: 023e 50c7 59ac be3f b18d 12b1 8832 833f
000005e0: af99 b3f5 dce5 833f ec00 4ba4 5ac7 c73f
000005f0: bbb9 bc1e 52b7 b4bf 6762 62ba 10bc b5bf
00000600: b314 95e3 9d02 b23f 62f1 cd25 c326 b03f
00000610: d4e2 86e7 ed44 a6bf 2150 c6c0 ca4e a73f
00000620: 2c4d 0dfd 7828 d13f d958 da9d a83b 9b3f
00000630: a6f5 9c5c 203b c13f b681 1638 e83e c53f
00000640: e828 36f9 d4f0 c8bf 97b8 55d0 2eae d7bf
00000650: 6289 04f8 3d4b b63f f275 a9e2 6f9c 6d3f
00000660: c447 70f1 e47a b7bf 9a73 a246 5c1f ca3f
00000670: 58d4 2d03 5a78 7dbf d4de 2038 0a1c b93f
00000680: b98f 9536 8d00 92bf f7c2 da7b a6b5 ad3f
00000690: 6580 cc6f 59be c13f b182 2ed5 5c53 c13f
000006a0: 105b f83c 734c c5bf cbee 6479 c4a0 c63f
000006b0: f96e 7831 3f88 c5bf e822 8015 5e42 c63f
000006c0: 9181 534b 4b63 c13f 8531 fceb ee5e cbbf
000006d0: e5ee 5bc0 7caa d63f 1f9f 43bc ae32 c6bf
000006e0: 0269 9410 4cff a53f 45f1 4da2 92d5 bdbf
000006f0: faed 7a24 ce33 d53f 52c1 b6b7 bca6 c0bf
00000700: b175 3079 92a0 c2bf cbb4 a629 e935 c9bf
00000710: 3fef 689f 5700 c9bf a724 4cf0 027b b7bf
00000720: a526 7d1c f18d babf 45ce 785f 7ad7 d03f
00000730: 31dc 7e4f 68c5 a43f d3f7 9e0c a3be b8bf
00000740: b2a0 bc73 2de6 c1bf aa03 a295 7ac3 a1bf
00000750: f3ce 2a0e 403e b63f f961 5895 b5af 6e3f
00000760: e8b3 039f 9575 6bbf 133c 9114 a2b0 c53f
00000770: 7991 7834 1398 c9bf f96b 7783 679b d4bf
00000780: 6ac4 8a4a 13f4 bebf 491b 744a 00e9 c4bf
00000790: dcf6 d5c5 4444 6dbf 16d0 a7cb e34e 8e3f
000007a0: c698 0c01 dd34 9d3f 7825 8462 e3b3 ccbf
000007b0: f054 1389 516e 963f 3ec4 4bdf e3ee b0bf
000007c0: 7a08 8c0d c20a c13f fcaf 1469 b84d d43f
000007d0: 47e9 3738 88ef 9b3f 0fa4 38d7 f534 a9bf
000007e0: a7eb b53d 78ae 9dbf c7d4 900d c14f d03f
000007f0: 6d01 1128 5cac b93f cd3e c1e7 d5da d43f
