BurgersEquation/Output/2_Train/Data/PINN_state.pt (torch, 292725 bytes, 41 tensors)

hidden_layers.0.weight f4 [60, 2]
0	0xbe188d40	-0.14897633
1	0x3e43d3df	0.19123791
2	0xbf5959e9	-0.84902817
3	0xbf3463a7	-0.7046456
4	0x3e884c50	0.26620722
5	0xbebcef68	-0.36901402
6	0xbe011a80	-0.12607765
7	0x3e23e12c	0.16003865
8	0x3eeb9d92	0.46018654
9	0x3d9ec5cf	0.07752573
10	0x3f59786f	0.8494939
11	0xbf0956d0	-0.5364809
12	0xbe90a726	-0.28252524
13	0x3e209625	0.15682276
14	0x3f4f97a9	0.8109079
15	0xbef563b5	-0.47927633
16	0x3f221338	0.63310575
17	0xbf1ad78d	-0.60485154
18	0xbe99eb31	-0.3006225
19	0x3e87bb26	0.2650997
20	0x3f0d528c	0.5520408
21	0x3d7d5465	0.061848063
22	0xbf42d931	-0.7611266
23	0xbed58546	-0.41703242
24	0xbf34ef70	-0.7067785
25	0xbd7bb92a	-0.061455883
26	0x3e82a32d	0.25515118
27	0xbf17b60c	-0.59262156
28	0x3f4c1d4c	0.79732203
29	0x3f349685	0.70542175
30	0xbf24a178	-0.6430888
31	0x3dfbe4d9	0.122995086
32	0xbecf72c8	-0.4051726
33	0xbef2ddc4	-0.4743482
34	0xbe5d1fcf	-0.21594165
35	0xbf211c8d	-0.6293419
36	0xbe279339	-0.16364755
37	0x3f0b78f6	0.54481447
38	0xbe225109	-0.15851225
39	0x3dae6460	0.08515239
40	0x3d8d2142	0.06891109
41	0x3efaf29e	0.49013227
42	0x3eaf33fa	0.34219342
43	0xbef35b7c	-0.47530735
44	0xbee69f8d	-0.45043603
45	0xbec5fe7c	-0.3867072
46	0x3e23eba1	0.16007854
47	0x3f38b055	0.7214406
48	0x3f037c24	0.513613
49	0x3f2a2681	0.66465
50	0x3ef4ef86	0.47838992
51	0x3dc404cb	0.09571227
52	0xbeceef46	-0.40416926
53	0xbe57e16b	-0.21082084
54	0x3f4fafde	0.8112773
55	0x3ef42e9a	0.47691804
56	0xbe7ed8a2	-0.24887326
57	0xbee12c7e	-0.43979257
58	0x3ee38cfc	0.444435
59	0x3e52a8d0	0.2057221
60	0x3f065a90	0.5248194
61	0xbe9007f0	-0.28131056
62	0x3f10e9c7	0.56606716
63	0x3e94f234	0.29091036
64	0xbea27377	-0.31728718
65	0x3ea7a132	0.3274017
66	0x3ebc2fbe	0.36755174
67	0x3f1634fe	0.5867461
68	0x3ee458e0	0.44599056
69	0xbcdaeec7	-0.026725186
70	0xbf57ae02	-0.8424989
71	0x3f1aaad4	0.60416913
72	0xbdeaa23d	-0.11456726
73	0x3f2d8785	0.6778491
74	0xbd2d1942	-0.042260416
75	0xbf091bf5	-0.53558284
76	0xbe2d3630	-0.16915202
77	0xbe929c6c	-0.28634965
78	0xbf350825	-0.7071555
79	0xbf22f3df	-0.6365337
80	0xbf557a6f	-0.83389944
81	0xbeacffb9	-0.3378885
82	0xbf42ff58	-0.76170874
83	0x3f2c3d23	0.6728079
84	0xbe8db2ef	-0.27675578
85	0xbe295aa0	-0.16538477
86	0x3ed56adf	0.416831
87	0x3e8f4b9d	0.27987376
88	0x3f539301	0.82646185
89	0xbecb4364	-0.39699852
90	0x3c977219	0.018487023
91	0x3e18acde	0.14909694
92	0xbf4c7e54	-0.7988026
93	0xbe006e61	-0.12542106
94	0x3f2a209e	0.6645602
95	0xbe2078f4	-0.1567114
96	0x3f02a4eb	0.51032895
97	0xbf364c7a	-0.71210444
98	0xbf022d11	-0.50850016
99	0xbe4a0c44	-0.19731241
100	0x3f3c7d9d	0.7362917
101	0xbf0e4bd4	-0.55584455
102	0xbe6c1f81	-0.23058893
103	0xbd0cef7b	-0.034408074
104	0xbed14ffa	-0.4088133
105	0x3f1c7280	0.61112213
106	0x3f377de5	0.71676475
107	0x3f27d069	0.65552384
108	0x3ecd638c	0.4011501
109	0x3e5dcad9	0.21659411
110	0x3eedc151	0.4643655
111	0x3edb9eda	0.42894632
112	0xbf13e82b	-0.57776135
113	0x3ef1fb19	0.47261885
114	0xbf2077fc	-0.6268308
115	0x3ea7bcbb	0.32761177
116	0x3f21f2ee	0.63261306
117	0x3e18d035	0.14923175
118	0x3f2e1382	0.67998517
119	0x3f1620df	0.5864391

hidden_layers.0.bias f4 [60]
0	0x3f0cbed2	0.5497867
1	0x3eb04641	0.344286
2	0xbee55216	-0.4478919
3	0x3f14e97a	0.58168757
4	0xbe0b43fe	-0.13600156
5	0x3e9949b2	0.29939038
6	0xbc133622	-0.008985074
7	0x3eb3e66e	0.3513674
8	0x3eb2265c	0.3479489
9	0xbe74bed3	-0.23900919
10	0x3e89856d	0.26859608
11	0xbe2e375a	-0.17013302
12	0xbec8de19	-0.39231947
13	0x3e5cbe79	0.21557035
14	0x3f10d682	0.5657731
15	0x3e806990	0.25080538
16	0xbeb1fb5f	-0.34762093
17	0x3ec5d692	0.38640267
18	0x3e5dadf5	0.2164839
19	0x3ddfc924	0.109270364
20	0xbf2dd956	-0.67909753
21	0x3c7c4213	0.015396613
22	0x3f0c6b95	0.5485166
23	0x3f02221a	0.50833285
24	0x3dae01c5	0.08496431
25	0x3e21b0ec	0.15790147
26	0xbc275493	-0.010213035
27	0xbd82afa1	-0.06381155
28	0x3d3ee984	0.046609417
29	0xbee11000	-0.4395752
30	0x3d646007	0.05575564
31	0xbe44c5b7	-0.19216047
32	0xbe509471	-0.20369126
33	0xbde97fa6	-0.114013
34	0x3ee03df2	0.4379726
35	0x3e252430	0.16127086
36	0x3e0d1f3b	0.13781445
37	0xbeb43b9e	-0.35201734
38	0x3ec250dc	0.37952316
39	0xbe529ac9	-0.20566858
40	0xbd17d707	-0.0370703
41	0xbe92b51f	-0.2865381
42	0xbeaabdd9	-0.33347967
43	0xbe84c05b	-0.25928006
44	0x3e3bf57f	0.18355368
45	0x3d0a7c82	0.033810146
46	0x3ef64a72	0.48103672
47	0x3dac520b	0.08414086
48	0xbef85dce	-0.48509067
49	0xbd4eb2ec	-0.050463602
50	0x3ef0d5a0	0.47037983
51	0x3db0f911	0.08641256
52	0xbdc423cc	-0.0957714
53	0x3ee3e05e	0.44507116
54	0x3f058cb7	0.5216784
55	0xbd95c4a6	-0.07312898
56	0x3dbb25e8	0.091380894
57	0x3f11556a	0.56770957
58	0xbefd02d2	-0.49416214
59	0xbe7ae369	-0.24500813

hidden_layers.1.weight f4 [60, 60]
0	0x3d04f724	0.032462254
1	0x3e1b4d27	0.1516615
2	0x3cda139c	0.026620679
3	0x3e2c0220	0.16797686
4	0xbc51ecbe	-0.012812791
5	0xbcbcca70	-0.023045748
6	0x3d8ebf2c	0.06970057
7	0x3dc1cae8	0.094625294
8	0x3db11bd8	0.08647889
9	0xbe3575a6	-0.1772066
10	0x3e491649	0.19637407
11	0xbd57f306	-0.052722
12	0xbe3e596c	-0.18588799
13	0x3e50d5ae	0.20394012
14	0x3e5c1666	0.2149292
15	0x3de1698c	0.110064596
16	0xbe082b69	-0.1329781
17	0x3e145e63	0.1448913
18	0x3cfe6a9f	0.0310567
19	0x3e3ce80a	0.18447891
20	0xbbd345d6	-0.006447534
21	0x3a50d48e	0.00079662434
22	0x3d95a195	0.0730621
23	0x3c4272de	0.011868207
24	0xbd65c97a	-0.056100346
25	0x3d32b3fe	0.043628685
26	0xbddc189c	-0.10746881
27	0xbbbb2a63	-0.00571184
28	0x3e3d7e15	0.18505128
29	0xbe5117b5	-0.204192
30	0x3c502b0f	0.0127055785
31	0xbe11555c	-0.14192718
32	0xbd932f5a	-0.07186766
33	0xbd3b5cc7	-0.045742776
34	0x3d727d99	0.05920181
35	0xbda60478	-0.08106321
36	0x3dd530b1	0.10409678
37	0xbb87bd61	-0.004142449
38	0xba33759c	-0.0006845833
39	0xbd80dede	-0.062925085
40	0x3df72695	0.12067906
41	0x3cc56a73	0.02409861
42	0x3cd07aba	0.025449146
43	0xbd30ba9c	-0.043146715
44	0xbcec3e42	-0.02883828
45	0x3e209e15	0.15685304
46	0x3d8db01c	0.06918356
47	0xbd3216f3	-0.043478917
48	0xbcce9389	-0.025216835
49	0xbda3dba4	-0.080008775
50	0x3dd62bf5	0.10457603
51	0x3e1ded90	0.15422654
52	0xbde30e91	-0.11086763
53	0xbc1a591c	-0.009420659
54	0x3cf7fd90	0.030272275
55	0xbdca4fc3	-0.098784946
56	0xbd5cc4c8	-0.053898603
57	0xbc700a78	-0.014650933
58	0xbd306803	-0.043067943
59	0xbe1055f1	-0.14095284
60	0x3d23c8f5	0.03998657
61	0xbcca82c7	-0.024720563
62	0xbe08a669	-0.1334473
63	0xbccbd53a	-0.024881948
64	0xbce0fe9d	-0.02746516
65	0xbe02ca05	-0.12772377
66	0x3e281e14	0.16417724
67	0xbaef57f7	-0.0018260468
68	0xbdc03a90	-0.0938617
69	0x3debba6a	0.11510165
70	0x3c788489	0.015168318
71	0x3e302395	0.17201073
72	0x3dbc18ae	0.09184395
73	0x3c1fe58f	0.009759321
74	0xbdd7ff00	-0.10546684
75	0x3da770e9	0.08175833
76	0xbdbded2f	-0.09273755
77	0xbd3b8b54	-0.04578717
78	0x3d08ae39	0.033369277
79	0xbdad40f3	-0.08459654
80	0x3b61c807	0.00344515
81	0xbe4d958a	-0.20076576
82	0x3d850f59	0.06497068
83	0x3c4b6321	0.012413771
84	0x3bc5dd4d	0.006038344
85	0xbced1a0f	-0.02894309
86	0x3e6f5d19	0.23375358
87	0xbd8b1cd7	-0.0679261
88	0x3d525850	0.051353753
89	0xbdf752dc	-0.12076351
90	0xbd4d7718	-0.050162405
91	0xbddb27fc	-0.10700986
92	0xbd64bc9d	-0.05584394
93	0xbe092141	-0.13391592
94	0x3ce762a2	0.028245274
95	0x3e4176f0	0.18893027
96	0x3ce98920	0.02850777
97	0xbda89c4a	-0.08232935
98	0xbde688cf	-0.11256563
99	0x3e11b5db	0.14229529
100	0x3e0cf330	0.13764644
101	0xbd866d2a	-0.0656379
102	0xbd461a54	-0.048364952
103	0xbe132bc7	-0.14372168
104	0xbe1db0c5	-0.15399463
105	0x3de93a7f	0.1138811
106	0x3e1d0857	0.15335213
107	0x3c494e67	0.012286759
108	0xbd55499c	-0.052072152
109	0x3e02e6fe	0.12783429
110	0x3d8d64ea	0.069040135
111	0x3ce27be6	0.02764697
112	0xbd85c9e8	-0.06532651
113	0x3d5c2dab	0.05375449
114	0xbcbf9336	-0.023385625
115	0x3aa5f259	0.0012660726
116	0x3df225ee	0.11823641
117	0xbc09e396	-0.008416077
118	0xbb94cc7d	-0.0045409785
119	0x3d0ada78	0.033899754
120	0x3d5437e6	0.05181112
121	0xbe2f7284	-0.17133528
122	0x3d916daa	0.07100995
123	0xbd2c29d4	-0.042032078
124	0xbd6745ee	-0.056463175
125	0x3c4359ba	0.011923248
126	0xbe5eb9d1	-0.21750571
127	0x3e0883f8	0.13331592
128	0xbdabcc26	-0.083885476
129	0xbd65a5b6	-0.056066237
130	0xbce4f2b9	-0.02794777
131	0x3c18f213	0.009335059
132	0xbdbd4984	-0.092425376
133	0x3e135a61	0.14389946
134	0x3ce1eb80	0.027578115
135	0xbdb73141	-0.08944941
136	0xbe1aac79	-0.15104856
137	0x3c5e2ff4	0.013561238
138	0x3cbc1269	0.022957997
139	0x3d513f2b	0.051085632
140	0xbdc050bf	-0.09390401
141	0x3d8f704d	0.070038415
142	0x3c24f165	0.010067319
143	0x3d936330	0.07196653
144	0xbd544bec	-0.051830217
145	0x3c8a7ee2	0.016906206
146	0xbdf6f353	-0.12058129
147	0x3e26877e	0.16262624
148	0xbe4666ca	-0.19375148
149	0x3b763c35	0.0037572507
150	0x3d8067a9	0.062697716
151	0x3dad592d	0.084642746
152	0x3d52905b	0.0514072
153	0x3e00016d	0.12500544
154	0xbd669c61	-0.05630148
155	0xbe2fb3c7	-0.17158423
156	0x3cd919f9	0.026501643
157	0x3c9db19f	0.019249735
158	0xbdab4d29	-0.083643265
159	0xbdd2a0b3	-0.10284557
160	0xbe628303	-0.2212029
161	0x3d5dc3fb	0.05414198
162	0x3db5cc01	0.08876801
163	0x3e06c388	0.13160527
164	0x3e0b6ab6	0.13614926
165	0x3d71582d	0.05892198
166	0x3d77ecca	0.060528554
167	0x3e29edb2	0.1659458
168	0xba813b57	-0.0009859604
169	0xbd7cb1ef	-0.06169313
170	0xbd8134e1	-0.06308914
171	0xbdce1119	-0.10061855
172	0xbdc7feac	-0.09765372
173	0x3d7ab9f1	0.061212484
174	0x3dd8de94	0.105893284
175	0x3dda6c7a	0.106652215
176	0xbd192c74	-0.03739591
177	0xbdc7c45e	-0.09754251
178	0x3dca1c2c	0.098686546
179	0x3e3905f6	0.1806868
180	0x3cf9c302	0.030488495
181	0xbe020b2c	-0.12699574
182	0x3d5cb18a	0.053880252
183	0xbd88120e	-0.06644069
184	0x3d1528be	0.036415808
185	0xbd045f0f	-0.032317217
186	0x3cbc9c17	0.023023648
187	0xbdc75ce1	-0.09734512
188	0xbd1d5b78	-0.03841731
189	0x3a9eb1ad	0.0012107395
190	0x3cce030f	0.025147943
191	0xbdbf29eb	-0.09334167
192	0xbddfc8ce	-0.10926972
193	0xbd94efab	-0.072722755
194	0x3dd978dc	0.10618755
195	0xbde90b3e	-0.113790974
196	0x3d9f7323	0.077856325
197	0xba41e96c	-0.00073971483
198	0x3d8a2346	0.06745009
199	0x3c75a55b	0.014993037
200	0x3d4d951a	0.050191022
201	0x3d7f0c3f	0.06226754
202	0xbe0d7693	-0.13814764
203	0xbda66d57	-0.08126324
204	0x3e309fa5	0.172484
205	0xbd055ed7	-0.03256115
206	0xbd75011f	-0.059815522
207	0x3e4e8d07	0.20170985
208	0xbd382a0e	-0.04496198
209	0xbda39c7e	-0.07988833
210	0x3ddf23c0	0.10895491
211	0x3d27f6b1	0.041006748
212	0xbd063c1f	-0.03277218
213	0x3ce7e46d	0.028307164
214	0x3d88cee5	0.06680087
215	0x3d3f2c9a	0.046673395
216	0xbc6cd3b0	-0.014454767
217	0x3cb7bba0	0.022428334
218	0x3dce585e	0.100754485
219	0x3d33baf8	0.04387948
220	0xbe3dc8ee	-0.1853368
221	0xbe0fdd73	-0.1404932
222	0xbd09c2d5	-0.033633072
223	0x3dc953a5	0.09830407
224	0x3decc08d	0.11560164
225	0x3d041779	0.032248948
226	0xbe00cf5b	-0.125791
227	0x3e3d62ac	0.18494672
228	0x3da4dabd	0.080495335
229	0xbe29a0a7	-0.1656519
230	0x3e09da53	0.1346219
231	0x3db158b3	0.08659496
232	0xbdedbd02	-0.11608316
233	0x3c9f96ea	0.019481141
234	0x3c0b014c	0.008484196
235	0x3e4ebdb2	0.2018955
236	0xbcc84300	-0.02444601
237	0xbdfb7ec6	-0.122800395
238	0x3dd172f5	0.102270044
239	0xbc3931ae	-0.0113033485
240	0xbe2440ed	-0.16040392
241	0x3d0e7754	0.03478177
242	0x3af77cd7	0.001888181
243	0x3ce62aa7	0.02809651
244	0x3e25d951	0.16196181
245	0x3b7461b5	0.0037289683
246	0x3de1b1b8	0.11020225
247	0xbdc160cd	-0.094422914
248	0xbe0fc46e	-0.14039776
249	0x3e277ea9	0.16356911
250	0xbdac42df	-0.08411192
251	0x3e14e209	0.1453935
252	0x39933d40	0.0002808366
253	0xbd9d5ab3	-0.07683315
254	0xbe18ae8f	-0.14910339
255	0xbd03dac3	-0.03219105

hidden_layers.1.bias f4 [60]
0	0x3b41efb9	0.0029592349
1	0x3d0a1b4a	0.03371743
2	0xbd367d20	-0.044552922
3	0x3d14d0a3	0.036331784
4	0x3d307825	0.04308333
5	0xbd10642f	-0.035251793
6	0x3ca6e841	0.02037442
7	0x3d46fc28	0.04858032
8	0x3d8b9ec9	0.06817395
9	0x3b206e82	0.002447993
10	0x3cd39dca	0.025832076
11	0x3df33430	0.11875188
12	0xbcad54fa	-0.021158684
13	0xbdba9b39	-0.091116376
14	0xbdd48225	-0.103763856
15	0x3d876d00	0.06612587
16	0x3abca2f3	0.0014391824
17	0xbd64cc1c	-0.055858716
18	0x3cf4fbab	0.02990516
19	0x3d9f9312	0.07791723
20	0x3d108531	0.03528327
21	0xbdd8c677	-0.10584729
22	0x3da01a27	0.07817488
23	0x3d7f8e8e	0.06239181
24	0xbd0d2188	-0.034455806
25	0xbd24217c	-0.040070996
26	0x3dbfeaf3	0.09370985
27	0xbd069296	-0.03285464
28	0x3dad2895	0.08455006
29	0xbd53baa3	-0.051691663
30	0x3d99d1a7	0.07510691
31	0xbaa97661	-0.0012928956
32	0x3d6d1378	0.057879895
33	0xbdf4ee76	-0.11959545
34	0x3d81bac7	0.06334453
35	0xbe0939db	-0.13400976
36	0x3dfb0a31	0.12257803
37	0x3c1ff491	0.009762899
38	0xbb55dcb2	-0.0032632765
39	0x3ded1570	0.115763545
40	0xbd3d618e	-0.046235614
41	0xbd004212	-0.03131301
42	0x3dd46305	0.10370449
43	0xbcfcbd21	-0.030851902
44	0x3da39fa5	0.07989434
45	0xbd18476f	-0.0371775
46	0x3dd75abe	0.105153546
47	0x3d63035f	0.055423137
48	0xbe0917a2	-0.13387921
49	0xbd735e90	-0.059416354
50	0xbd6ace5a	-0.0573257
51	0xbdc8c2cb	-0.09802779
52	0xbcc3d550	-0.023905426
53	0xbd90d9c5	-0.07072786
54	0xbda06dca	-0.078334406
55	0x3db4b95c	0.08824417
56	0x3da23d36	0.07921831
57	0xbda7439b	-0.081671916
58	0x3d06ca18	0.032907575
59	0x3dfae37f	0.12250423

hidden_layers.2.weight f4 [60, 60]
0	0xbbadeb7d	-0.0053076134
1	0xbe16dade	-0.14731929
2	0x3e5672dc	0.20942253
3	0x3c04d6c8	0.008107848
4	0xbc2d7223	-0.010586294
5	0xbdcfedd5	-0.10152785
6	0x3e1dc378	0.15406597
7	0x3cb4aa04	0.022053726
8	0x3d06addf	0.03288066
9	0xbc63d375	-0.013905396
10	0xbd750db0	-0.059827507
11	0xbdf2b543	-0.11850979
12	0xbd8342ff	-0.06409263
13	0x3e671d53	0.2256978
14	0x3d92f112	0.07174887
15	0x3d65f80d	0.056144763
16	0xbd86e960	-0.065874815
17	0xbdec1526	-0.11527471
18	0x3c485e95	0.012229581
19	0x3e067217	0.1312946
20	0x3d2b9dd1	0.041898552
21	0xbd55b1ea	-0.052171625
22	0xbd77dda3	-0.060514104
23	0xbd1ce149	-0.038300786
24	0xbd5ceb6b	-0.05393545
25	0xbe20d7bf	-0.157073
26	0x3bc2ba7c	0.005942641
27	0x3db25550	0.08707678
28	0xbdd03c87	-0.10167795
29	0x3de73db2	0.11291064
30	0x3d75e1f4	0.06002994
31	0x3dcba1ff	0.09943008
32	0xbde806e3	-0.113294385
33	0x3ce724d7	0.028215809
34	0xbc92faa7	-0.017941786
35	0xbcd4ec1f	-0.025991498
36	0xbd2b70a7	-0.04185548
37	0x3dc145ce	0.09437142
38	0x3e3f6ddd	0.18694253
39	0x3bd993a6	0.0066399155
40	0x3dfe910e	0.12430011
41	0x3da05a2f	0.07829701
42	0xbd0e3b3e	-0.034724467
43	0xbe05cc1b	-0.13066141
44	0x3d68cf03	0.056838047
45	0xbd9678d5	-0.07347266
46	0xbcfc8547	-0.03082527
47	0xbde749e2	-0.11293389
48	0xbcc2b547	-0.02376808
49	0x3d85f7c1	0.06541396
50	0x3cf9d74a	0.030498166
51	0xbc336c2b	-0.010951082
52	0x3d8f99ed	0.07011781
53	0xbde55e58	-0.11199635
54	0x3e11fdee	0.14257023
55	0x3db9104f	0.09036314
56	0xbd63c503	-0.055607807
57	0xbad2b1cd	-0.0016074717
58	0x3d648c1e	0.05579769
59	0xbe86418f	-0.26221892
60	0xbdba37ea	-0.09092696
61	0x3d77f9d7	0.060541
62	0xbd0d2a1b	-0.034463983
63	0xbe565054	-0.2092908
64	0x3daa5229	0.08316452
65	0xbd37ad03	-0.04484273
66	0xbe05f01e	-0.13079879
67	0x3db62b8a	0.08895023
68	0xbe6c49d5	-0.2307504
69	0xbd3f61da	-0.046724178
70	0xbce8d99e	-0.02842408
71	0x3c8b7641	0.017024161
72	0xbd405723	-0.0469581
73	0xbe7af7cf	-0.24508594
74	0x3dfb04f4	0.12256804
75	0xbdd890b0	-0.10574472
76	0x3d737f0c	0.059447333
77	0x3d5abd5f	0.053403255
78	0xbe154d63	-0.14580302
79	0xbe474c7f	-0.19462775
80	0xbde03c93	-0.109490536
81	0x3c2625e9	0.010140874
82	0x3d85479f	0.06507801
83	0xbd5ded11	-0.054181162
84	0x3cef0f8d	0.02918222
85	0x3e883d3d	0.2660922
86	0x3cf21fb0	0.029556125
87	0xbca2ba0f	-0.01986411
88	0xbd050c24	-0.03248228
89	0xbe0cde35	-0.1375664
90	0x3e2793cf	0.16364978
91	0xbdd8f4ca	-0.10593565
92	0x3d232de1	0.039838675
93	0x3de3561e	0.1110041
94	0x3c98a142	0.018631581
95	0x3d2700f3	0.04077239
96	0xbd4d7241	-0.05015779
97	0x3dff1fef	0.12457263
98	0x3d6c71db	0.05772577
99	0x3db89c8d	0.09014235
100	0x3c01370f	0.007886662
101	0x3d3f571f	0.046713945
102	0xbcf346c6	-0.029696833
103	0x3c861806	0.016368877
104	0x3d91a0e5	0.07110766
105	0x3ce1337d	0.027490372
106	0x3e297aaf	0.16550706
107	0xbda2e9c5	-0.07954744
108	0x3e0c6e17	0.13713871
109	0x3c8c6b3a	0.017140973
110	0x3aced7e9	0.0015780899
111	0x3cbfb591	0.023402007
112	0xbca9c53c	-0.020723931
113	0x3e21102a	0.15728822
114	0x3abf6cd9	0.0014604583
115	0x3d85c4e6	0.06531696
116	0xbdb62554	-0.088938385
117	0x3de24aff	0.110494606
118	0xbda234ef	-0.079202525
119	0x3e5cd744	0.21566492
120	0x3d76d778	0.06026408
121	0x3d110569	0.03540555
122	0x3e6830fc	0.22674936
123	0x3df80683	0.12110617
124	0xbe29f619	-0.16597785
125	0xbbba775b	-0.005690498
126	0x3dba0d06	0.09084515
127	0x3d529e08	0.05142024
128	0x3e3e8429	0.18605103
129	0xbcd4cb5c	-0.025975876
130	0x3d518619	0.051153276
131	0xbdc8b2b3	-0.09799709
132	0x3cfe94ab	0.03107675
133	0x3d3914ea	0.04518596
134	0x3d8fdf6f	0.070250385
135	0x3d2c2aa3	0.04203285
136	0xbe0986b9	-0.13430299
137	0xbc8376cf	-0.016047863
138	0xbdd3c4c3	-0.10340264
139	0x3c34a324	0.011025224
140	0xbc7448e8	-0.01490996
141	0xbbbedb0a	-0.0058244513
142	0xbd41b4f2	-0.047291704
143	0xbc895d08	-0.016767994
144	0xbc42d288	-0.011891015
145	0xbe8853ea	-0.2662652
146	0x3d4e9a68	0.050440222
147	0x3c9ef808	0.01940538
148	0xbd6ee9f2	-0.058328576
149	0xbd73e3f0	-0.05954355
150	0x3c03c534	0.008042622
151	0x3d7c59c7	0.061609056
152	0xbc5d728d	-0.013516081
153	0x3d4a1e34	0.04934521
154	0x3d6af2f1	0.057360593
155	0xbc6976ad	-0.014249486
156	0xbdaf04aa	-0.085458115
157	0xbdf20eb1	-0.118192084
158	0xbd181150	-0.037125885
159	0x3d80c695	0.062878765
160	0x3d9b2989	0.075762816
161	0xbe072845	-0.13198955
162	0x3e2b8b8a	0.16752449
163	0x3d8a4fbe	0.06753491
164	0x3df94176	0.12170689
165	0x3da4cdb6	0.08047049
166	0xbe12641b	-0.14296
167	0x3db80708	0.08985716
168	0xbdca5d21	-0.09881044
169	0xbdc0d6b9	-0.09415955
170	0x3db10ad8	0.086446464
171	0xbd3d8193	-0.04626615
172	0xbd019f67	-0.03164616
173	0xb9598409	-0.0002074392
174	0x3e16b0e2	0.14715913
175	0xbd521f52	-0.0512994
176	0xbd81e4a8	-0.06342441
177	0xbda2da87	-0.07951837
178	0x3d76a9c4	0.060220495
179	0xbdb0f84b	-0.08641108
180	0xbd51fbd6	-0.05126556
181	0xbc723e75	-0.014785399
182	0x3d99c822	0.075088754
183	0x3d9984f5	0.07496063
184	0x3c162b69	0.009165623
185	0x3e155393	0.14582662
186	0xbc2b21c1	-0.010445059
187	0xbd876c42	-0.066124454
188	0xbd4e910c	-0.050431296
189	0x3d215f1c	0.039397344
190	0xbdabc3bc	-0.08386943
191	0x3d9648de	0.07338117
192	0x3df9f00d	0.12203989
193	0xbd3b8be8	-0.045787722
194	0xbd427bf2	-0.047481485
195	0x3da98546	0.08277373
196	0x3d0b5ed8	0.034025997
197	0x3e058ddd	0.13042398
198	0xbc5d8b15	-0.013521929
199	0x3e2d3860	0.16916037
200	0x3d0b422b	0.03399865
201	0xbd4be629	-0.049780045
202	0x3e06eb85	0.13175781
203	0x3d83cd29	0.064356156
204	0xbd8b143d	-0.067909695
205	0xbd962a3b	-0.073322736
206	0x3cdfb8bd	0.02730977
207	0x3e0b8178	0.13623607
208	0xbe289500	-0.16463089
209	0x3d8fafb0	0.070159316
210	0x3e02dbfc	0.1277923
211	0xbdf34c67	-0.11879807
212	0x3c44b518	0.012006067
213	0x3dfaa974	0.12239352
214	0xbcc9c931	-0.024632068
215	0x3d8a81b7	0.067630224
216	0x3d91f1de	0.07126211
217	0xbd74b540	-0.059743166
218	0x3cec2818	0.028827712
219	0x3d25e80c	0.0405045
220	0xbdc22a48	-0.09480721
221	0x3c745d09	0.014914759
222	0xbdbf2600	-0.0933342
223	0x3d282bda	0.041057445
224	0xbd45829b	-0.04822026
225	0x3d9ee948	0.077593386
226	0xbb81f27b	-0.0039656735
227	0x3da04072	0.07824792
228	0xbccadeba	-0.024764407
229	0xbc82f11e	-0.015984114
230	0x3dd3c175	0.103396334
231	0xbccfae67	-0.025351716
232	0x3d9b9a0a	0.0759774
233	0xbcf4a418	-0.029863402
234	0x3e09a8a3	0.13443236
235	0x3d38063f	0.04492783
236	0x3dd03a14	0.101673275
237	0x3d70bcf6	0.058773957
238	0x3d3ef1d9	0.046617363
239	0x3d2593bc	0.040424094
240	0x3cb9ecd0	0.022695929
241	0xbe08d2b5	-0.13361628
242	0x3dce86d5	0.10084311
243	0x3e601c52	0.21885803
244	0xbcddae40	-0.027060628
245	0xbda8d545	-0.08243803
246	0xbd8fa221	-0.070133455
247	0xbd972bcb	-0.073814
248	0x3e3c9427	0.1841589
249	0x3dcf8395	0.10132519
250	0x3c5420dc	0.012947287
251	0x3d1fdbc3	0.03902794
252	0x3d7be473	0.061497163
253	0x3d33af0a	0.043868102
254	0xbe53733b	-0.20649426
255	0x3da168ee	0.07881342

hidden_layers.2.bias f4 [60]
0	0xbddf144e	-0.10892545
1	0xbda7b4cb	-0.081887804
2	0xbcedc33d	-0.02902376
3	0x3e05713c	0.13031477
4	0xbdd5b1e2	-0.10434319
5	0x3e19f51f	0.15034913
6	0xbdf82346	-0.12116103
7	0x3e32525d	0.17414232
8	0x3e03acfa	0.12858954
9	0xbd7ff39d	-0.062488187
10	0xbbf1d427	-0.007380027
11	0x3baa694b	0.00520054
12	0xbd9f65e3	-0.07783105
13	0x3e1f385d	0.15548845
14	0x3d9a5cdb	0.07537242
15	0xbd94162e	-0.07230793
16	0xbd91d1a0	-0.07120061
17	0x3d5c4904	0.05378057
18	0x3e015a09	0.12632002
19	0xbd5e2ee1	-0.054243926
20	0xbc861140	-0.016365647
21	0xbde82cc0	-0.113366604
22	0x3e1361a6	0.14392719
23	0xbd185edd	-0.037199844
24	0xbe1a0568	-0.15041125
25	0x3d83d4de	0.064370856
26	0xbbc7871f	-0.0060891057
27	0xbd031d37	-0.032010283
28	0x3c860fd7	0.016364975
29	0xbd8fe67d	-0.07026384
30	0xbd089ce1	-0.033352736
31	0xbcbecea6	-0.023291897
32	0xbd5a8968	-0.053353697
33	0x3cc4d04c	0.024025105
34	0x3cc5a1a7	0.024124933
35	0xbd2d4191	-0.042298857
36	0xbd557c45	-0.052120466
37	0x3c854e51	0.016272696
38	0x3ce58bd7	0.028020782
39	0x3c012055	0.007881244
40	0xbdc7f5fd	-0.097637154
41	0x3dbc7dc3	0.09203675
42	0xbcb12aa5	-0.02162678
43	0xbdfd24ce	-0.123605356
44	0x3da0894c	0.07838687
45	0xbde4daae	-0.11174522
46	0xbd896059	-0.0670783
47	0xbca42875	-0.020038823
48	0xbc352c1c	-0.01105788
49	0xbda9e03b	-0.08294722
50	0xbda94bfd	-0.08266447
51	0x3e14f742	0.14547446
52	0xbd538e78	-0.05164954
53	0x3d9a2530	0.07526624
54	0x3dfa2d4e	0.122156724
55	0x3d8d78b1	0.06907786
56	0xbd4a6e9d	-0.049421895
57	0xbd6b299e	-0.057412736
58	0x3d89cda6	0.067286775
59	0xbde0f55a	-0.10984297

hidden_layers.3.weight f4 [60, 60]
0	0x3da69fd4	0.081359535
1	0xbe041082	-0.12896922
2	0xbcae57bf	-0.021282075
3	0x3e13f5f1	0.14449288
4	0x3c5847f6	0.013200751
5	0xbdd36d4d	-0.10323582
6	0xbe159dd5	-0.1461099
7	0xbd0d7710	-0.034537375
8	0xbdd42496	-0.10358541
9	0x3dd26d3e	0.102747425
10	0xbdc83909	-0.097765036
11	0x3d304084	0.043030277
12	0xbc872dea	-0.016501386
13	0x3dbd3c9c	0.09240076
14	0x3d9d03b0	0.07666719
15	0xbc45cded	-0.012073022
16	0xbd0998ba	-0.033592917
17	0xbcbed1e6	-0.023293447
18	0x3d5e1132	0.054215617
19	0xbe0ac03c	-0.13549894
20	0x3df778e6	0.120836064
21	0x3e20e4b2	0.1571224
22	0xbd5cf8fe	-0.053948395
23	0x3dd84bb4	0.10561314
24	0xbe0d3cec	-0.13792771
25	0x3dbd7b25	0.092520036
26	0x3c3e2946	0.01160652
27	0xbd2a53bb	-0.041583758
28	0xbdfa88c4	-0.12233117
29	0xbc00861b	-0.007844473
30	0x3d0e5c9c	0.034756288
31	0xbe69cc6e	-0.2283189
32	0x3df569cd	0.119830705
33	0x3e29362c	0.16524571
34	0x3c67735e	0.014126627
35	0xbda22385	-0.07916931
36	0x3df7ee6c	0.12106022
37	0x3ddca5f1	0.10773838
38	0xbcea82eb	-0.02862688
39	0x3d76fd65	0.06030025
40	0x3d59b423	0.053150307
41	0xbd5a3172	-0.05326981
42	0x3e0dab38	0.13834846
43	0x3c7a8bf2	0.015292155
44	0xbe60d789	-0.2195722
45	0x3c81c0a9	0.015838938
46	0x3e0c9060	0.1372695
47	0xbd08b240	-0.033373117
48	0x3df4845e	0.119393095
49	0x3e4db336	0.20087895
50	0x3e070f5c	0.13189453
51	0xbdb65726	-0.08903341
52	0x3d228b8e	0.03968387
53	0xbdc6a588	-0.09699541
54	0x3d827fc7	0.06372028
55	0x3c627b2e	0.013823314
56	0x3cce3bee	0.025175061
57	0xbe2d0a21	-0.16898395
58	0xbcc37512	-0.023859534
59	0x3d1d1f10	0.0383597
60	0xbd62d8ee	-0.05538266
61	0x3d819fc8	0.06329304
62	0x3deb6062	0.11492993
63	0x3d2dc1de	0.042421214
64	0xbe0e1a95	-0.13877328
65	0xbd41c572	-0.04730744
66	0xbd854e93	-0.065091275
67	0xbd737d9d	-0.059445966
68	0x3d92ba23	0.07164409
69	0xbca71c9f	-0.02039939
70	0x3d8c5aac	0.06853232
71	0xbd807f83	-0.06274321
72	0x3d91a051	0.07110656
73	0xbc9b869d	-0.018985087
74	0xbc28b7dd	-0.010297743
75	0xbde30ca5	-0.11086396
76	0x3d5ceb8b	0.05393557
77	0x3aa85cd7	0.0012845051
78	0xbdd00487	-0.101571135
79	0x3d71f7db	0.059074264
80	0xbd8f636e	-0.070013866
81	0x3c43e409	0.011956223
82	0xbd9b1684	-0.07572654
83	0xbe26dc98	-0.16295087
84	0x3e20578d	0.15658398
85	0xbe0c2e35	-0.13689502
86	0x3cc65895	0.024212161
87	0x3e2dcf70	0.16973662
88	0x3d6b026d	0.05737536
89	0xbe2554a8	-0.16145575
90	0x3ca76a8c	0.020436548
91	0x3def4d12	0.11684622
92	0x3d7e18c5	0.06203534
93	0xbdb1f710	-0.086897016
94	0xbd89a924	-0.06721714
95	0xbc356610	-0.011071697
96	0x3a90bb84	0.0011042212
97	0x3d4e00b5	0.050293643
98	0x3dfc7bde	0.12328313
99	0xbdcfe9e7	-0.10152035
100	0xbd48acab	-0.048992794
101	0xbca15fd5	-0.019699017
102	0xbe0aa2ec	-0.13538712
103	0x3e196edb	0.14983694
104	0x3d0f204c	0.03494291
105	0xbd400353	-0.04687817
106	0xbe352bfd	-0.17692561
107	0xbd3d2933	-0.04618187
108	0x3deb2cd3	0.11483159
109	0xbd95ba83	-0.07310965
110	0xbdfd2125	-0.123598374
111	0xbe070981	-0.13187219
112	0x3e07c8f4	0.13260251
113	0xbd92fb48	-0.07176834
114	0xbc404e1f	-0.0117373755
115	0xbd307d71	-0.04308838
116	0xbe172330	-0.14759517
117	0x3ddb95bf	0.10721921
118	0xbd6d253d	-0.05789684
119	0x3e1501f5	0.14551528
120	0x3dfcfb0e	0.123525724
121	0xbd428f3a	-0.047499873
122	0x3ddd7f5f	0.1081531
123	0x3c5719d9	0.013128721
124	0x3dab3fa3	0.08361747
125	0xbd4c300b	-0.049850505
126	0xbe10c235	-0.14136584
127	0x3b36d581	0.0027898254
128	0xbe0db003	-0.13836674
129	0xbdc5846b	-0.09644397
130	0xbded329f	-0.11581921
131	0xbc9074d2	-0.01763383
132	0x3df1140d	0.117714025
133	0x3d82d2ae	0.0638784
134	0x3e132c39	0.14372338
135	0x3de8b3c8	0.113624156
136	0xbe1484ff	-0.14503859
137	0x3daf5e82	0.08562948
138	0x3da566fd	0.08076284
139	0xbe1c694b	-0.15274541
140	0x3ca23ed0	0.019805342
141	0x3d9a3089	0.075287886
142	0x3d09bf27	0.033629563
143	0xbba4a9d5	-0.0050251284
144	0x3dc62112	0.096742764
145	0x3dc098b6	0.09404127
146	0x3d767f4f	0.060180005
147	0xbc9142b3	-0.017732
148	0xbc2c7d1a	-0.010527873
149	0x3d721c86	0.059109233
150	0x3dad310d	0.08456621
151	0xbe73cd50	-0.23808789
152	0xbd1edd4e	-0.03878527
153	0xbd352cb0	-0.04423207
154	0x3c3fc561	0.011704774
155	0xbd719fb3	-0.05899019
156	0x3d668fd6	0.056289516
157	0xbbc9bda5	-0.0061566406
158	0xbc1c01b6	-0.009521892
159	0xbd52287d	-0.051308144
160	0xbd5f01ea	-0.054445185
161	0x3d159bb5	0.036525447
162	0x3cdbccae	0.026830997
163	0xbdfaccc7	-0.122460894
164	0xbe27958b	-0.1636564
165	0x3d598937	0.053109374
166	0x3da9ef6f	0.082976215
167	0x3c44754f	0.011990859
168	0xbd37ee4f	-0.044905003
169	0x3e52d4c9	0.20588984
170	0x3dbbeced	0.091760494
171	0xbd5acda1	-0.05341876
172	0xbdef5313	-0.11685767
173	0xbd01869d	-0.031622518
174	0xbd16ccc6	-0.03681638
175	0xbdda212a	-0.10650857
176	0x3d477a32	0.04870052
177	0xbd901731	-0.070356734
178	0x3c950b2d	0.018193806
179	0xbe1ba2fb	-0.15198891
180	0x3da938d8	0.08262795
181	0xbd8715b4	-0.065959364
182	0x3d30e79c	0.04318963
183	0x3d3b340d	0.045703936
184	0xbc09c104	-0.008407835
185	0x3de17e1b	0.11010381
186	0x3dbd260e	0.09235774
187	0xbde6b659	-0.11265249
188	0x3dbcebe6	0.092246816
189	0x3dad7d3f	0.084711544
190	0xbd924268	-0.07141572
191	0xbd03cb63	-0.032176387
192	0xbdab54bd	-0.08365772
193	0xbe0e26ed	-0.13882037
194	0x3d57a6cc	0.052649304
195	0xbd948e06	-0.07253651
196	0x3da8bb82	0.08238889
197	0xbdb7b6e3	-0.0897043
198	0xbd822d8c	-0.063563436
199	0x3e394a02	0.18094638
200	0xbd939d3f	-0.07207727
201	0x3bb596e4	0.005541669
202	0xbe111c1e	-0.14170882
203	0xbdd66fd2	-0.10470547
204	0x3e218e3a	0.15776911
205	0xbd9b1100	-0.07571602
206	0x3dc3fb75	0.09569446
207	0xbd897cef	-0.06713282
208	0xbda6d94a	-0.08146913
209	0xbd51d669	-0.051229868
210	0xbd0bed75	-0.034162004
211	0x3dd8c415	0.10584275
212	0xbdc17094	-0.09445301
213	0xbd98ae9b	-0.07455178
214	0x3d86d2db	0.06583186
215	0x3d1fe579	0.0390372
216	0xbd849357	-0.06473415
217	0x3da860d1	0.08221591
218	0xbc9cef12	-0.019156966
219	0xbe103be4	-0.14085346
220	0xbd6af4ca	-0.057362355
221	0x3e043043	0.12909035
222	0xbd0fbb28	-0.035090595
223	0x3d820df1	0.06350315
224	0x3df03b82	0.117301
225	0xbd1ff6f9	-0.03905389
226	0xbc52624b	-0.012840818
227	0xbdfa40fe	-0.122194275
228	0xbe24e3db	-0.16102545
229	0xbd9ff707	-0.078107886
230	0xbd047838	-0.032341212
231	0x3e30088c	0.1719076
232	0x3dd0f478	0.10202879
233	0xbc3c34dd	-0.011487213
234	0x3bf80857	0.0075693536
235	0x3d98a0d5	0.07452551
236	0xbd118ed8	-0.035536617
237	0xbd8fd6e3	-0.07023408
238	0x3c4fd2ea	0.012684563
239	0x3e102f01	0.1408043
240	0x3de35aac	0.11101279
241	0x3cc23ab0	0.023709625
242	0x3e02bd95	0.12767632
243	0x3d56521d	0.052324403
244	0xbd20d18d	-0.039262343
245	0xbdc81462	-0.09769513
246	0x3e4c7cde	0.19969508
247	0x3db46276	0.088078424
248	0x3e05e66f	0.13076185
249	0x3d58bd97	0.052915182
250	0xbdf38129	-0.1188987
251	0xbe0bac92	-0.13640049
252	0xbd443cb3	-0.04790945
253	0xbe1b9e65	-0.15197141
254	0xbe0f6b4a	-0.14005771
255	0xbe3d1f26	-0.18468913

hidden_layers.3.bias f4 [60]
0	0xbe08c67e	-0.13356969
1	0x3d2e37ee	0.042533807
2	0xbc293194	-0.010326762
3	0x3dacacf4	0.08431426
4	0x3df03762	0.117293134
5	0xbd67a47b	-0.056553345
6	0xbd721be2	-0.059108622
7	0x3d8ac93b	0.06776663
8	0x3d65e297	0.056124296
9	0x3df19f9c	0.11798021
10	0x3d376fb0	0.044784248
11	0x3beee5e7	0.00729059
12	0xbdc98b66	-0.09841041
13	0xbdf4f8ea	-0.11961539
14	0xbcf3c93d	-0.029759044
15	0xbcec296d	-0.028828347
16	0x3d964199	0.073367305
17	0x3c2be04c	0.010490488
18	0xbce450a4	-0.027870484
19	0x3dec2045	0.115295924
20	0x3dca36b8	0.09873718
21	0xbd4b60f4	-0.04965301
22	0x3d360177	0.04443499
23	0xbd519b98	-0.051173776
24	0xbda5960e	-0.08085261
25	0xbe189a0e	-0.14902517
26	0x3e120938	0.14261329
27	0xbd0c29fe	-0.034219734
28	0x3e15237d	0.14564319
29	0x3c32d62d	0.010915321
30	0x3c89cd40	0.016821504
31	0x3d858cf5	0.06521026
32	0x3db05435	0.08609811
33	0x3d829da9	0.063777275
34	0xbd4c1281	-0.049822334
35	0xbd124067	-0.03570595
36	0x3da8c6e6	0.08241062
37	0x3d9680fb	0.0734882
38	0xbdac8ee0	-0.08425689
39	0x3c7ea016	0.015541097
40	0xbd9d6d7f	-0.076869
41	0x3e057293	0.13031988
42	0xbcaa41c1	-0.020783307
43	0x3dfc52c9	0.123204775
44	0xbd41af99	-0.047286604
45	0x3d26914d	0.040665913
46	0x3db82678	0.08991712
47	0x3d5e9d65	0.054349322
48	0xbe090623	-0.13381247
49	0xbe174e50	-0.14775968
50	0x3d6afb53	0.057368588
51	0x3dee40ca	0.11633451
52	0x3d272a1a	0.040811636
53	0x3db936bf	0.09043645
54	0x3d224b99	0.039622877
55	0x3d679c44	0.05654551
56	0x3dcdb9ec	0.100452274
57	0xbdd4153f	-0.10355615
58	0x3cf1cc25	0.029516289
59	0x3e142eda	0.14470997

hidden_layers.4.weight f4 [60, 60]
0	0x3e2c65f4	0.16835767
1	0xbd968afb	-0.07350727
2	0x3dc3015a	0.09521742
3	0x3da75699	0.08170814
4	0xbca53868	-0.020168498
5	0x3c02b81d	0.007978466
6	0xbda5e86c	-0.081009716
7	0x3d0468f0	0.03232664
8	0x3e04f0cb	0.1298248
9	0xbc9443f4	-0.018098809
10	0x3ca2d42f	0.019876568
11	0x3bf053b6	0.007334198
12	0xbd934622	-0.07191111
13	0xbcccc349	-0.024995463
14	0x3b879476	0.004137571
15	0xbde3a0f1	-0.111146815
16	0x3dca2e06	0.098720595
17	0x3e0c619a	0.13709107
18	0x3e2076ae	0.15670273
19	0x3d2b9b4f	0.04189616
20	0xbe0b5202	-0.13605502
21	0x3ca21996	0.019787591
22	0xbe5044d1	-0.20338751
23	0xbd0af4e1	-0.03392494
24	0xbd6b6e1a	-0.057478048
25	0x3ddc0a33	0.10744133
26	0xbd91a824	-0.071121484
27	0xbe2a9a84	-0.16660506
28	0xbd8e325f	-0.06943201
29	0x3da6c42f	0.08142888
30	0x3d0be571	0.03415436
31	0xbccaa3ec	-0.024736367
32	0xbe0f2f46	-0.13982877
33	0xbde694c3	-0.11258843
34	0x3ddb5104	0.10708812
35	0xbe17acbe	-0.1481199
36	0xbd34dd59	-0.044156406
37	0x3d58f5aa	0.05296866
38	0xbe116cdb	-0.14201681
39	0x3d6048a5	0.05475678
40	0x3d3755d6	0.044759594
41	0xbdf643ff	-0.12024688
42	0xbe1516ed	-0.14559527
43	0x3d3c8864	0.04602851
44	0x3daab9e9	0.08336241
45	0xbc503786	-0.01270855
46	0xbd3f7b84	-0.046748653
47	0xbe32a212	-0.17444637
48	0x3ccf5ab1	0.0253118
49	0xbc8c4a61	-0.01712531
50	0x3cbe99c7	0.023266686
51	0xbc553009	-0.013011941
52	0xbda10602	-0.07862474
53	0xbe242801	-0.16030885
54	0x3d2b2708	0.04178527
55	0xbd453f89	-0.048156295
56	0xbe5952dd	-0.21223016
57	0x3e00629b	0.12537615
58	0xbd3ddcb9	-0.046353076
59	0x3d92e100	0.071718216
60	0x3e218651	0.15773894
61	0xbd768b44	-0.060191408
62	0xbbc18ab0	-0.0059064254
63	0x3cf88573	0.030337071
64	0xbd0e58d2	-0.034752674
65	0x3df3eecf	0.119107835
66	0xbd3b39ed	-0.04570954
67	0x3dbe0374	0.092780024
68	0xbd86c2c7	-0.065801196
69	0xbddb0201	-0.106937416
70	0xbe03f3ab	-0.1288592
71	0x3d6ce73f	0.05783772
72	0xbd6fc11b	-0.05853377
73	0x3dd6fd58	0.1049754
74	0xbdec91a8	-0.11551219
75	0x3dc722bf	0.09723424
76	0x3c113cc7	0.008864588
77	0xbdb7b02e	-0.089691505
78	0x3d6935b4	0.05693598
79	0xbdaece38	-0.08535427
80	0xbd9483d1	-0.072517045
81	0xbe16bd65	-0.14720686
82	0xbda784a5	-0.08179597
83	0x3dbb8587	0.09156328
84	0xbd619338	-0.05507204
85	0x3d48377f	0.04888105
86	0x3d96799e	0.073474154
87	0x3ddbe969	0.10737879
88	0x3d84baa4	0.064809114
89	0x3d986e54	0.074429184
90	0x3b410ae9	0.0029455966
91	0xbde88cef	-0.11355006
92	0xbde6760f	-0.11252987
93	0xbe2d74b5	-0.16939051
94	0x3d1af4c5	0.037831087
95	0xbe4a87a1	-0.19778301
96	0x3b9ddaba	0.004817334
97	0xbd05b9fd	-0.032648075
98	0xbd546254	-0.051851586
99	0x3c8d1ca8	0.017225578
100	0x3da73543	0.08164456
101	0xbc62a3e3	-0.013833019
102	0xbe4e28e2	-0.20132783
103	0xbd4e397e	-0.050347798
104	0xbb960070	-0.004577689
105	0xbd338989	-0.043832336
106	0x3de18135	0.110109724
107	0xbdfb9826	-0.122848794
108	0x3da7ff72	0.08203019
109	0x3db2607f	0.087098114
110	0x3d8704d5	0.065927185
111	0x3bb329b6	0.005467619
112	0xbde24361	-0.11048008
113	0xbc56ca47	-0.01310975
114	0xbd84ca09	-0.06483848
115	0xbe201047	-0.1563121
116	0xbc79acb8	-0.015238933
117	0x3e00ef16	0.12591204
118	0xbdf87b97	-0.12132948
119	0x3d8d02d6	0.068853065
120	0x3cc1dfd6	0.023666304
121	0x3de910af	0.11380135
122	0xbdfb3704	-0.12266353
123	0x3c69d0d3	0.014270979
124	0x3d671043	0.056411993
125	0x3dabf15d	0.08395646
126	0xbd9e5280	-0.077305794
127	0xbc823d6f	-0.015898434
128	0xbdbc2cf5	-0.091882624
129	0xbc630072	-0.013855087
130	0x3d67f0a4	0.056625977
131	0xbe015fac	-0.12634152
132	0xbc26cdcc	-0.010180902
133	0xbdeebdac	-0.11657271
134	0x3d55a809	0.052162204
135	0x3b827411	0.0039811214
136	0x3d1c4929	0.03815571
137	0x3d1cb127	0.038254883
138	0xbd48f5f7	-0.049062695
139	0x3dd19c2d	0.10234866
140	0xbc7d1188	-0.015446074
141	0x3cd39de7	0.02583213
142	0x3dea7f52	0.11450066
143	0xbca9cfcc	-0.020728968
144	0x3d2f4fc7	0.04280069
145	0x3c00e840	0.007867873
146	0x3d45cfc8	0.04829386
147	0x3de0c5b3	0.10975208
148	0xbe0a19cb	-0.13486402
149	0x3d099359	0.033587787
150	0x3c943b99	0.018094825
151	0xbded78da	-0.11595316
152	0xbcf2d88f	-0.029644279
153	0x3e39bd62	0.1813865
154	0xbdc792b3	-0.097447775
155	0x3d58e77a	0.05295513
156	0xbd0ed272	-0.034868665
157	0x3bd2eb39	0.006436732
158	0x3e27339a	0.16328278
159	0x3d5f8012	0.054565497
160	0xbdaedfc7	-0.08538776
161	0xbd671557	-0.056416836
162	0x3d1cebb0	0.038310707
163	0x3e0501f3	0.12989025
164	0x3d2a51bf	0.041581865
165	0x3cde7e98	0.027159974
166	0x3e1490fb	0.1450843
167	0x3c7daec0	0.015483558
168	0x3dd5be6f	0.10436713
169	0xbdbac6fd	-0.09119985
170	0x3d7f8028	0.06237808
171	0xbb6937a2	-0.0035586138
172	0x3d80697f	0.06270122
173	0x3d5cf9d8	0.053949207
174	0x3dddfc40	0.108391285
175	0x3db4442f	0.088020675
176	0x3d30c02e	0.043152027
177	0xbd90cc12	-0.07070173
178	0xbda95249	-0.08267648
179	0xbe04b7b6	-0.12960705
180	0xbc30f4bc	-0.010800537
181	0x3a50c13b	0.0007963364
182	0x3ae9b44d	0.0017830223
183	0xbda5491f	-0.08070587
184	0xbda478ad	-0.080308296
185	0x3d5ce920	0.053933263
186	0xbdb05bbc	-0.08611247
187	0x3d8c5868	0.068528
188	0x3cdaa7fb	0.026691427
189	0xbd328cfd	-0.04359149
190	0x3d3aacd4	0.045574978
191	0xba52ad26	-0.00080366654
192	0xbd74ed4c	-0.059796616
193	0x3ddabca1	0.10680509
194	0xbd74ad1a	-0.059735395
195	0x3d3252a4	0.043535843
196	0xbe1a3c25	-0.15062006
197	0xbbb160a7	-0.005413133
198	0x3cca6a1e	0.024708804
199	0x3ce4753b	0.027887931
200	0x3d8ecacf	0.069722764
201	0xbda763e8	-0.081733525
202	0x3e0f4de5	0.13994558
203	0x3dce0f8a	0.100615576
204	0xbbacf9fb	-0.0052788234
205	0x3966665c	0.00021972641
206	0x3dbc3735	0.091902174
207	0x3d270d28	0.04078403
208	0x3d408a1a	0.047006704
209	0x3d02f0f5	0.031968076
210	0xbce30d1b	-0.02771621
211	0x3da302b5	0.07959501
212	0xbe0d943b	-0.13826077
213	0x3d9de6b3	0.07710018
214	0x3df0f6fc	0.117658585
215	0xbca13058	-0.019676372
216	0x3d510905	0.051033992
217	0xbdf05bbe	-0.117362484
218	0xbde41b73	-0.11138048
219	0x3d8ec4d0	0.06971133
220	0xbc9c4de6	-0.019080114
221	0xbb8bc76b	-0.004265716
222	0x3cb20fca	0.021736044
223	0xbe0c6555	-0.1371053
224	0xbdb3b9f1	-0.087757
225	0x3cec5aa9	0.028851824
226	0xbe053199	-0.13007201
227	0xbdc15b48	-0.09441239
228	0x3e3476b5	0.17623408
229	0x39e03915	0.0004276714
230	0x3d039577	0.032124963
231	0x3dc18bd8	0.09450501
232	0xbd9e3b58	-0.07726163
233	0x3c05a4ab	0.008156936
234	0xbd71e0ac	-0.059052154
235	0x3d5a2a73	0.05326314
236	0xbdd186db	-0.102308
237	0xbcf6251e	-0.030046996
238	0xbd3c7713	-0.046011996
239	0x3dcd2a76	0.100178644
240	0x3dceb4f6	0.10093109
241	0xbdbe81a5	-0.093020715
242	0x3d6a0dbe	0.05714201
243	0x3baaa44b	0.0052075735
244	0xbd117c81	-0.035519127
245	0xbe0f43fa	-0.13990775
246	0xbd304be0	-0.04304111
247	0x3cd5ea79	0.026112782
248	0x3d7bdb9d	0.061488736
249	0x3c03d595	0.008046527
250	0x3dbd05be	0.09229611
251	0x3d46fdc3	0.04858185
252	0x3d532527	0.051549103
253	0x3e1e2532	0.15443876
254	0xbd8988b8	-0.0671553
255	0x3dacf1f4	0.084445864

hidden_layers.4.bias f4 [60]
0	0xbdf4ab03	-0.119466804
1	0x397a9a6e	0.00023899387
2	0x3c3f7188	0.011684783
3	0xbc3c2d41	-0.011485399
4	0xbd2410bd	-0.040055025
5	0xbdca3e65	-0.09875182
6	0x3d120382	0.035647877
7	0xbd032d06	-0.03202536
8	0x3dd90ad8	0.105977714
9	0xbdf765c9	-0.12079961
10	0x3d4c53f9	0.04988477
11	0x3dd2b6b2	0.102887526
12	0xbd8a14d1	-0.06742252
13	0x3cb48bab	0.022039255
14	0x3dde817f	0.10864543
15	0x3ca321c3	0.01991356
16	0x3db0e351	0.08637107
17	0xbd8d2f6b	-0.0689381
18	0x3ddec56d	0.108775
19	0xbda87170	-0.082247615
20	0x3b759654	0.0037473636
21	0x3d96c700	0.07362175
22	0x3dcff01a	0.101532176
23	0x3d75e735	0.06003495
24	0x3d871213	0.06595244
25	0xbd74b93d	-0.05974697
26	0x3df8aa6e	0.12141882
27	0xbcae36db	-0.021266392
28	0x3d281928	0.041039616
29	0x3d2545cd	0.04034977
30	0xbc6c71e5	-0.014431451
31	0xbceb156d	-0.02869674
32	0x3de48913	0.11158957
33	0xbd84bb07	-0.06480985
34	0xbd931514	-0.07181755
35	0xbdadd239	-0.084873624
36	0xbcfee8d3	-0.031116879
37	0xbdf82fad	-0.121184684
38	0xbce056b6	-0.027385097
39	0x3cba5bc5	0.022748837
40	0x3d74a0ea	0.059723772
41	0x3dd2da29	0.10295517
42	0xbe1ac11d	-0.1511273
43	0x3d615537	0.055012908
44	0x3c00ecfc	0.0078690015
45	0x3dceaffe	0.100921616
46	0xbd087609	-0.033315692
47	0x3cd7c014	0.026336707
48	0x3d3ab717	0.045584764
49	0x3d6ef556	0.05833944
50	0xbc9ca8a3	-0.019123381
51	0x3d5a333f	0.05327153
52	0xbd80df26	-0.06292562
53	0xbdca6612	-0.098827496
54	0xbd901423	-0.07035091
55	0x3d84f09f	0.06491207
56	0x3d1d8dee	0.038465433
57	0xbb66d27e	-0.0035220678
58	0x3d120103	0.035645496
59	0x3c661e30	0.014045283

hidden_layers.5.weight f4 [60, 60]
0	0xbc03b561	-0.00803885
1	0xbd7064bc	-0.058689818
2	0xbe14be00	-0.14525604
3	0x3de8c737	0.11366122
4	0xbd4dad20	-0.050213933
5	0x3ca630b5	0.020286897
6	0xbddd341e	-0.10800956
7	0x3e2bfd16	0.16795763
8	0x3d5e5c46	0.054287218
9	0x3df04e46	0.117336795
10	0xbcbc5b0a	-0.02299263
11	0x3cffc219	0.031220483
12	0x3d33fdee	0.043943338
13	0x3d9e6ff7	0.07736199
14	0xbde8ff5f	-0.11376833
15	0x3d6b5dc8	0.057462484
16	0xbdb9bca8	-0.090691864
17	0x3e0a7a5e	0.13523242
18	0xbc843676	-0.01613925
19	0xbd992a45	-0.074787654
20	0xbe01af3f	-0.12664507
21	0x3e28a69e	0.1646981
22	0xbe37d318	-0.1795162
23	0x3c81e921	0.015858235
24	0xbe2dc722	-0.16970494
25	0x3d8767d1	0.06611598
26	0xbc927675	-0.01787875
27	0xbd93ccba	-0.07216783
28	0xbe0be896	-0.13662943
29	0x3d8270b8	0.06369156
30	0xbc31d378	-0.010853641
31	0x3c9436be	0.01809251
32	0x3dc45417	0.09586351
33	0x3d05d3bb	0.032672625
34	0xbb64d5c1	-0.0034917446
35	0xbdaac9b5	-0.08339254
36	0xbd70f076	-0.05882307
37	0xbdb52cb6	-0.088464186
38	0x3e093075	0.13397391
39	0x3cccedf0	0.025015801
40	0xbd751aac	-0.05983989
41	0xbdb43571	-0.08799256
42	0x3c093d86	0.008376485
43	0x3da17c22	0.078850046
44	0x3c6185ff	0.013764857
45	0xbe311f09	-0.17296995
46	0xbca9ac2b	-0.020711979
47	0x3c899ea0	0.016799271
48	0x3db73afc	0.08946797
49	0x3dd0debd	0.10198734
50	0x3ce0e0f9	0.027451025
51	0xbc241b17	-0.010016224
52	0xbc74820f	-0.0149235865
53	0x3dcd0391	0.10010446
54	0xbcf87969	-0.03033133
55	0x3e0597af	0.13046144
56	0x3bb7afe2	0.0056056837
57	0x3cb76162	0.022385303
58	0x3dc533f2	0.096290484
59	0xbdf55e64	-0.11980894
60	0x3de3f561	0.11130787
61	0xbe215717	-0.15755878
62	0x3dcd3c97	0.10021322
63	0x3d98421d	0.07434485
64	0xbd37498a	-0.044747867
65	0xbcd560ff	-0.026047228
66	0xbdaaba20	-0.08336282
67	0x3e093f66	0.13403091
68	0x3c27eb71	0.010249005
69	0x3d629aad	0.05532329
70	0xbd00476e	-0.03131812
71	0xbdfa911e	-0.1223471
72	0xbd345c23	-0.04403318
73	0x3e1d1b3a	0.15342417
74	0xbda46804	-0.08027652
75	0xbe098789	-0.13430609
76	0x3c96633c	0.018357866
77	0xbcf4fbac	-0.029905163
78	0xbc8fed7d	-0.017569298
79	0xbd957d0c	-0.072992414
80	0xbbb64c7b	-0.0055633164
81	0xbce3483b	-0.027744403
82	0xbdcee17b	-0.10101601
83	0xbcfec218	-0.03109841
84	0x3d987590	0.07444298
85	0xbcd9d365	-0.026590059
86	0x3d24dc1e	0.040248983
87	0xbb194a55	-0.0023390253
88	0xbdb46317	-0.088079624
89	0x3d91bfa9	0.071166344
90	0x3dc0e59e	0.09418796
91	0x3df28d4d	0.11843357
92	0xbd83eec7	-0.064420275
93	0xbc118c61	-0.008883567
94	0xbdda1685	-0.106488265
95	0xbdb6b8ee	-0.08921991
96	0xbd384fb9	-0.044997904
97	0x3d21f953	0.039544415
98	0xbb8b2806	-0.0042467145
99	0xbd457291	-0.048204962
100	0x3d1633e0	0.036670566
101	0x3d816289	0.06317622
102	0x3d3e3a8d	0.046442557
103	0x3dd4fe53	0.10400071
104	0x3da49983	0.080370925
105	0xbb938c25	-0.0045027905
106	0x3cbc4869	0.022983747
107	0xbe2f8624	-0.17141014
108	0xbd58d42c	-0.052936718
109	0x3dd9af5d	0.10629151
110	0xbdc73fe7	-0.09728985
111	0x3cc0b27d	0.02352261
112	0xbd3949d9	-0.045236442
113	0xbdb98a08	-0.090595305
114	0x3cf54fc5	0.029945264
115	0xbdc2120e	-0.094761
116	0xbdc20f51	-0.094755776
117	0xbb6c65eb	-0.003607149
118	0xbcc7dea6	-0.02439816
119	0xbc8ea55c	-0.017412834
120	0xbac8be4a	-0.00153155
121	0xbd8dd410	-0.06925213
122	0xbdaae7ca	-0.083449915
123	0xbdb9ff16	-0.09081857
124	0xbd8d43ea	-0.06897719
125	0xbcfd2f5d	-0.030906374
126	0x3d858f38	0.065214574
127	0xbd7ab185	-0.061204452
128	0x3da61f44	0.08111432
129	0xbc927095	-0.017875949
130	0x3d14b4a4	0.036305085
131	0x3d704815	0.058662493
132	0xbe0f7e6b	-0.14013068
133	0xbdb1de1a	-0.08684941
134	0x3d420377	0.047366586
135	0x3dd3ad7b	0.10335823
136	0x3d33ea70	0.04392475
137	0xbdcf145b	-0.101113044
138	0x3e1c1df1	0.15245797
139	0xbba9628a	-0.0051692175
140	0x3df6549e	0.12027858
141	0xbdf5e756	-0.120070145
142	0x3d8443e6	0.06458263
143	0x3dd127ed	0.10212693
144	0x3e0d2d20	0.13786745
145	0x3db2fb64	0.08739355
146	0x3db3d6c6	0.08781199
147	0xbe093e50	-0.13402677
148	0x3c59dae7	0.013296819
149	0xbd96b19c	-0.07358095
150	0xbb04e3c3	-0.0020277358
151	0x3ddbc863	0.1073158
152	0x3dfe7a1d	0.12425635
153	0xbd368ddf	-0.044568893
154	0x3e2fe447	0.17176925
155	0xbd712cde	-0.05888068
156	0xbd273030	-0.04081744
157	0xbcbd18c6	-0.023083102
158	0x3d46b952	0.04851658
159	0x3e14d36a	0.14533773
160	0xbcfa2813	-0.030536687
161	0x3db4e7f1	0.08833302
162	0xbe2580b1	-0.16162373
163	0xbe2a2b81	-0.16618158
164	0x3d5827cb	0.052772325
165	0xbaa31f05	-0.0012445158
166	0x3dcdfcd5	0.100579895
167	0x3e11e608	0.14247906
168	0x3e110c3b	0.14164822
169	0xbdb7156f	-0.08939635
170	0x3d83606d	0.06414876
171	0x3d445d74	0.047940686
172	0xbbb51bd2	-0.005526998
173	0xbad91bfa	-0.0016564124
174	0xbd9f7bcc	-0.07787284
175	0x3d2ffafa	0.04296396
176	0x3d94770b	0.07249268
177	0x3e06a618	0.13149297
178	0x3c35344c	0.011059832
179	0xbd2b93f1	-0.041889135
180	0x3d11df27	0.035613205
181	0xbe0c582c	-0.1370551
182	0xbc609b5b	-0.013708915
183	0xbd860730	-0.0654434
184	0x3e198336	0.14991459
185	0x3e016425	0.12635858
186	0x3db88b55	0.090109505
187	0x3cd393f6	0.02582739
188	0x3d57d7ea	0.052696146
189	0xbc4677e4	-0.012113545
190	0x3de8d962	0.113695875
191	0x3ce56b5a	0.02800529
192	0x3d5c6793	0.053809714
193	0xbe0bddb5	-0.13658793
194	0x3d6aa674	0.05728765
195	0xbcb631f1	-0.02224061
196	0x3d3fb770	0.0468058
197	0x3cce64bb	0.025194516
198	0x3e040dbc	0.12895864
199	0x3cc2c354	0.02377478
200	0xbd8c056f	-0.06836974
201	0x3d7802b9	0.06054947
202	0xbd9d8fde	-0.07693456
203	0xbd90a728	-0.070631325
204	0x3dbfefed	0.09371934
205	0x3dde508a	0.10855205
206	0xbd83baf5	-0.064321436
207	0xbd36cb4a	-0.044627465
208	0x3dba788e	0.09105025
209	0xbd94e412	-0.072700635
210	0xbb02f155	-0.001998027
211	0x3c63d9a9	0.013906875
212	0x3c259d05	0.010108237
213	0x3d3806ae	0.044928245
214	0x3d2b85f9	0.041875813
215	0x3ceafa6d	0.028683865
216	0x3dda0367	0.1064518
217	0x3d9e63f3	0.077339076
218	0xbddf9839	-0.10917706
219	0x3dcc0f97	0.09963911
220	0xbd4ba194	-0.04971464
221	0x3dc20d2f	0.09475171
222	0xbd32e4ac	-0.04367511
223	0x3c6c2989	0.0144142
224	0x3d965303	0.07340052
225	0x3dcb3d13	0.09923758
226	0xbd55a742	-0.052161463
227	0xbdef6dea	-0.11690886
228	0x3d80a1ff	0.06280898
229	0x3d0d7674	0.034536794
230	0x3e12738c	0.1430189
231	0xbdcf57a2	-0.101241365
232	0xbc988469	-0.018617826
233	0xbd3abec7	-0.045592096
234	0xbcd1761d	-0.025569016
235	0x3d068fdc	0.03285204
236	0x3d7bae22	0.061445363
237	0x3e10806b	0.14111488
238	0x3cedb9f9	0.029019343
239	0x3c917dee	0.017760243
240	0x3e195beb	0.1497647
241	0x3e1854a0	0.14876032
242	0x3d87e6af	0.06635796
243	0x3d9c67b4	0.07636967
244	0x3dfbe3c7	0.122993045
245	0x3e060e8b	0.13091485
246	0xbe11f56c	-0.14253777
247	0x3bf1f09f	0.0073834206
248	0xbe27380b	-0.16329972
249	0x3d4a3034	0.049362376
250	0xbe098a65	-0.134317
251	0xbd3493c5	-0.044086237
252	0x3d835fe4	0.06414774
253	0x3e047472	0.12935045
254	0xbc8af771	-0.016963692
255	0x3dc48bc5	0.095969714

hidden_layers.5.bias f4 [60]
0	0xbcebd2d0	-0.028787047
1	0xbd4481b3	-0.047975253
2	0xbd37e6c8	-0.044897825
3	0x3caacb2d	0.020848835
4	0xbe15d824	-0.14633232
5	0x3ddb0901	0.10695077
6	0xbddfd98e	-0.10930167
7	0x3b9ef8db	0.004851443
8	0x3e190611	0.1494372
9	0x3c7abf9d	0.015304473
10	0x3da152a2	0.07877089
11	0x3d574609	0.052557025
12	0xbd2886a4	-0.04114403
13	0x3d67c2dd	0.05658232
14	0x3a837291	0.001002865
15	0xbd121c13	-0.035671305
16	0xbc75038e	-0.014954461
17	0xbddc6c4c	-0.107628435
18	0x3cec8cdc	0.02887576
19	0x3c3242c8	0.01088018
20	0x3c60e487	0.01372636
21	0x3d4e3241	0.050340895
22	0x3d311325	0.04323115
23	0x3d8a2d21	0.06746889
24	0xbd6083b7	-0.054813113
25	0xbda9eff6	-0.08297722
26	0x3dabda98	0.08391303
27	0x3e21544c	0.15754813
28	0xbb0cd609	-0.002148988
29	0xbdc38115	-0.09546105
30	0xbd96352a	-0.07334359
31	0xbbe87cc2	-0.0070949504
32	0xbd0f83f9	-0.03503797
33	0xbd458582	-0.048223026
34	0x3da4582f	0.08024632
35	0x3ce39a5f	0.02778357
36	0x3dab5fb4	0.08367863
37	0xbe000a5b	-0.1250395
38	0x3de9a003	0.11407473
39	0x3dea6f0b	0.11446961
40	0x3de5ffe3	0.11230447
41	0xbd81d6d2	-0.06339802
42	0x3df99988	0.12187487
43	0x3aa1682d	0.0012314372
44	0x3da76791	0.081740506
45	0xbdc7a2d9	-0.097478576
46	0x3de89f84	0.1135855
47	0xbd3f113e	-0.046647303
48	0xbd0aeffa	-0.033920266
49	0xbe02bcf0	-0.12767386
50	0x3df3e9cd	0.11909828
51	0xbe0e339a	-0.13886872
52	0x3e0af521	0.13570072
53	0x3d84fc95	0.06493489
54	0x3d68b7f8	0.05681607
55	0xbdd2f050	-0.10299742
56	0xbd8f1332	-0.06986083
57	0xbe0461b9	-0.12927903
58	0x3de89c21	0.11357904
59	0x3da8a78a	0.082350805
