BurgersEquation/Output/2_Train/Data/PINN_state.pt (torch, 265205 bytes, 42 tensors)

hidden_layers.0.weight f8 [40, 2]
000000 20 61 d8 c4 fb 54 e3 3f a0 1f 5d 37 06 e5 98 bf
       0.6041239590295255 -0.02431115830339048
000010 fc dd 2b 7b ed 7d da bf 6f 80 55 66 63 f0 7d 3f
       -0.4139360144467614 0.00730933025383261
000020 cb 46 f9 b2 83 0d aa 3f 20 57 15 16 98 9c e8 3f
       0.05088435706842417 0.7691154891315115
000030 4b 86 e4 52 d7 4e e4 bf d3 a6 8f 11 3d 62 d6 bf
       -0.6346241587636511 -0.34974600520091065
000040 f1 0c 3d 02 45 16 ae bf 30 17 37 8e b0 80 d0 3f
       -0.05876365330052547 0.2578545941181458
000050 8d 87 88 50 d0 a2 c1 bf 3e a7 84 dc b7 b8 b5 bf
       -0.13778118068972525 -0.08484982618088296
000060 12 41 d4 de fe 84 b3 3f 88 5c 31 d0 50 cd e3 3f
       0.0762481016174699 0.6188129488244991
000070 c3 47 c0 6f bc 8c dc bf 50 33 d7 7d 49 01 b8 3f
       -0.4460898486441886 0.09376963922768522
000080 7a 38 a2 63 44 2d e4 bf c9 03 c0 6b ab 9c ce 3f
       -0.6305257745714379 0.2391561771510438
000090 72 66 f4 4b 1d e8 b8 3f 5d a7 fd c4 1a 9f b5 bf
       0.09729178528177743 -0.08445899304720457
0000a0 88 fd 26 30 17 6a dc 3f f9 0c 2d 3f 6d bf ae bf
       0.443975255035149 -0.06005422016326096
0000b0 b7 a1 7d ac 02 15 eb 3f 38 1d b7 c6 d7 86 ac 3f
       0.846314751525873 0.055716269500005244
0000c0 5d ae 95 da 70 0e da 3f 8b 02 71 e4 86 6b a6 bf
       0.40713139864121733 -0.043789115320128046
0000d0 b5 5c c9 2c d4 5c f0 3f 32 75 82 cc d3 04 ae 3f
       1.022663283298056 0.05863057967619979
0000e0 34 dd 7f 06 e9 d9 d4 3f d9 75 18 55 e4 6c 6f bf
       0.3258001864882829 -0.003836103402831564
0000f0 d8 e8 bc 3a dc 9e de bf 99 b6 d3 9a 19 49 54 3f
       -0.4784460614788606 0.0012381315275961423
000100 fc 97 3a 85 e7 82 b1 3f da ee 7b f4 9d 56 e4 bf
       0.06840369227083437 -0.6355733656959857
000110 9a 21 89 88 ed 51 e9 3f 09 f6 d5 69 c5 93 b0 3f
       0.7912509600364956 0.0647548087490223
000120 40 9b b5 1e aa ba cf 3f 07 5e 65 9d ec 3e d9 3f
       0.24788404941065245 0.39446559305858425
000130 7d 9b 92 0b ff 6a ee 3f 33 cb 6d 6c 87 31 c0 3f
       0.9505610681561475 0.12651150507334705
000140 fd 89 1d c9 b9 d0 d1 bf d3 a6 5d f7 83 00 b6 3f
       -0.2783646072404336 0.08594536580281024
000150 b4 6a d1 ec 9e 88 c7 bf 7e 63 58 00 5c 3a c7 bf
       -0.18385683596973978 -0.18146848694666667
000160 b8 7d e0 3e bc 58 c0 3f 8d 40 ad 07 ff 26 a5 3f
       0.12770798750078227 0.04131314247808957
000170 55 38 ad c9 85 47 e2 bf a3 d3 b8 72 f2 0b bb bf
       -0.5712307871815577 -0.10565104771451543
000180 e8 40 d5 04 12 98 db bf e5 71 73 ee f3 2f b3 bf
       -0.431156639785526 -0.07495045253330763
000190 2e 8d 94 77 89 64 d5 3f fc 8f 03 f1 9b 31 b4 bf
       0.33426129033815044 -0.07888197549942783
0001a0 a0 c0 ed 1f 17 71 f2 3f 51 cc 69 47 a4 07 d3 bf
       1.15260994407803 -0.29734141324951674
0001b0 aa e1 e3 2a dd 67 d9 bf fc 43 e4 f9 e2 c4 e4 3f
       -0.39696435154430765 0.6490340119072466
0001c0 39 43 7c a5 92 95 e0 3f ec bf 20 91 bd ed b0 bf
       0.5182584030281766 -0.06612763207590405
0001d0 52 b3 91 9a d0 b8 c4 bf f7 63 a4 fe 28 ff d5 3f
       -0.16189010188409242 0.3436987387408971
0001e0 76 07 c2 69 9d ca d9 3f a3 bc 23 66 2c 7a c4 3f
       0.4029916317741632 0.1599784373024465
0001f0 02 7b 2c b0 c7 43 c9 bf c4 fd 80 f7 72 db df 3f
       -0.19738098242029173 0.497769109442711
000200 a6 7f 04 32 58 e7 ca 3f cb f1 5b bd 4a 8c d0 3f
       0.2101850742556028 0.2585627412043123
000210 d3 ab b9 d4 ae 3a d7 3f cb a9 2a 49 59 b4 bd 3f
       0.36295672201111734 0.116033153880074
000220 a0 d5 7e f1 29 9c e1 bf ef c4 7d a1 51 12 c2 bf
       -0.5503129688938095 -0.14118404755894384
000230 8c a5 7f 9a 9c 72 d6 bf cf ef 73 ae df 40 db bf
       -0.3507453449988922 -0.4258345798150431
000240 78 81 44 a6 82 f3 cf 3f d2 aa 0a 3d ab 19 cc bf
       0.2496188461164015 -0.21953335266638035
000250 69 52 dc e2 4c 5e e4 bf a7 c9 1f e6 74 56 bb bf
       -0.6365112715598801 -0.10678797357812773
000260 82 d1 7f 22 41 73 74 bf 15 17 fa 52 d4 56 dc 3f
       -0.004992727692286871 0.44279964545454337
000270 ef df 63 59 fd 1a d3 bf 2a 65 62 66 c6 67 d2 bf
       -0.298522317214064 -0.28758392332527427

hidden_layers.0.bias f8 [40]
000000 a1 c9 69 ea 44 fa e4 bf ff 67 5c a7 5d 58 c6 bf
       -0.6555504396804289 -0.17457171127244916
000010 d0 ed 62 9b 33 e5 c9 3f 27 cf 06 2d f9 aa e4 bf
       0.20230717742184234 -0.6458707694459677
000020 ec 04 46 b5 c5 3e c2 3f e0 3a a8 95 55 ed cf 3f
       0.14254065848584874 0.24943036849477718
000030 3c d5 57 55 0d 48 b1 3f 96 ee f5 10 38 70 dc 3f
       0.06750567754337039 0.4443493047362862
000040 f6 8a 07 52 20 f4 e3 3f 57 7e 93 ff 51 b8 c7 bf
       0.623550567830846 -0.18531250933937102
000050 c6 f2 e6 a5 ec 5c e0 bf 55 ba 48 7f e7 b6 d4 3f
       -0.5113433113361558 0.32366359167182185
000060 84 63 d3 dd d4 c7 d1 bf e2 b6 6b 22 34 3c dd bf
       -0.27782174742383625 -0.45679953919794347
000070 62 d0 5c 2e 67 1e dc 3f 11 af d8 9e df d9 d3 3f
       0.43935565497964124 0.3101729441866477
000080 88 ac a6 fc 11 d1 d2 bf 3f 6a 87 7c c5 fa d5 bf
       -0.29401063607173983 -0.34343087349921925
000090 8d c3 d0 2d 36 6a d5 3f cc c1 01 bc 7c c2 d8 bf
       0.3346076438347659 -0.3868705593113446
0000a0 ce c2 bd 34 55 cc d1 3f 69 52 3d 9a ed ef d3 bf
       0.27809648657334385 -0.3115190511937614
0000b0 05 5d 95 0e df 75 d8 bf 53 a9 ef 16 71 81 cd 3f
       -0.3821942942062864 0.23051274890833415
0000c0 09 ae 72 7d 43 17 dd bf f3 a3 93 5f 5f 7b d5 bf
       -0.4545448994710744 -0.335655062996522
0000d0 d2 ec 14 07 c5 a5 da 3f d3 dc 91 40 6a 61 da 3f
       0.416367775836716 0.41219574266092457
0000e0 bc 40 d4 16 ad 45 e1 bf dd 04 c3 96 8f 17 c1 3f
       -0.5397553869134053 0.13353152142921135
0000f0 e6 f1 0a 1c 57 bd e0 3f 70 89 8d cb 4a 38 e6 bf
       0.5231128261289626 -0.6943716025964886
000100 8f e4 11 fd ed 86 e3 3f 79 ba 40 e5 52 2d db 3f
       0.6102209036609042 0.4246413458630865
000110 ad 65 aa c1 f5 f5 e5 3f 72 c0 33 89 32 99 e7 3f
       0.6862744123965762 0.7374508552293391
000120 cc a8 25 63 91 b3 e2 3f 1b 43 a6 e9 e9 a4 d2 3f
       0.5844199120013172 0.29131553475694866
000130 a2 f4 da 02 f6 2e d9 3f 5d 76 14 a0 87 c4 e4 bf
       0.39349127081715995 -0.6489904524384645

hidden_layers.1.weight f8 [40, 40]
000000 01 98 97 af 44 9d c1 3f ec 90 e3 ce d4 58 a1 3f
       0.13761194776378718 0.03388085389613757
000010 5e 9a 95 08 ad 9c 97 bf f5 59 c1 d2 58 65 c2 3f
       -0.023058608674001106 0.14371786394867994
000020 f5 67 85 81 0c 36 79 3f 47 56 7f 61 67 4e 65 bf
       0.006155060626349841 -0.002600862422677239
000030 b1 8f c3 13 37 da c5 bf 87 12 ef b6 7c cf a8 3f
       -0.17072189774546367 0.048458001452250925
000040 97 45 14 0d 22 d3 c4 3f 26 cb ad b5 d6 01 81 bf
       0.16269326819069072 -0.008304288310431906
000050 f1 98 6c db b8 c4 b8 bf a7 71 9a b0 36 fe be bf
       -0.09675174099956842 -0.12106649219135211
000060 81 c9 34 66 ae 5b e6 bf aa 90 6d a6 9d 29 fb bf
       -0.6986915584769094 -1.6976601124852473
000070 6f 41 3f 9e 5a 66 78 3f ee e0 13 de 0e 81 e1 bf
       0.00595698735919857 -0.547004159684574
000080 f5 15 da 75 ac 39 b0 3f e6 5b 28 14 40 ef d3 bf
       0.06338003041499703 -0.3114776799060891
000090 b8 dd e1 a5 c5 5a c4 bf 55 92 01 8a e7 54 d3 bf
       -0.15902014350625193 -0.30205715634500524
0000a0 50 22 d5 fd bf e0 d4 3f c7 49 bd 7a 92 c4 b6 3f
       0.32621764934859687 0.08893695351188234
0000b0 6e 1d bf 5c 59 4b bf bf 29 16 c5 cc e1 41 b5 bf
       -0.12224348558730977 -0.08303653001083745
0000c0 c2 a8 f7 7f 18 cb c0 3f ef 37 12 26 83 63 c1 bf
       0.13119798897179719 -0.1358493743795743
0000d0 2f e4 3c dc 3a a9 b4 3f ea b4 ae da ae c5 a0 3f
       0.08070724369908143 0.032758201784739274
0000e0 27 2c 0d a4 21 67 c0 bf 26 fd 1a 9e e0 5b b6 3f
       -0.12814732084584188 0.08733943805690511
0000f0 69 2f fd c3 66 76 b8 3f 4a 9e 07 2c fa 1f b4 bf
       0.0955566624153882 -0.07861293387360849
000100 f8 46 5f 54 a4 12 a6 3f b1 79 f7 8b fb 9b b3 bf
       0.04311097650464818 -0.07659885565906312
000110 90 4d 7e 49 0e a6 b2 3f ca 1a d6 29 fe ae c2 3f
       0.07284631056091073 0.14596535723486276
000120 88 85 6a b2 c3 21 8c bf 30 41 df 52 de ff d0 bf
       -0.013736275560691139 -0.2656169709489573
000130 67 7c 8e 83 c4 a1 a6 bf 0b 22 82 c3 ab 3a b5 3f
       -0.044202939089921504 0.08292649768021236
000140 16 f5 b1 99 2b e1 c1 bf ba 68 29 2c 12 d6 89 3f
       -0.1396841526474552 0.012615339253148828
000150 1c ee f6 93 98 fd b0 bf 3c b8 66 27 20 55 9a bf
       -0.06636956798950461 -0.02571535339819085
000160 15 88 7f 09 07 08 c3 3f 90 0f d5 e8 ee 51 99 bf
       0.14868247951295702 -0.024726613007501508
000170 6a a8 74 19 67 c8 c5 bf f7 60 1b a2 96 25 b3 bf
       -0.17017830603555534 -0.07479230363549393
000180 92 c2 3b da e1 c9 b2 3f 1e 44 a9 28 6c 74 be bf
       0.07339297845806872 -0.1189639663000581
000190 3b 46 d7 36 8f 92 b5 3f 52 8f 9b 7d 33 34 a4 3f
       0.08426756943597351 0.03946076305672243
0001a0 21 9e 52 47 10 f9 b0 bf ae 90 48 45 38 60 cf bf
       -0.06630040875699496 -0.24512389548283892
0001b0 0d a4 3d 08 17 b1 be 3f bb 23 7a 49 85 66 c6 bf
       0.11988967848959949 -0.17500368201970481
0001c0 52 7b e3 37 c2 b9 95 bf 5a 50 c4 d3 58 29 c9 bf
       -0.021216425572556936 -0.19657430973222995
0001d0 88 3f 54 8d 5a e7 aa 3f 92 17 7f ab e5 0c 92 3f
       0.05254633879860565 0.0176273237155083
0001e0 d3 95 37 4d 7f 3f b5 3f 2f 62 f4 86 98 b4 a8 bf
       0.08300014147933803 -0.04825283667941382
0001f0 af 06 c8 36 45 b9 a6 3f a8 44 a1 d6 5d 9b 95 bf
       0.04438225072591472 -0.02110048887727048
000200 4c c8 ea d1 ab c2 b1 3f e7 49 e8 1c ec a0 10 3f
       0.06937669634751947 6.343308562176791e-05
000210 15 5e 3e 66 d1 e1 b2 bf 2a f7 46 2b 1b 5c b2 bf
       -0.07375820871526913 -0.07171792799541934
000220 34 6f b5 1d 5d 80 cd 3f d3 d0 1d b1 8a f8 c3 3f
       0.23047985029813278 0.15602239273324034
000230 4f 56 ff e7 bd 72 af 3f a4 86 d6 ca 0e 06 ca 3f
       0.061422285623547006 0.20330986885260416
000240 8f 81 25 29 86 1d ba bf 1f 99 c0 cc d3 ea c0 3f
       -0.10201300148538038 0.13216636178658178
000250 91 b5 97 54 d2 7b 7d bf 3b d3 f4 70 62 da b6 bf
       -0.007198163607865197 -0.08926978357051223
000260 b1 21 a4 0f 58 37 c1 bf 84 c1 0d 51 6b 18 aa bf
       -0.13450146449782843 -0.05096755375314202
000270 f5 47 e8 8e 5b 66 94 3f ce 7b 8f f8 94 c9 b7 3f
       0.019921713445064843 0.09291964596148647
000280 91 48 10 52 29 77 b9 3f a8 8f 68 6a 0a 71 b1 3f
       0.0994745087957958 0.0681311139856563
000290 43 ef bb 90 24 72 b1 3f a5 8b c0 2f 73 e6 bf 3f
       0.06814793141887514 0.12461013713668352
0002a0 a2 51 08 a3 fa 39 c6 bf 9f e9 05 4d 82 21 b4 3f
       -0.17364438019343448 0.07863630657622032
0002b0 7d 93 83 bf dd 98 81 3f 9e c0 6a f5 b4 26 c2 3f
       0.008592350394289511 0.14180623992206604
0002c0 ce 12 7b db 70 51 8d bf f1 8a cc d6 d3 db b2 3f
       -0.01431549234201537 0.07366680139652339
0002d0 b6 66 aa c7 fd b9 b7 bf f3 31 1d 64 9b a5 dc bf
       -0.09268175243996776 -0.4476078488994794
0002e0 22 a0 6c eb 2f ae d5 bf 71 ea 4f 0e b3 b6 bc 3f
       -0.33875654211670014 0.11216277217310179
0002f0 8c b6 78 7d d5 c5 90 3f d1 45 d2 1b 34 72 d6 bf
       0.016379676612067004 -0.3507204314892905
000300 a1 34 33 f1 b3 30 ab bf 8d 57 47 ee d5 ac a4 3f
       -0.05310594863258556 0.04038113149333276
000310 60 09 26 62 e4 a7 9e 3f 1c 56 c5 c2 1e 1d e0 bf
       0.029937332621110868 -0.5035547069662161
000320 cf d0 06 e1 11 c4 b1 3f f8 6d d7 d5 ea 51 b6 3f
       0.06939803832830481 0.08718745918979909
000330 2f 5a 20 e4 39 62 c0 3f 0c 60 31 a6 25 15 c1 bf
       0.12799762381537635 -0.133457857273925
000340 95 df 20 ef 35 48 b9 bf 94 8b 5b c9 2d 14 c0 bf
       -0.09875809753509508 -0.12561580974496833
000350 75 64 ee 9e 46 c0 d4 bf 39 59 49 dc 7f 11 bf 3f
       -0.32423558731677043 0.12136077049340067
000360 fa c2 d3 67 74 9e d5 bf 16 69 98 ab 47 c5 ca bf
       -0.3377963079392853 -0.2091455066554963
000370 3f 00 fd a5 76 55 ca bf 0b 6e 76 e1 9e e6 ad bf
       -0.20573313813111047 -0.05840012075642783
000380 d8 2b 99 bf d3 e0 a0 bf 35 be fd 93 29 13 d0 bf
       -0.0329652949700045 -0.2511695809580233
000390 85 a6 ee 27 c2 f4 b9 3f 08 f7 cc fc 4b fe a5 bf
       0.10139096712978286 -0.04295575581498495
0003a0 20 d9 bd d3 63 3a b3 3f fe f1 cd aa 80 66 be bf
       0.07510970992538946 -0.11875156564742181
0003b0 a3 22 a7 44 b2 d6 a0 3f 7b 29 40 3a 82 95 46 3f
       0.03288800323531873 0.0006892095448177005
0003c0 83 0e fe 63 73 bd c0 3f 6e 55 e2 9c 2d 9d c6 bf
       0.1307815778965172 -0.17667169723851422
0003d0 62 01 f4 32 00 bf b6 3f f1 45 47 67 c1 19 b9 3f
       0.0888519405743913 0.09804924746938305
0003e0 80 13 80 c9 d9 cb b7 bf 8b fd e5 c4 79 ce a8 bf
       -0.09295426530304773 -0.048450284276437015
0003f0 44 c4 fe cc ad 8e af bf 96 47 c5 8c 98 f5 af bf
       -0.06163542868979069 -0.062420623001016626
000400 50 85 8f d3 f9 e6 d2 3f f1 7c 74 d5 36 bd b1 bf
       0.295347649194885 -0.06929342948250274
000410 d4 1c 66 8e b6 98 a5 bf f8 03 6e 26 b9 1d c6 bf
       -0.0421807335688357 -0.17278208137943785
000420 1f 3a 57 ab d2 d2 c8 bf ce 99 e6 7a 2c 7e c3 3f
       -0.19393380514380085 0.1522880172826277
000430 97 6f 3c 1d 76 4c b5 3f 6b 83 56 df 05 a1 d3 bf
       0.08319795812388829 -0.3067030602488134
000440 b2 71 8b 44 c3 98 c2 3f 3a 61 54 ae 83 2c d7 bf
       0.14528694960507732 -0.3620919420659622
000450 4f 05 a4 f5 3b 17 ce bf 14 2a f4 cc 66 41 b9 bf
       -0.23508405203032587 -0.0986541986823471
000460 48 99 f1 fb 42 4b cc 3f f6 f0 66 ef 78 89 c1 3f
       0.22104680349293404 0.1370078247981678
000470 5b 08 63 62 b4 df a8 3f d9 d5 52 d0 bd fe c1 bf
       0.048581730852234904 -0.14058659240769947
000480 f2 15 c6 97 73 20 79 3f 78 a4 30 d4 ba 07 c1 bf
       0.006134463820108392 -0.13304839478340447
000490 e3 da 77 59 c5 0b ce bf 09 67 92 05 b7 86 a0 bf
       -0.2347342192512861 -0.0322777933408372
0004a0 51 7b 63 2f b9 ab c9 bf 6c fa b6 bc b4 65 71 bf
       -0.20055308164497856 -0.004247385029371924
0004b0 1f 8f 71 81 7a 04 ca bf 69 bc 66 17 45 59 a3 bf
       -0.203261674122694 -0.037790450197797316
0004c0 81 d9 a5 40 69 3c 9d 3f d1 8d f2 6e d5 d5 ae bf
       0.02855076272086299 -0.060225171845811006
0004d0 37 1a b8 8b 6f 2b ac 3f 3e 08 db 28 cc e5 af 3f
       0.0550188882880786 0.062300090777640524
0004e0 3d b3 12 e9 8b 6e b7 bf 36 12 08 1a 71 ed d2 bf
       -0.09153055610904644 -0.29574229757443804
0004f0 e9 e0 74 8f b3 72 b6 bf ea d4 dc d8 85 e8 aa 3f
       -0.08768770458562226 0.05255525848625971
000500 67 7d 66 80 d1 2f bd bf 3e 72 cd a7 51 91 98 bf
       -0.11401090035223192 -0.02399184786496477
000510 05 a4 c6 85 3f 92 ab bf 25 e8 90 da d2 6c b0 3f
       -0.05385015972144206 0.06416051708302513
000520 a9 18 37 5a 7c fb c2 bf af 0d 04 0e bf ed bd bf
       -0.1482997360710148 -0.1169089707582802
000530 37 b7 1b 1b 25 63 a4 bf c4 7c 89 29 29 94 c7 bf
       -0.03981891590033942 -0.18420900848557242
000540 c6 32 c0 32 e2 88 b5 bf 00 00 2e 46 e1 1e c0 3f
       -0.08411992777855479 0.12594238211386255
000550 b5 8c fb d4 52 af c2 3f 9b 05 41 90 d5 3f cf bf
       0.1459754505113772 -0.24413556617404883
000560 28 ca 60 4d 86 65 a1 3f 4a 8c 06 50 77 95 c3 bf
       0.03397769636685083 -0.15299884231089528
000570 0d 91 e7 bd 9d 22 bb bf 7c f1 c1 02 24 0b b4 3f
       -0.10599695097295499 0.0782949930889511
000580 31 d0 fb 1d eb 0e c1 3f f7 d2 de cc 87 3a c5 bf
       0.1332677742390174 -0.1658487081855566
000590 5c 29 07 ee cd f4 c4 bf 36 78 da f8 2a 5c a9 3f
       -0.1637208378072711 0.049531309964763556
0005a0 eb dd 8c d6 d5 74 ad bf c6 44 53 4b da d2 ba 3f
       -0.057532007637231285 0.1047798570537167
0005b0 9a c4 ab 3c 95 15 be bf f3 9c c4 ef 04 3d ab bf
       -0.11751682978844472 -0.053199915188366996
0005c0 07 65 bd 24 87 f0 ad bf f0 2d 4b 1c 94 42 8e bf
       -0.058475707278100635 -0.014775426019148136
0005d0 07 13 3e 94 4b e4 a7 3f 8d 31 c4 1f d1 fe ad bf
       0.04666362938499984 -0.058584723594410006
0005e0 77 1c b3 bd f4 a3 ca bf 4e 23 79 de f7 24 b2 bf
       -0.20812854063681005 -0.0708765905520867
0005f0 04 f9 cd aa 5a 99 b7 bf 32 d7 43 4f bb 5b b3 bf
       -0.0921837489131328 -0.07561846432858202
000600 6b e9 3b f8 61 6e c6 bf a2 89 88 21 5e 4c b2 bf
       -0.1752436124878146 -0.07147777861295038
000610 38 f2 6a f3 60 f7 b4 bf a5 f3 fd 60 bf 40 cd bf
       -0.08189969961944932 -0.2285384391397233
000620 07 a2 1e 96 77 b5 91 bf 3e 59 12 2d cd a0 bb bf
       -0.01729380468137445 -0.10792238569624588
000630 81 b2 d0 9e 77 99 c5 bf 44 97 89 0c 0b dd a1 bf
       -0.16874594931268308 -0.034889550476505465
000640 c8 68 d4 f5 5e 26 c1 3f 66 84 0f ea fe 88 b6 bf
       0.13398348811535343 -0.08802788938875636
000650 d6 d1 a0 08 bd a4 a4 3f ec cc 19 38 a6 b2 a0 bf
       0.04031935434651117 -0.03261298594306958
000660 6a 20 5d eb 5b c7 c5 bf c8 da f8 75 0f 2d c1 bf
       -0.17014645569202297 -0.13418763409000278
000670 ab c2 7b 73 99 13 ab bf a4 5b e3 2b a2 8e c2 bf
       -0.0528839066954608 -0.14497782843565432
000680 8a 15 f9 f0 9c 47 c8 bf 7b 49 38 7e 47 93 c3 3f
       -0.18968545690783528 0.15293210661964082
000690 ed 9a 05 23 e5 aa b2 3f 77 a4 a9 45 d7 20 c5 bf
       0.07292015175844897 -0.16506472493646004
0006a0 41 15 a2 b0 e7 8f c0 bf e3 6f be 1e 89 63 a2 3f
       -0.1293916332689751 0.035915646555821266
0006b0 fd aa bb 96 39 b7 ab 3f 94 68 9f cf eb 40 c0 bf
       0.054132270479234613 -0.1269812358648933
0006c0 be c3 f0 a1 70 7c b1 3f 7d 78 eb 88 81 73 a1 bf
       0.06830505326867262 -0.03408436581024519
0006d0 f8 59 a6 d2 45 5d b4 3f c3 69 83 42 c6 7b c1 3f
       0.07954822914903292 0.1365897965213901
0006e0 45 85 ee 84 21 ac a0 3f ae 48 50 77 ba 9d b3 3f
       0.03256325481130288 0.0766254941266051
0006f0 e9 a1 52 5c 3f 0a a0 bf ae a2 64 56 33 62 b2 3f
       -0.031328182239409426 0.07181092127997132
000700 c7 37 e5 52 ae a4 58 bf a2 f8 01 e8 f8 7a b4 3f
       -0.0015041067486722835 0.08000140823603144
000710 de b5 2c 8b 87 b8 b2 3f 69 86 eb 19 de 06 b5 3f
       0.07312819621866803 0.08213604100049
000720 52 ac 1e 94 76 30 b9 bf e1 7b d7 a9 57 03 ba bf
       -0.0983957397099158 -0.1016135015156432
000730 90 52 08 97 9d 9e 76 bf 26 08 3d e0 b1 62 a8 3f
       -0.005522361360381325 0.047627981779911274
000740 36 00 0b e9 38 b8 c8 bf 48 e4 7b 0f 7a 0d b9 bf
       -0.19312201861430517 -0.09786188962961362
000750 ee ca b4 fa c4 55 99 bf 50 6b 47 af 11 4a 68 3f
       -0.024741246988194847 0.002965006389997006
000760 59 bc 1d 27 53 6d a3 bf 33 db 6e 47 1e 10 b9 bf
       -0.037943457150384226 -0.09790219539614213
000770 b1 ba 7c fd 5e 1f b9 3f 69 42 e7 af 06 ec bb 3f
       0.09813493431713984 0.1090702228023105
000780 bf 46 ba 31 43 a4 c2 bf 49 4c 3e bc 33 9b b3 bf
       -0.1456378929911377 -0.07658694597039174
000790 4a 15 7e 2b 0f 0d ac bf 32 50 ba 46 45 48 ad bf
       -0.05478713422693689 -0.05719200600029274
0007a0 6f f5 0a 8f 05 f8 9f bf 0f 61 6e dc 19 c6 c0 3f
       -0.031219565253868205 0.13104556334725045
0007b0 98 15 1f 96 e1 1b a9 3f e8 d7 93 da 5d 50 c4 3f
       0.04904084165131478 0.1587025944970144
0007c0 bd 32 4e 19 dc d4 c8 3f c9 b4 ab 94 87 60 b2 bf
       0.19399596438997505 -0.07178542499214581
0007d0 d6 1f c1 e0 85 57 7e 3f 3d 5d 8f 11 25 1f cd bf
       0.007407687149743899 -0.22751296384260825
0007e0 01 65 f3 e3 41 70 e0 bf 92 49 fd ee 41 2d b1 bf
       -0.5137032940066605 -0.06709682545377962
0007f0 b5 8f 28 5c 68 e6 c5 bf 2a ad 85 6e 25 be d6 bf
       -0.1710939836494824 -0.35535560410672196

hidden_layers.1.bias f8 [40]
000000 c8 75 5f 5c 03 d7 bf 3f b4 59 f4 f3 0a d4 c3 bf
       0.12437458996961148 -0.15490853225555912
000010 ed 84 29 89 a0 e6 bf 3f d0 f9 5c 5d 37 48 c4 3f
       0.12461284016309877 0.15845386561154706
000020 07 8d a0 43 91 af bf bf ec 74 b4 65 2e 7d b7 bf
       -0.12377269650510324 -0.09175386412649161
000030 2f 9f e8 ee f0 28 c6 bf 10 2f a1 1b 31 a7 c3 bf
       -0.17312442460501518 -0.15353978966810944
000040 81 ff 1a 8b 3a 84 bd 3f b8 cc cb 02 3e a0 b7 bf
       0.11529889961366104 -0.0922888523889921
000050 3f dc 79 8d b4 8c b7 3f bd e3 cf 5f cd ed bb 3f
       0.09199074224476166 0.1090973242679771
000060 f6 25 8f 64 0a fb b6 3f 82 b2 17 e5 31 81 c2 bf
       0.08976807551439223 -0.1445677155128529
000070 fd 65 7c 1e 7a c3 c1 3f 3d 93 cd e8 c7 b9 ae 3f
       0.13877798546381817 0.06001114575227582
000080 e8 44 10 81 2e a3 b0 bf a3 81 e7 0f 65 6e b5 3f
       -0.06498995448079692 0.08371574056901081
000090 8d 3c 5a d0 b6 d4 b1 3f 12 9d 1f fb cc 79 b4 bf
       0.06965200983744264 -0.0799835312933406
0000a0 42 18 ce 19 6d 08 b4 3f 2d 47 5c fc b9 d9 c0 bf
       0.0782535732269887 -0.13164448568618906
0000b0 11 91 b8 27 24 81 9c bf 80 8f e1 6f 10 59 c0 3f
       -0.02783638470113298 0.12771802390045295
0000c0 fc 65 3d 01 08 a5 80 bf b0 17 53 a4 ce 77 af bf
       -0.008127272165142856 -0.0614609313575295
0000d0 48 19 f0 40 ef 44 c7 3f 62 72 a7 51 2d a6 cc 3f
       0.18179121657176212 0.22382132040992803
0000e0 98 2a 4c 16 f6 45 67 bf 90 20 de 02 a4 6e c0 3f
       -0.0028409773243585727 0.12837648525260592
0000f0 0e 07 45 9d 91 e8 a8 3f 8c d6 b2 ff a8 22 b9 bf
       0.04864935917659184 -0.09818512194291368
000100 a5 b0 62 2c e5 91 b9 3f 2e f9 7a b0 1f e6 90 bf
       0.09988243421202243 -0.016502852579599984
000110 64 a9 88 74 81 c8 c4 3f 45 a5 ee 3c e2 46 a4 3f
       0.16236894788864753 0.039603300035489876
000120 69 29 98 0d 6c 6c b1 3f 92 1d a7 bb 52 0e c4 3f
       0.06806063968557442 0.15668710863813523
000130 4a ed de bf eb 56 63 3f 44 fb 2a 87 e0 e9 bf bf
       0.002360783050759406 -0.12466243076322053

hidden_layers.2.weight f8 [40, 40]
000000 58 72 f6 b0 ce 2f b2 bf e9 ff 77 3e 3a ae d3 bf
       -0.07104198284509644 -0.3075090036436437
000010 56 00 c0 10 0d 04 c4 bf 4f cc 15 52 fd 49 d4 bf
       -0.1563736278330931 -0.31701596275451477
000020 bf a0 ee 1b 8b ef b2 3f b2 85 c2 af 74 eb b7 bf
       0.07396764213501948 -0.09343652049076104
000030 ab 05 a9 48 95 3a b6 bf 8f d2 56 cf 13 2f c3 3f
       -0.08683140777522762 0.14987418769819214
000040 0f f6 7c d3 03 a7 8b 3f e8 01 96 ea 5a 9a ca bf
       0.013502149478536144 -0.20783554510491276
000050 14 cf eb 40 bb a0 d7 bf 1c 0c 4d e1 c1 32 c1 3f
       -0.36918526973680454 0.13436149121307117
000060 98 9b 72 a9 3f f1 c4 bf b8 70 ba 48 c5 a4 b3 bf
       -0.1636123254185946 -0.07673295045464357
000070 5c 87 0f f8 9d 13 b8 3f df d5 e2 1c a9 78 a7 3f
       0.09404933267754018 0.045842442299015344
000080 72 73 1c 97 21 02 a0 bf 71 e1 dd 88 4f 38 89 bf
       -0.03126625985735289 -0.012314435352650506
000090 fc 71 a0 60 5d d8 c4 bf 8a 5b c4 10 72 6c b6 bf
       -0.16285292833426002 -0.08759224805213087
0000a0 65 5b c9 d3 03 ae a2 bf 90 1a f6 a5 85 df b3 bf
       -0.036483878710604135 -0.0776294260195789
0000b0 b5 7d 02 75 2e 16 c3 bf 6c 62 15 0c 78 3d 85 3f
       -0.14911442483297113 0.01037114893795029
0000c0 3d 4f 15 4e e7 bc b7 bf 48 45 49 b9 08 24 bd bf
       -0.09272618919686422 -0.11383108638371653
0000d0 29 53 02 1e 91 34 b1 3f 5a bf 7b 2a fd 3d ca bf
       0.06720835669177617 -0.20501675199875075
0000e0 f7 b1 b9 4a 4f 8f ce bf 71 ae 86 b3 ac 22 bd bf
       -0.23874846600246233 -0.11381034262620361
0000f0 0b 1b 15 0d 9a 50 a4 3f 59 61 40 a8 ed 12 be bf
       0.03967744264314462 -0.11747632367803841
000100 16 6b 56 be 12 0e c6 bf 1d 03 ea df 39 e7 c1 3f
       -0.17230448049380048 0.1398689597445121
000110 a5 c1 65 e2 67 31 a3 3f 77 f9 58 48 8e af d7 bf
       0.03748631132737338 -0.37009007516089504
000120 a1 08 2e 83 54 c1 ac 3f 67 90 ac b1 c4 32 bb bf
       0.05616249181095268 -0.10624341333147101
000130 ea 2e 66 7a ab 98 a9 bf 0f c8 6c 51 bc 2f c6 bf
       -0.049992903415015125 -0.17333177543474718
000140 19 01 99 9c 4b e8 69 bf d0 68 b0 7d 55 92 ca bf
       -0.0031625248709873485 -0.2075907577244096
000150 32 dd 9f f3 27 67 be bf 5b c8 12 5c c6 72 bf bf
       -0.11876153657782565 -0.12284507511029245
000160 c7 9b 99 c5 e6 32 b5 3f c1 bf 72 97 c2 50 b9 3f
       0.08280794452876626 0.09888855168787726
000170 7d 37 09 19 de c3 92 bf 20 1e b4 4a 11 de 96 bf
       -0.01832530048186908 -0.02233149546102997
000180 b7 ee 7f 1c 6a 9b b4 3f a7 da 59 ca b8 ee b9 bf
       0.08049643703264563 -0.10129885616502553
000190 f6 ba fa 63 66 ed ac bf d3 e3 51 d7 3b 4a c0 3f
       -0.0564987179799256 0.1272654343954672
0001a0 63 45 cc e1 03 0f b6 bf 5e 43 a1 7b 3a 41 c3 3f
       -0.08616661322255008 0.15042811428659325
0001b0 b5 08 f9 30 bd 3b c9 bf a2 e6 8d 9e d2 c2 69 bf
       -0.19713559046983212 -0.003144656530307114
0001c0 90 cd eb be 1a 60 c3 bf c4 e7 35 ea 59 f7 b6 bf
       -0.15137037584609603 -0.08971178024321974
0001d0 dc c4 86 ed b5 ee c7 bf 26 a7 ba 0d 87 ec c4 bf
       -0.18697237108202713 -0.16346824808470578
0001e0 0d 23 f7 1c b1 16 c0 bf 35 82 af 3e 52 4f c3 bf
       -0.12569250025105597 -0.1508581930238663
0001f0 fc 95 a8 2c 00 6b 9d bf fb 5b 2a c3 9a 6f a4 bf
       -0.028728487706890946 -0.03991397507086699
000200 cb f2 1c 31 4c 30 c5 bf c3 02 de 26 f6 92 b6 bf
       -0.1655364265260658 -0.08817995499522184
000210 22 16 a8 50 68 9d 9a 3f 4b 01 e8 58 47 8f ab bf
       0.025991086886298594 -0.05382750473291028
000220 b0 7b 36 26 bb 7b ae bf 10 f5 6d bb 9d df b4 bf
       -0.05953774301018855 -0.08153711152950316
000230 60 dc 4a 24 36 24 c9 bf bd 56 e7 be 76 49 90 3f
       -0.19641758701411316 0.01590524234946743
000240 21 bd 78 99 44 a1 a2 bf f7 4a fb df 54 c3 be 3f
       -0.036386626943903495 0.12016802280713167
000250 2c fa 84 b3 40 27 aa 3f 98 72 fd 6c f9 bc ad 3f
       0.051080724634165214 0.05808238463825893
000260 81 49 22 d2 f3 d1 ce 3f d6 73 99 46 e4 91 b2 3f
       0.2407822395367241 0.07253863071078057
000270 49 4b 43 99 83 e4 c7 bf 0b fd 6d cb 90 0c ac bf
       -0.18666119559801533 -0.054783367951126115
000280 cc 46 a9 fb cb 89 a2 bf 24 9a 4b 50 27 a1 b3 bf
       -0.036207556219449794 -0.07667775831541995
000290 14 6e 0e 4f 6d fa 9c 3f 77 07 68 78 cd 04 af bf
       0.028299053144662592 -0.06058351607136008
0002a0 71 21 07 46 17 38 c4 bf 09 73 48 ec 23 68 bf 3f
       -0.15796175879792032 0.12268280523899135
0002b0 87 c7 58 0f 2b c3 96 bf 4d ab 05 32 41 e0 a5 bf
       -0.022228882610029223 -0.04272655234929932
0002c0 ad 42 c7 cb ad 13 b5 3f d1 f3 d4 bd 09 07 b0 bf
       0.08233152604158063 -0.06260739216391122
0002d0 8f 6d 01 02 6f c3 a8 3f 6d c9 63 f5 3b 2f 83 3f
       0.04836604022485879 0.009367435861780316
0002e0 06 ad 41 e1 6d 4d c6 bf 6b 0e bc a9 7a 6d b3 bf
       -0.1742379522214394 -0.0758892692938901
0002f0 56 dd 91 1f 67 78 a0 3f bd ea f6 ab 50 d3 66 bf
       0.03216860065816245 -0.0027863097781993516
000300 28 f3 ea 45 2b 20 a7 bf 7c bc a1 ee b1 17 b0 bf
       -0.04516730526436269 -0.06286155773135421
000310 30 30 0d 31 85 a3 c1 bf 5b 89 de b7 c1 b2 c0 bf
       -0.1378027429112776 -0.1304552219199405
000320 27 2e b9 c0 03 30 b8 bf 01 bf c2 ec 1c 11 b2 bf
       -0.0944826455608384 -0.07057362346926867
000330 72 ee 2f 20 7e 8f c0 bf 27 4f 55 25 93 14 b0 3f
       -0.12937904903070635 0.06281394635635405
000340 f6 b1 95 5a dd f9 b0 bf 62 ca 02 25 8a 5f 82 3f
       -0.06631263219396274 0.00897128987739854
000350 62 59 83 65 e2 43 ba bf 0f 09 54 da a2 d6 94 3f
       -0.1025983331522631 0.020350021911334667
000360 66 dd 93 ee 3a 91 8b 3f fe 04 44 4f 66 c8 a5 3f
       0.013460598378954369 0.04254455297087566
000370 4e f3 a6 11 e5 1f b3 bf 5e 2f b3 25 f6 5c bb 3f
       -0.07470542603455252 0.1068872301140664
000380 a5 7a b7 3f d9 fe c3 bf 70 3c 59 57 36 55 b0 bf
       -0.15621486292999012 -0.06380023605855611
000390 e5 72 a9 97 67 26 a6 3f df 5e 2f c9 d5 11 b3 bf
       0.043261754287163424 -0.07449089204544233
0003a0 a7 64 0e 63 72 30 af 3f 2c 5c eb 5f 22 19 8f bf
       0.060916494933914316 -0.01518465857718184
0003b0 56 20 c7 30 2b 82 a1 3f c9 fb 5e 2f 13 35 ba bf
       0.03419623346741278 -0.1023723593379905
0003c0 a4 34 61 e4 2e 80 b6 3f f6 6e a3 26 64 d2 c7 bf
       0.08789341998745442 -0.1861081303276177
0003d0 c2 a9 8a b6 10 67 b0 bf 2a 5a 39 bf 9c 38 b0 3f
       -0.06407265144904442 0.06336383503489942
0003e0 d0 29 c4 6e 65 f0 b2 3f 20 a0 77 d8 2d 2c b8 3f
       0.07398065523390263 0.09442411932798267
0003f0 79 b3 f0 59 f8 46 a1 bf f6 e7 32 b0 1f 88 8c bf
       -0.03374458406356146 -0.013931510510122518
000400 fd 36 79 b1 17 e7 b7 bf 9c 2d 8d 30 a8 19 a4 bf
       -0.09336994250153548 -0.039258247305578226
000410 cc c2 05 a6 a4 b0 8b 3f bc e0 4d e0 38 57 9f bf
       0.013520513836483693 -0.030606163683359652
000420 63 9c b1 ed 42 17 c2 bf a4 a7 fb 3d c4 b0 87 3f
       -0.14133488279478276 0.011567624227115499
000430 1f c2 ea bd 52 2e a7 3f de ce d4 25 99 08 cb bf
       0.045275293048124825 -0.21119989726286453
000440 e8 81 23 51 df e0 8a 3f d8 18 9c dd ad 1a b8 bf
       0.01312422243467011 -0.09415709171671283
000450 1d e5 7e b2 fa 0f c6 bf 5d 6d 12 55 ec 34 cb bf
       -0.17236264911279245 -0.2125525870695623
000460 97 14 91 8d 3d 7d b9 bf 84 aa 67 e3 7a 7a c1 bf
       -0.09956726747721444 -0.1365502939582549
000470 0c 5a 36 47 19 a4 83 bf 40 a3 1c 4f e2 24 c4 bf
       -0.009590337262847214 -0.15737561095127184
000480 8e a8 95 1d a2 1a bb bf 86 4c 3e f7 4b 4d ad 3f
       -0.10587514135628082 0.05723035233600009
000490 e3 90 37 9c be 53 cb bf 50 04 d4 92 8e 04 ca bf
       -0.21349318149362437 -0.20326406640382055
0004a0 cc c2 f3 41 fa 41 c8 bf 38 df f9 43 d3 4c b5 3f
       -0.1895134756118949 0.08320351037570795
0004b0 5c 56 38 41 e8 e4 c0 bf 34 f0 18 79 ee 50 80 bf
       -0.13198569473813648 -0.007966864653205709
0004c0 e8 af b4 4a 79 33 83 3f 8a e6 23 f6 63 24 82 3f
       0.009375522224750868 0.008858471821884057
0004d0 78 9f bc 41 c5 73 c5 bf 7b b6 a7 7c f7 ed c2 bf
       -0.16759553632550328 -0.1478871687572115
0004e0 85 33 a9 6e a5 fc c6 bf bf 39 d0 35 74 8b c1 bf
       -0.17958515075079276 -0.13706829669577122
0004f0 ef e0 3d 95 99 61 ac bf d7 8c f4 e1 6b fc 75 bf
       -0.05543212839887867 -0.005367680946878304
000500 ba 7b d1 fd e0 36 e8 bf 17 04 c6 63 44 fd d0 bf
       -0.7566990811718519 -0.2654581999159417
000510 9d 0b df fb 4a 56 d4 bf 5a 04 ca 75 66 fa c5 bf
       -0.31776690098575405 -0.17170410872862157
000520 89 9a 24 7e 96 2d c9 3f 75 28 3b 0a 5e ed aa 3f
       0.19670373114896147 0.05259221911326587
000530 fa e9 d6 d0 50 5a f0 bf 53 5d ad f0 97 66 9f bf
       -1.0220497281831045 -0.030664800705691175
000540 24 8d 1b d1 79 d3 94 3f d5 62 98 38 89 c9 c7 3f
       0.02033796633521691 0.18583789123001418
000550 4e 54 bd 93 de 3f c0 bf cb bf cc e0 cc 07 bb bf
       -0.12694914068075253 -0.10558777321125416
000560 2a 20 06 13 b6 92 e0 bf d4 99 6c f4 6a 59 c1 bf
       -0.5179090854226207 -0.13554131445671536
000570 4a 8f c8 d5 75 45 b9 3f d6 4d 87 40 81 97 b7 3f
       0.09871612996408632 0.09215553117183303
000580 10 ab d0 3b 4f d5 c6 bf f7 fd 99 fe ff 7f 62 3f
       -0.17838468952808073 0.002258300771074802
000590 53 87 78 80 fb c3 ca bf 79 84 e5 a9 8b f6 df bf
       -0.2091059090899373 -0.4994229468484899
0005a0 3f 06 2b ba 52 7e a8 bf e2 cc cc b8 8e 36 bf bf
       -0.04783876917418838 -0.12192623149603635
0005b0 8a b9 59 9f da 09 ae bf 6c 7b a7 9b fb 1f c8 3f
       -0.058668930007900036 0.18847603893569997
0005c0 52 11 31 7b 0a 33 d2 bf 61 d7 09 bb 64 1f c3 bf
       -0.2843652918857248 -0.14939555294739207
0005d0 2b 5b d6 e1 80 2b d1 3f 72 c0 30 d7 e9 f9 d1 bf
       0.26828023962427733 -0.280878505846892
0005e0 40 eb af 52 00 c3 c4 3f 22 cb 21 d3 c0 89 91 bf
       0.16220096623859526 -0.017127049337840046
0005f0 90 df 3c c5 05 01 cc 3f 86 b6 fa 74 26 0d c8 3f
       0.21878120547057422 0.18790131294138152
000600 ad 7a f7 be 01 7d bb bf 7c 85 f3 04 f1 17 c0 3f
       -0.10737620270036059 0.12573063604126478
000610 d0 c2 d3 d2 07 c6 d7 3f a9 7b e8 42 a3 f0 d3 bf
       0.37146182621567636 -0.3115623620414519
000620 15 ab 57 e5 e0 5e c2 3f f5 58 2e c9 7a 85 b3 bf
       0.14352046202051186 -0.07625548755308727
000630 ae 5e 17 00 ad 61 a6 bf 8d d7 64 ca 19 78 ad 3f
       -0.043713957081931695 0.05755692096356233
000640 37 93 1d da ce b7 b2 3f 9c d5 27 32 e9 f6 70 3f
       0.0731171877392399 0.004141722604335565
000650 a1 ee f1 fa 9f a4 9b 3f 57 5c 87 88 e7 55 a5 bf
       0.02699518174311655 -0.0416710237656665
000660 9c 65 32 c9 72 03 a9 bf 3c dc 2c cb 0f da c2 3f
       -0.0488544340707435 0.14727971478143498
000670 eb 35 92 ad ea f9 c7 3f 91 d6 4c 31 f1 5c b7 bf
       0.18731435275223815 -0.0912619347917263
000680 16 5a a8 f2 f5 ae bc bf 15 39 e1 39 9b c3 c9 bf
       -0.1120446889329759 -0.20128193212662696
000690 2b fa 4b 39 a3 96 c5 3f b1 42 bb 48 28 60 b6 3f
       0.1686595945138419 0.0874047448699098
0006a0 54 30 d1 a2 98 2e b5 bf 7f 15 ac 36 d0 ad bf bf
       -0.08274225211170122 -0.12374593100329
0006b0 1d 49 ea 30 9d 77 b0 bf 7f b0 40 bf 38 af d9 bf
       -0.06432516521661964 -0.40131968190213024
0006c0 ac 5a 3d eb ff 0d bf 3f 18 c7 8b 24 f5 12 ce bf
       0.12130736821323279 -0.23495353970025046
0006d0 59 11 15 77 dd b1 c0 bf 1b 1d 51 97 0f 3d ad 3f
       -0.13042801203313095 0.0571064827168419
0006e0 b1 37 a8 ee 3a 5a ad bf fe ed 59 d1 e9 4f b1 3f
       -0.057329026825854064 0.06762563096156524
0006f0 1d 86 21 97 bf 54 c3 3f 5e 01 77 d3 04 bf c2 3f
       0.15102381591263817 0.14645443273003428
000700 13 19 58 b7 1a 21 9c 3f f3 44 bf e1 c0 91 92 3f
       0.027470033111989766 0.01813413026667816
000710 20 69 4b 25 c0 ff b3 bf 68 dd 59 b0 81 0c c0 3f
       -0.07812119398605377 0.12538167105570186
000720 e7 43 e8 0f de 06 cf bf c2 65 34 7c 2b 61 a3 3f
       -0.2423970773384376 0.03785072222872145
000730 c5 99 7a 53 0e 34 c0 bf 80 f0 9a b5 8e 80 d5 bf
       -0.12658862186544986 -0.3359715245712849
000740 e7 db 54 34 a1 0a c2 3f a4 ab 56 c1 8a a6 ac 3f
       0.14094939284561223 0.05595811472024728
000750 69 ad 3a 38 23 c3 a8 bf ae 19 15 a3 fc 2b a2 bf
       -0.048363781560818726 -0.03549184313537822
000760 32 6f 70 de 78 23 b1 3f 76 4c 10 39 9e f8 88 bf
       0.06694751196522189 -0.012192951313443095
000770 88 05 2b 11 7d d6 b1 bf e8 36 d6 7c f1 73 b6 3f
       -0.06967908543722079 0.08770665452740511
000780 a5 d6 ce dc b5 e4 b5 3f 30 2c 47 3d af f3 b5 3f
       0.08552109375781443 0.08574958082242357
000790 7a 0a 18 32 73 77 c6 bf 1a e1 d8 3a b4 19 b5 3f
       -0.1755203241919679 0.08242346226404998
0007a0 73 f0 ff 74 75 45 c2 bf 7c 95 a6 fa c2 53 b8 3f
       -0.14274471485976256 0.09502810115244203
0007b0 31 55 4c 41 ed f1 95 3f e4 b9 53 4b 88 0b 9a bf
       0.02143068991707259 -0.025434617612455926
0007c0 93 99 d7 b0 91 bc 9e bf 62 cc c1 02 6d aa b4 bf
       -0.03001620904788067 -0.0807254916888254
0007d0 5d 6a 3a af 59 ff 6a 3f c5 8a 28 09 b3 bd a4 3f
       0.0032955886507129288 0.04050979124828794
0007e0 7d c2 f4 c1 f0 ac bf 3f b5 ff 51 9f 38 9c 99 bf
       0.12373261199241799 -0.025009999012126822
0007f0 39 41 13 7f 52 e5 b6 bf c2 1a c3 a7 31 5b b6 bf
       -0.08943667986318794 -0.08732900949244551

hidden_layers.2.bias f8 [40]
000000 19 a8 b8 9d fe 00 bd bf 0d 5e a6 d3 69 56 cc bf
       -0.11329642630212823 -0.22138712725130497
000010 a7 b4 d0 a6 b6 5f b5 bf 25 47 8c 11 92 37 c7 bf
       -0.08349172184599017 -0.18138337952455533
000020 7e 94 e6 56 dc 60 a6 bf 04 60 03 78 1c 9e c4 3f
       -0.043707738502498636 0.1610751710893511
000030 d2 44 12 2b b8 2e c1 3f 49 b8 fd 8c 4f 5f c3 bf
       0.1342382631596935 -0.15134615310984348
000040 b0 ec 4c 02 13 66 9d bf 18 02 c4 47 e9 88 a1 bf
       -0.028709694877062375 -0.03424767495198838
000050 4e 76 0e fb b8 c4 c7 bf 20 cf dd fe a7 68 8b bf
       -0.18569099672906692 -0.013383209672361895
000060 ac 41 e8 ac af f7 90 3f 93 ef 6b 16 9b 85 a6 3f
       0.016569847992344997 0.04398808144284696
000070 e2 29 18 4c 8f 76 a9 bf ca a5 c3 56 43 a2 c5 3f
       -0.049732664145341735 0.16901437508140155
000080 30 c5 2a b6 25 ee b7 3f 3a 64 7c 06 5d 62 c0 bf
       0.09347758958280816 -0.12800181214041279
000090 97 76 9d 50 a8 c1 b7 bf 10 48 6e 6b f5 39 c5 bf
       -0.09279872863904824 -0.16583125825542355
0000a0 a6 7f ef b9 43 ba 81 bf 84 ef 10 53 37 35 b2 3f
       -0.008656052696039595 0.07112451341612142
0000b0 84 e5 87 fd 6d 4c c6 3f da 36 83 7b ac 8d c4 bf
       0.1742074478095611 -0.16057354002844343
0000c0 ea 3b 4b 34 66 09 c0 3f 84 9d 2f 4a 01 9d aa bf
       0.12528684190189604 -0.05197910338011538
0000d0 61 74 aa 7a ef af c4 bf f8 a1 b0 11 54 55 c7 3f
       -0.1616191243128098 0.18229151595848214
0000e0 87 bd 89 05 9f 36 76 3f c7 56 32 f0 99 f4 b6 3f
       0.005423184564832601 0.08966981996703814
0000f0 a1 be 8b 9d 80 89 bd 3f dc 0a 7f 91 94 60 8e bf
       0.11537937017760182 -0.014832649889176812
000100 66 d4 5a 11 2c ba a5 bf ba 93 c4 97 ba 4b 9b bf
       -0.04243600570536259 -0.026656070244957177
000110 80 01 64 06 b9 19 a9 bf ae 9d 6e 44 66 0a e0 3f
       -0.049024374036892304 0.5012694679798437
000120 9f ea 61 cd 86 40 c1 3f c3 c0 60 80 83 9d a6 3f
       0.13478169468347276 0.04417048399079839
000130 07 78 29 79 d7 09 a6 3f 4f f7 a0 bd 2c 47 c8 3f
       0.0430438361552064 0.18967208155839407

hidden_layers.3.weight f8 [40, 40]
000000 b6 86 49 7e ea 47 d3 bf f6 7c 77 52 c9 93 c2 bf
       -0.301264403655391 -0.1451350834531479
000010 60 75 68 f7 41 ec c1 bf 0a 76 ad 9d b8 99 c2 bf
       -0.14002251224966766 -0.14531619738674834
000020 4a 9a d4 ff 1a a3 c2 3f 8c 67 e3 fc c4 a5 af 3f
       0.14560258380625363 0.061811595792916924
000030 b4 bc 6b a4 72 11 aa bf 41 f8 5b ed a5 eb ba 3f
       -0.0509143663128894 0.10515820546058398
000040 09 8f f0 6b eb b1 c4 3f b3 eb 0c ee 50 08 b2 bf
       0.16167967577450096 -0.07043939410952653
000050 27 21 ec e6 7b e9 9e 3f 5b b6 39 34 91 9c b8 3f
       0.03018754574716911 0.09613902592692496
000060 4d 49 e4 71 0f 07 bf bf e9 eb 21 ef 8e 02 b3 3f
       -0.12120148211059707 0.07425778711505839
000070 17 73 20 93 87 b8 c0 3f a9 5e aa 5d 66 f6 b7 3f
       0.130631396140324 0.09360351359134235
000080 45 eb 66 3f 1d a2 89 3f 1b c5 dd 94 98 c1 af 3f
       0.012516239640594793 0.062023895427851104
000090 fe eb b8 42 0c b3 b0 3f 5a 23 70 ca fb 30 bf 3f
       0.06523205403293272 0.12184117977461764
0000a0 d2 da 5e bc fb d0 a2 3f 46 9f 0c de 36 8c b0 bf
       0.03675066637463477 -0.06463950081945055
0000b0 5b 68 eb 04 1a c0 c2 3f d3 83 ed 68 3c b7 d6 bf
       0.14648747673237747 -0.35493383643011817
0000c0 16 2f 94 9d e5 b8 be 3f 35 3c da 13 42 50 b6 3f
       0.12000880334033712 0.08716214165382115
0000d0 c7 37 8b 4e dc 1e bb bf 6d 5b ee df 7c 01 ca 3f
       -0.10593964498113372 0.20317040380606546
0000e0 96 91 a2 d9 cc d2 c1 3f e5 34 3a 0e dd 3d a8 3f
       0.13924561144552844 0.04734698103593774
0000f0 44 1e 79 98 21 f2 bb bf 8e 7a 57 a0 9f 43 c3 bf
       -0.10916337940681681 -0.15050120667634242
000100 ad 56 87 7d 62 c1 b2 bf 3a 02 aa dd 59 2c c2 bf
       -0.07326331677117066 -0.14197848628465853
000110 b6 a3 d9 b6 18 dd b3 bf 2f 21 e5 29 1d 64 b2 bf
       -0.07759241546740622 -0.07184011719539705
000120 d0 92 c7 e3 1a aa bf 3f c0 0c b7 7d 23 95 b1 3f
       0.1236893468954563 0.06868192500319292
000130 c0 9c e9 6b e7 1d a0 3f e9 b6 37 15 d9 b0 ba bf
       0.03147814934055182 -0.10426098602303181
000140 d5 7c 01 ee 19 f6 b0 bf aa 04 bc 5c a4 70 a6 3f
       -0.06625520764054056 0.04382814056408198
000150 7a d0 bb d4 30 ad a4 bf 8c c9 ff 3e 27 98 a2 3f
       -0.04038384053083717 0.03631708759339167
000160 ea 06 ba e1 f4 73 aa 3f 9d 05 b9 b9 33 34 cc 3f
       0.05166592841579905 0.22034308022015817
000170 1d 5e fd ef d4 eb a9 3f ea 0e 38 33 3c 4f c2 3f
       0.05062737874567012 0.14304306507994308
000180 59 e9 24 cc 6d ac ad 3f 6f 78 01 89 cf 6d be bf
       0.057956153078026325 -0.11886307806841655
000190 dc e6 12 b7 38 c1 bb bf 6b 87 3b b8 db e2 bd 3f
       -0.10841707677436879 0.11674283264031053
0001a0 6f ce 76 d1 14 bb bb bf 1e a2 ac d5 c4 44 b4 bf
       -0.1083233844172413 -0.07917432991656212
0001b0 0f 4d ce 53 6a e1 a8 3f f7 75 de 10 1e c1 7f bf
       0.048594782571990895 -0.007752530522251436
0001c0 0e 1b 06 08 6d 15 76 bf 77 d1 1e dd b4 83 c7 3f
       -0.005391527084049453 0.18370686337369665
0001d0 af 9c 72 b3 3f af 81 3f 0f c4 fe 0e d9 86 b9 bf
       0.008635041869935326 -0.09971386543362847
0001e0 79 56 32 57 0a 98 83 3f d3 f2 68 21 10 00 ac bf
       0.009567337785749462 -0.05468798072658889
0001f0 f9 37 c1 a6 cf cd bf 3f 15 65 5e ab 88 ef b0 3f
       0.12423417874489918 0.06615499671751864
000200 62 bb 3b d2 7b ae cb bf 35 9a 99 c0 5f a7 cb 3f
       -0.2162623192338869 0.21604535011575057
000210 39 34 c8 8d 8a ff 8a bf 2d 64 c8 cf 10 8d b1 bf
       -0.013182718707890216 -0.06855874131032698
000220 63 d4 0e 2b e2 fd cd 3f f5 ff 86 e9 a0 ad b2 3f
       0.23431040861547378 0.07296186162329817
000230 85 77 a6 62 5a e7 a1 bf e1 79 45 86 63 cd aa bf
       -0.03496820883013555 -0.052348241940069824
000240 ca e1 a4 bd 37 8f 82 3f 8c 5c 6d 60 dc ca a5 3f
       0.009062228655793887 0.042563330431840546
000250 74 55 52 63 e6 f1 b7 3f ea 01 a4 b0 23 af cc 3f
       0.09353485035747672 0.2240948307517237
000260 c2 f8 31 bb cb d3 ad 3f 1f 3a 5c a3 7d 26 cf bf
       0.05825649890992814 -0.24336214520049368
000270 81 9a a4 6d 87 e1 68 3f 67 77 84 b7 9f dc ba 3f
       0.003037228115448543 0.10492895346075458
000280 8e a5 ec 4c 79 76 c3 3f 76 95 06 13 13 4b b3 3f
       0.15205303436350132 0.07536429609770842
000290 3c a5 59 cc de 47 b2 3f c6 7a 59 23 34 72 b1 3f
       0.071409153833561 0.06814885962510706
0002a0 53 0b 9f 88 4c 44 cf 3f 17 23 15 89 b1 f2 b3 bf
       0.2442718188377407 -0.07792195889227248
0002b0 81 79 52 5d 6d ae c6 3f 36 6a 34 8f 23 1d be bf
       0.17719809586283122 -0.11763212438783274
0002c0 c9 3c ce 8e 0d f3 c0 bf 09 da 64 c7 a2 e1 42 bf
       -0.13241738770418568 -0.0005762142962229554
0002d0 34 94 ed cf b2 8b ae bf 20 47 d6 44 34 15 ba 3f
       -0.05965956485923876 0.10188605003920914
0002e0 37 2b 84 95 2b 41 af bf 9e f3 71 d4 c4 7b ac bf
       -0.06104408455038029 -0.05563178151439917
0002f0 7e 9f 7f 4f 64 76 b3 bf 03 57 e6 2a 53 3d 84 bf
       -0.07602526608354584 -0.0098825929133386
000300 6e c0 73 cf f7 59 b2 bf e7 e4 94 9d 2b 0a b6 3f
       -0.0716853028750408 0.08609268758017984
000310 30 e8 bd a7 c5 7e c4 3f 92 28 9d 67 e5 35 b9 bf
       0.16011877718466527 -0.09847863940845716
000320 61 7d 8f 90 ff e5 bf 3f 17 5a de 9e 42 7b b5 3f
       0.12460324553784609 0.08391205195071226
000330 fa cf 8f 66 f1 ff a9 3f 60 80 3d 6e 66 8a a1 3f
       0.05078081490492532 0.034259034115849074
000340 17 28 b6 7e 87 af ae bf 2b a9 4b a6 1f f5 91 3f
       -0.05993293210765687 0.017536634945750123
000350 57 42 f3 0a d1 70 9d 3f a3 fa 06 f0 e7 ab c3 bf
       0.028750673573826848 -0.153683654976665
000360 35 22 f1 24 fd b9 c1 3f f2 e0 f6 e6 18 0e 74 bf
       0.1384884291058072 -0.004896256708370782
000370 83 b2 63 9e 43 af 9a bf e3 36 8e bf fc 0e bf bf
       -0.02605920461876333 -0.12132243801735458
000380 85 3c 8f 1c b4 34 b9 3f 9a 8b e7 98 8e aa ba bf
       0.09846044251684034 -0.10416499360103018
000390 f7 20 dd d7 83 cf b8 bf fa 3b ec 59 76 9b 8a 3f
       -0.0969164278041069 0.012991833323694014
0003a0 50 85 1c db 26 08 ad bf 05 5c cd e2 10 d8 bc bf
       -0.05670281815242595 -0.1126719049183152
0003b0 11 9f bc 1f 77 fd a9 3f ab c0 fd f3 d9 40 76 bf
       0.05076191198742042 -0.005432940844784333
0003c0 f4 69 a1 cf 3b a8 b2 3f 35 e9 c2 4e b1 80 d1 3f
       0.07287954157929005 0.27347977344074376
0003d0 f4 6f fc 4c 17 c2 95 bf 49 49 36 1f 54 c7 c0 3f
       -0.02124821097741854 0.13108302616144332
0003e0 63 58 00 b5 06 ea b5 bf 8b 3b 3d be 33 04 c6 3f
       -0.08560220641115417 0.1720032385732931
0003f0 1f 08 f7 ea 6f af bd 3f 97 23 21 e5 fb 24 b5 3f
       0.11595820890855223 0.08259558052044579
000400 d5 01 03 a1 fe 1a c1 3f d6 e3 e2 94 7c 2e c5 3f
       0.13363631116773314 0.1654811598762353
000410 5b 6e a1 aa 66 93 ba bf 1c c9 4c c3 a1 9f ab bf
       -0.10381166139398472 -0.053952269640278966
000420 49 40 b9 73 25 e4 c3 3f fb 8d 46 22 cf ee b9 bf
       0.15539997244423123 -0.10130018793875444
000430 21 7e 83 2e 76 91 c0 3f 40 04 7f 49 08 94 9f bf
       0.12943913718389502 -0.03083813618264153
000440 8e 68 d7 20 72 48 c2 3f 10 89 7e 9a 57 d0 b8 3f
       0.1428358707769956 0.09692904970009786
000450 60 bf f4 78 85 2d be bf 2f d7 9b fd 06 a8 c2 bf
       -0.11788210108784147 -0.14575278647651532
000460 23 7d 53 0d 6a 55 c5 3f d7 da dc 8d be 60 a1 3f
       0.1666691365307794 0.033941225831247195
000470 09 10 fb a3 88 7c c1 3f 61 93 f1 5d c0 fb d3 3f
       0.13661296851034901 0.3122406880777842
000480 37 d2 29 5c 42 38 c2 bf 63 61 40 fe 62 c7 a5 bf
       -0.14234189510502102 -0.04253682473808131
000490 71 0b 82 8d 6f 46 a4 3f 2b 02 ee 10 06 03 a9 bf
       0.03959988214867039 -0.048851193968406946
0004a0 9f 96 3e 22 30 01 d0 3f e7 a0 9b 4e 75 7d af 3f
       0.25007251114070955 0.06150404533929237
0004b0 2d 29 81 32 28 29 bc 3f 14 d9 47 e1 a7 45 a4 bf
       0.1100030062963568 -0.039593931436615076
0004c0 ca a3 18 9a 77 78 aa 3f 0a 6c 10 8b 66 1e ac 3f
       0.05170034175927858 0.05491943786201865
0004d0 e7 f7 18 45 fa 8b ab bf 9a 20 59 5c 33 87 e1 3f
       -0.05380231946445218 0.5477539828944089
0004e0 a4 d4 ef e2 c9 df be 3f ee b4 aa 50 8e 34 ac bf
       0.1206022433323875 -0.055088469836258244
0004f0 70 d3 ee 68 05 09 a8 bf bf a7 c4 3f c6 54 c4 3f
       -0.046943825778192116 0.15883710969620599
000500 76 00 b1 38 46 1b b2 3f 43 7c 05 ba e4 ad c1 bf
       0.07072867282932002 -0.1381193073566199
000510 cc e1 12 ec ce c8 b6 bf a2 b0 bc 61 8a 0a 69 3f
       -0.08900159133452873 0.0030567839402434053
000520 0e 0f f9 dd dc 82 78 bf 7c bf 00 f0 0a 79 b2 bf
       -0.005984175455129094 -0.07215946540304502
000530 4a 51 5e c0 ef 1c c5 bf 8c 07 ff 03 b9 44 b6 3f
       -0.1649455727862324 0.08698612544597334
000540 87 c3 80 83 ff 33 b6 3f f5 45 0b d0 df d1 85 3f
       0.08673092804452952 0.010654209648609284
000550 10 d5 3e e6 e9 bf ab 3f c7 75 9e b4 df 36 8c bf
       0.054198560100681914 -0.013776538562349295
000560 d3 13 bd 69 c3 a2 c0 bf d6 e2 8a cd f5 d6 c0 bf
       -0.12996714270607743 -0.13156006370788614
000570 32 88 6f 89 71 2f c0 bf 8b 21 7b 86 a9 19 c2 bf
       -0.12644786082006615 -0.14140814844564562
000580 2f 18 11 8d ef 0c 73 bf 5e 67 4a 1e 32 77 c2 bf
       -0.0046510083639699626 -0.14426256636653084
000590 1a 24 77 23 8a f4 b1 bf a2 03 3f fa 91 af bb bf
       -0.07013762822965966 -0.10814773902440192
0005a0 c4 36 99 4e ea 3a af 3f 33 3c c8 d1 3e 92 c0 3f
       0.06099636277631995 0.12946305506963682
0005b0 5d 13 ee df 40 90 c0 bf 47 04 eb 4f 3d 04 40 bf
       -0.12940226492005538 -0.0004887866378667859
0005c0 f7 25 ae 1b d8 0b 86 bf 8a 36 da 88 06 ff a0 bf
       -0.010764778465971665 -0.03319569035111865
0005d0 2a 53 7f 2f 65 5e 68 3f 46 29 10 fe b9 59 a5 bf
       0.002974698665619964 -0.04170018411976399
0005e0 0b a3 f7 bb 82 d9 b9 bf 89 0d 5f 54 20 ab bd bf
       -0.1009751995949381 -0.11589242992254446
0005f0 8e 9c 82 61 0a 27 b6 3f 72 13 b6 64 16 bc a4 3f
       0.0865332115232482 0.04049749354729827
000600 fa a5 15 51 97 43 b1 bf 08 8e 79 3d 56 30 af bf
       -0.06743760804751978 -0.0609156560938367
000610 fe 86 32 a2 33 f8 b9 3f d3 47 50 71 ed 17 9c bf
       0.10144350728890214 -0.027435026208031687
000620 3e 81 dc 27 67 8a 84 bf 9e 61 19 ab 50 81 b4 bf
       -0.010029607681247495 -0.08009819199776877
000630 d1 0f e1 71 aa 32 a9 3f eb 5d b2 70 81 c5 c1 3f
       0.049214674378646024 0.13883989336748867
000640 1c bb 4f e9 f6 a0 c0 3f db 24 5f d3 d7 9e b9 bf
       0.1299122466293391 -0.10008000288430045
000650 50 12 18 a4 73 0f b4 3f cd 87 46 02 1a 6c a3 bf
       0.07836077457620516 -0.03793412473466127
000660 80 1a f8 f0 d7 00 bc bf 92 78 19 87 e0 8c 89 3f
       -0.10938787110363002 0.012475732920560288
000670 1a 13 a3 e9 3c a5 b3 bf 9a 90 82 d1 84 1e ac bf
       -0.0767400808718545 -0.05492034013266896
000680 a1 6b 25 48 be 2f a1 bf e7 58 94 4d 65 9e c0 bf
       -0.03356737738314242 -0.12983385360775587
000690 ce 2e 2f 4f 1a 1a b5 bf b5 24 99 bf 6c 6a b7 bf
       -0.08242954667292254 -0.09146766355219678
0006a0 cc 41 43 7f 93 bd b2 3f cd 7c 3d 5b 8f d6 37 3f
       0.07320520264625613 0.00036374092018394145
0006b0 58 fa 11 80 95 3d bc 3f 1e 2e 12 7c 5a 8d 87 bf
       0.11031469704355723 -0.011500079070422106
0006c0 8a a6 6c 94 66 72 b9 bf 3b 97 5e 7f f5 18 ba 3f
       -0.09940186618464444 0.1019433437309915
0006d0 b2 6e 7c 1f 53 de be bf 30 c9 0f 42 d0 21 ba 3f
       -0.12057990568831192 0.10207845318635544
0006e0 81 af c7 6d 5a 04 a0 3f ad 28 33 a2 7f 5d af 3f
       0.03128321256721645 0.06126021246889599
0006f0 d0 00 c6 d5 e5 15 bf bf 3b 62 5f e6 b5 21 9f bf
       -0.121427883806976 -0.030402033029391467
000700 bd e3 a7 eb be f3 c3 3f ac 9b 4b 17 de c7 b8 3f
       0.15587603098518157 0.0967997366784476
000710 d1 49 54 01 e9 32 b1 bf 83 60 5e 3f c7 18 c3 bf
       -0.06718307764484811 -0.14919367403195247
000720 2a ce 17 46 3d 28 c1 bf 0c 81 15 90 0f 20 ae 3f
       -0.13404050753125435 0.058838354433421086
000730 69 a4 4e 60 19 36 a9 3f 71 8e 5b fb 13 50 a6 3f
       0.04924086857438043 0.04357969706850618
000740 8f 4d 2d 95 f6 1f c1 bf d5 f7 d5 20 ac 02 c2 3f
       -0.1337879398730419 0.14070655444441962
000750 d3 b7 ef 2c 6d ba 7e 3f 06 8d a9 27 e0 e4 94 3f
       0.007502008883404759 0.020404341145320103
000760 ef 08 22 aa 16 00 9d bf 98 af 96 82 17 9e c3 bf
       -0.02832065022858726 -0.1532620799674731
000770 ee 9a 0e 47 38 5c a8 3f 34 30 ba 51 11 a6 bb bf
       0.047578581499058234 -0.10800274129195558
000780 1b 0b 0b 67 82 27 d6 bf e1 cf 05 bb d2 54 d1 bf
       -0.346161461475434 -0.2708021952050768
000790 d3 2b ce 5f 06 d7 b5 bf 0c 6a c2 29 59 83 a7 bf
       -0.0853122695827289 -0.04592398295172381
0007a0 80 f3 04 42 39 43 b9 3f d2 09 4b 10 76 0f 8c 3f
       0.09868200170326524 0.013701364872194786
0007b0 e0 9d 73 55 93 6c ad 3f 1d 58 c8 92 d5 f8 b0 bf
       0.057468990498644734 -0.06629690965232311
0007c0 3a 01 05 65 8b 35 bb 3f d6 47 1e f0 7f 37 c4 3f
       0.10628577438638312 0.157943718190437
0007d0 1a 9e ab 84 df ae b9 3f 84 64 55 94 e4 f2 8d bf
       0.10032460202239016 -0.01462343766859165
0007e0 b7 6b 37 8b e7 95 bf bf 73 f5 a5 c6 d5 18 a2 3f
       -0.12338111065711997 0.03534572648912162
0007f0 f9 8f aa 46 d8 44 b8 3f 66 da 93 25 42 ea c8 3f
       0.09480048871279213 0.19464899859277124
